checkpoints/task-008.pth (torch, 179983 bytes, 16 tensors)

conv1.weight f4 [10, 1, 5, 5]
0	0xbf00aa08	-0.5025945
1	0x3f8a3800	1.079834
2	0x3f51770d	0.8182228
3	0xbe24d6c0	-0.16097546
4	0xbf42a387	-0.7603077
5	0xbeb4fcfb	-0.3534926
6	0x3dc93b57	0.09825771
7	0x3f2c9746	0.67418325
8	0x3cf3940b	0.029733678
9	0xbfa4b544	-1.2867818
10	0x3e8ea839	0.2786272
11	0x3eaed3ec	0.3414606
12	0x3eea1f42	0.45726973
13	0xbe72d1c1	-0.23712827
14	0xbf563ef4	-0.8368981
15	0x3efe6650	0.49687433
16	0xbd83a64d	-0.06428204
17	0xbd97dc8d	-0.074151136
18	0xbf2f4826	-0.68469465
19	0xbf1ecdb9	-0.6203266
20	0xbe754bca	-0.23954692
21	0xbec95030	-0.3931899
22	0xbf08dfa8	-0.5346627
23	0xbf0ec7d4	-0.55773664
24	0xbefbae26	-0.49156302
25	0xbee67bb2	-0.45016247
26	0xbf2cff03	-0.67576617
27	0x391c271c	0.00014891889
28	0xbe137cfa	-0.14403144
29	0xbe345ddb	-0.17613928
30	0xbf1186f6	-0.5684656
31	0xbf1b6f48	-0.60716677
32	0xbeca4f2d	-0.3951353
33	0x3ee722f8	0.45143867
34	0x3e71b0af	0.23602556
35	0x3ea0777e	0.31341165
36	0x3e807ca9	0.25095108
37	0x3f9e7486	1.237931
38	0xbdba39ca	-0.09093054
39	0xbf955d6e	-1.1669137
40	0x3f4cde00	0.80026245
41	0x3f2f5fa7	0.6850533
42	0xbd87ae2c	-0.066250175
43	0xbe2022d4	-0.15638286
44	0xbf94b7c4	-1.1618581
45	0xbed569d6	-0.4168231
46	0xbf7e32bc	-0.99296165
47	0xbf9be89f	-1.2180365
48	0xbf870a34	-1.0549989
49	0xbed652d6	-0.41860074
50	0xbe4e4917	-0.20145069
51	0xbf2d058d	-0.67586595
52	0xbefb4723	-0.4907771
53	0xbe711db3	-0.23546486
54	0x3d4e033d	0.050296057
55	0x3e98e7d1	0.29864362
56	0xbd804749	-0.062635966
57	0xbeae4506	-0.34037036
58	0xbe988f38	-0.29796767
59	0xbe6bd163	-0.23029093
60	0x3e363122	0.1779218
61	0x3e927c7d	0.28610602
62	0xbdec40a8	-0.1153577
63	0xbe8aa868	-0.2708161
64	0xbe22f643	-0.15914254
65	0x3e707bc7	0.23484717
66	0x3ea1aed7	0.31578705
67	0xbe37139b	-0.17878573
68	0xbeeef242	-0.46669203
69	0xbdde84ea	-0.10865195
70	0x3f0ca4a9	0.5493875
71	0x3eb2efb7	0.34948513
72	0xbf1e7d8f	-0.6191034
73	0xbeaa0bd6	-0.33212155
74	0x3eac71e3	0.3368064
75	0xbf41bd2f	-0.75679296
76	0xbf3a9f5f	-0.7289943
77	0xbe09dbbc	-0.13462728
78	0x3f145443	0.57941073
79	0x3dfd6d51	0.12374366
80	0xbede7bc2	-0.43453795
81	0xbf09590d	-0.53651506
82	0x3e24ffb5	0.1611317
83	0x3f85151f	1.0397071
84	0xbe510b25	-0.20414408
85	0xbf3c8ba6	-0.73650587
86	0xbf3e72ef	-0.74394125
87	0xbcae569d	-0.021281535
88	0x3f8e112e	1.1098993
89	0xbe8bb3e5	-0.27285686
90	0xbf272d71	-0.65303713
91	0xbf187a70	-0.59561825
92	0xbf1cc79b	-0.61242074
93	0x3f4576c4	0.77134347
94	0x3e493d1d	0.19652219
95	0x3ed2c683	0.41167077
96	0xbe53203e	-0.20617768
97	0xbe2d681b	-0.16934244
98	0x3eeaacb1	0.45834878
99	0x3f433175	0.7624734
100	0xbec8adc5	-0.39195076
101	0x3df20421	0.11817194
102	0xbe734b31	-0.23759152
103	0x3f106847	0.56409115
104	0x3fa151d0	1.2603092
105	0xbf868892	-1.0510428
106	0xbf8268f2	-1.0188277
107	0xbfa617e4	-1.2976041
108	0xbfaa5e1e	-1.3309972
109	0x3ddb933c	0.10721442
110	0xbddba7c9	-0.10725362
111	0x3ee1cb23	0.44100294
112	0xbdcf4f42	-0.10122539
113	0xbf371f55	-0.71532184
114	0xbf97858f	-1.1837634
115	0x3e52381f	0.20529221
116	0x3eb2a7d6	0.34893674
117	0xbccc8e67	-0.024970246
118	0xbf44e51f	-0.7691211
119	0xbdc8e544	-0.09809354
120	0x3dd4e0b7	0.103944235
121	0xbdbf2a5b	-0.093342505
122	0x3f99984b	1.1999601
123	0x3f1fecdf	0.6247081
124	0x3f160d95	0.58614475
125	0xbe642e55	-0.222833
126	0xbe174408	-0.14772046
127	0x3e90eaf2	0.2830425
128	0x3f445371	0.7668982
129	0x3f64d9b9	0.8939472
130	0xbe9c44bb	-0.30521187
131	0xbee7b0c1	-0.4525204
132	0xbea134cc	-0.31485593
133	0xbd69b0b8	-0.057053298
134	0x3e72b883	0.23703198
135	0xbf3b6131	-0.7319518
136	0xbebfd804	-0.37469494
137	0xbecf3531	-0.4047027
138	0xbe74c800	-0.23904419
139	0xbe8f0928	-0.27936673
140	0xbf1ca44f	-0.61188215
141	0xbedf693a	-0.4363497
142	0xbf3cfe79	-0.73825794
143	0xbf623347	-0.88359493
144	0xbf550f55	-0.8322652
145	0xbe0efd5d	-0.13963838
146	0x3c431c13	0.011908549
147	0x3d82d27e	0.063878044
148	0x3d02f346	0.031970285
149	0x3e3d025b	0.1845793
150	0x3e2cc811	0.16873194
151	0xbea17ee3	-0.3154212
152	0xbeb5af79	-0.35485438
153	0x3ec2eaab	0.38069662
154	0x3efd63b8	0.49490142
155	0x3ecf0a7f	0.40437695
156	0x3f93e4a3	1.1554149
157	0x3f2d2593	0.6763546
158	0xbe1e29f0	-0.15445685
159	0x3e6338f4	0.22189695
160	0xbef86aa0	-0.48518848
161	0xbda0db5b	-0.07854339
162	0xbe644adc	-0.22294182
163	0x3f04dfa0	0.51903725
164	0xbeb20678	-0.3477056
165	0xbfb8cb9f	-1.443714
166	0x3ed58483	0.4170266
167	0x3f48af1d	0.783922
168	0xbdcaa34a	-0.09894426
169	0xbf8c7d66	-1.0975769
170	0xbfbe2237	-1.4854192
171	0xbfb72d5c	-1.4310718
172	0xbfd40fdb	-1.6567339
173	0xbfcf05c6	-1.6173637
174	0xbd44a2db	-0.048006874
175	0x3f032e9f	0.51243013
176	0xbec9583f	-0.3932514
177	0x3e5fa874	0.21841604
178	0xbd617b08	-0.055048972
179	0xbe05bb72	-0.13059786
180	0x3e902eb4	0.28160632
181	0xbed2f59d	-0.41203013
182	0xbecc1716	-0.39861363
183	0xbf6e6b53	-0.93132514
184	0xbe410567	-0.18849717
185	0x3ed06ca6	0.40707892
186	0x3f86f690	1.0543995
187	0x3be11c7d	0.006869851
188	0xbee4ef4d	-0.44713822
189	0x3f16f2e0	0.5896435
190	0xbf28c16d	-0.65920144
191	0x3fa0bad5	1.2557017
192	0x3e5ec080	0.2175312
193	0xbeed8eda	-0.4639805
194	0xbcab1300	-0.020883083
195	0xbf15bfdc	-0.5849588
196	0x3ebb2e33	0.36558685
197	0x3ecd87ef	0.40142772
198	0x3ec84831	0.39117578
199	0x3ed9687a	0.42462522
200	0x3e1c6e4f	0.15276454
201	0xbdbb4d09	-0.09145553
202	0x3e4bed2f	0.19914697
203	0xbedb5cb4	-0.42844164
204	0xbf5a85fc	-0.85360694
205	0x3e460d01	0.19340898
206	0xbd63f9d5	-0.05565818
207	0xbf60e553	-0.8784992
208	0xbf086268	-0.53275156
209	0xbec5cfd3	-0.3863512
210	0x3e159aaf	0.14609788
211	0xbf7c3f8b	-0.9853446
212	0xbf1a0251	-0.60159785
213	0xbcc4f8dc	-0.024044447
214	0xbe8f463a	-0.27983266
215	0xbee24080	-0.44189835
216	0xbf56f1a7	-0.8396248
217	0x3e0691f1	0.1314161
218	0x3e34ea33	0.17667465
219	0x3f6ccd68	0.92500925
220	0xbfa7557d	-1.3072964
221	0xbf37fdc0	-0.71871567
222	0xbdbd6e76	-0.092495844
223	0xbc810e6c	-0.015753947
224	0x3f8fb8aa	1.122823
225	0xbd9c7fe6	-0.07641582
226	0x3c8babba	0.017049659
227	0xbd02abf6	-0.031902276
228	0xbd018737	-0.03162309
229	0x3d6488a4	0.055794373
230	0xbd049e7c	-0.032377705
231	0xbe42bae7	-0.1901661
232	0xbe1f1024	-0.15533501
233	0xbe3b652f	-0.18300317
234	0x3d94903d	0.07254074
235	0x3e32ad09	0.1744882
236	0xbe01d6d8	-0.12679613
237	0x3e43b7c7	0.19113074
238	0xbd1533fb	-0.036426526
239	0x3d5f5553	0.05452473
240	0xbdc2490c	-0.09486589
241	0xbbda2e66	-0.006658363
242	0x3d233a01	0.03985024
243	0xbdaa5218	-0.083164394
244	0x3ce45646	0.02787317
245	0x3dcf9f42	0.10137798
246	0xbe22e087	-0.15905963
247	0x3c8ef518	0.017450854
248	0xbcf1d71e	-0.029521521
249	0xbd8dcb15	-0.069235004

conv1.bias f4 [10]
0	0xbf77e8a2	-0.96839345
1	0xbf3156ff	-0.6927337
2	0xbee7a721	-0.45244697
3	0xc01a24bd	-2.4084923
4	0xbf88ec3a	-1.0697091
5	0xbef44d62	-0.47715288
6	0xbf425739	-0.7591434
7	0xbfedca65	-1.8577391
8	0xbede7dde	-0.43455404
9	0xbe5518bc	-0.20810217

conv2.weight f4 [20, 10, 5, 5]
0	0x3e5e94b4	0.21736413
1	0x3f06c4d6	0.526441
2	0x3ef7a7e8	0.4837029
3	0x3d8f670d	0.07002077
4	0xbdc15d39	-0.09441609
5	0x3e227f5d	0.15868898
6	0xbe4dd4a5	-0.20100649
7	0xbf04f203	-0.5193178
8	0xbe1bbd4d	-0.15208931
9	0xbb77f832	-0.0037837145
10	0xbec9435c	-0.39309204
11	0xbec46ee6	-0.3836586
12	0x3dab0b9a	0.08351822
13	0xbd588b52	-0.05286724
14	0xbeabedb3	-0.33579788
15	0xbf091de7	-0.5356125
16	0xbcb5816e	-0.022156443
17	0x3ed1e1b6	0.40992516
18	0x3e39a43b	0.18129055
19	0x3caa657c	0.020800345
20	0xbea4b1b3	-0.32166824
21	0xbe8cf7f3	-0.2753292
22	0xbd050fb2	-0.03248567
23	0x3dca7924	0.09886387
24	0x3d8b815e	0.06811784
25	0xbb2b17a4	-0.002610662
26	0xbdd3ebbf	-0.103476994
27	0x3e75ec51	0.24015929
28	0x3e869944	0.26288807
29	0xbd813e06	-0.06310658
30	0xbb7a5867	-0.0038199665
31	0xbf0aca5f	-0.54215044
32	0xbf00cf92	-0.5031673
33	0xbe153583	-0.14571194
34	0xbe53c468	-0.20680392
35	0x3d87e9f9	0.066364236
36	0xbe9a42a9	-0.30128983
37	0xbde87c23	-0.11351802
38	0xbe764344	-0.24049097
39	0xbe10eb1c	-0.14152187
40	0x3d5e2be5	0.05424108
41	0x3eb0caa4	0.34529603
42	0x3d2165fd	0.039403904
43	0x3dbae83e	0.09126328
44	0x3e5a10a1	0.21295406
45	0xbd72fb74	-0.059321836
46	0xbdb063c4	-0.08612779
47	0x3e0acac2	0.13553908
48	0x3de95ba7	0.113944344
49	0x3e9477cd	0.2899765
50	0x3daeae4d	0.08529339
51	0x3c337451	0.010953025
52	0xbcaf70eb	-0.021416148
53	0x3b6d20a2	0.003618278
54	0xbde05d16	-0.10955255
55	0x3d573d24	0.052548543
56	0x3d035fcc	0.03207378
57	0x3c3587f8	0.011079781
58	0x3e325fe3	0.1741939
59	0x3b5ca10e	0.0033665332
60	0x3e769d93	0.24083547
61	0x3e790502	0.24318317
62	0x3ae1d68f	0.0017230081
63	0x3e0d5f90	0.13805985
64	0xbbd681ef	-0.006546251
65	0xbdb67ed3	-0.089109086
66	0x3d70fcf1	0.058834974
67	0xbcac03ed	-0.020997966
68	0x3e098646	0.13430128
69	0x3e437432	0.19087294
70	0x3c1f9fc3	0.00974268
71	0xbca3043c	-0.01989948
72	0xbd7911aa	-0.06080786
73	0x3ca5bdde	0.020232137
74	0x3d2601fe	0.040529244
75	0x3e93042e	0.28714126
76	0x3e505c0b	0.20347612
77	0x3e89b517	0.26895973
78	0x3dc84cf5	0.097803034
79	0x3d7733d4	0.06035216
80	0xbef55fc6	-0.47924632
81	0xbf11f46f	-0.570136
82	0xbe369070	-0.17828536
83	0x3ddcce83	0.107815765
84	0xbe988f93	-0.29797038
85	0xbf18bfc8	-0.59667635
86	0xbea78db5	-0.327253
87	0xbd09a9ff	-0.033609387
88	0xbe1880e9	-0.14892925
89	0xbda1178b	-0.078658186
90	0xbe0c3c23	-0.13694815
91	0xbe9c9f22	-0.3059016
92	0xbec93b79	-0.39303187
93	0xbe1eedae	-0.15520355
94	0xbda33c65	-0.07970504
95	0xbd7e61e0	-0.06210506
96	0x3b93aa75	0.004506404
97	0xbda26d78	-0.07931036
98	0xbe656267	-0.22400819
99	0xbeb3c341	-0.35109904
100	0xbe9cbb44	-0.30611622
101	0xbf163bd3	-0.58685035
102	0xbea8b26a	-0.3294862
103	0x3dc310f5	0.09524719
104	0x3d93cf04	0.072172195
105	0xbf132ea1	-0.57493025
106	0xbec7c748	-0.39019227
107	0x3e57306a	0.21014562
108	0xbdd8f123	-0.10592868
109	0xbe394b56	-0.18095145
110	0xbf0bad8a	-0.54561675
111	0x3f10ce48	0.5656476
112	0x3ed95682	0.42448813
113	0xbbf44132	-0.007454061
114	0x3e6e9a86	0.23301134
115	0xbd3d1f71	-0.046172563
116	0x3e912ca4	0.2835437
117	0x3e92a6af	0.28642794
118	0x3e57539b	0.21027987
119	0x3ee5007f	0.4472694
120	0xbece494d	-0.402903
121	0xbef99e4a	-0.48753577
122	0xbdb1cae6	-0.08681278
123	0x3cbca3b8	0.023027286
124	0xbe0413ae	-0.12898132
125	0xbf010fae	-0.5041455
126	0xbe7c9bc7	-0.246688
127	0x3e5ab5b0	0.21358371
128	0xbe32a1b8	-0.17444503
129	0x3e3e1ace	0.18564913
130	0xbf00f7a2	-0.5037786
131	0xbe6bf36f	-0.23042081
132	0x3e1a4012	0.15063503
133	0x3eb0d543	0.34537706
134	0x3e81766f	0.2528567
135	0xbf29a371	-0.66265017
136	0x3e00209c	0.1251244
137	0x3f27a8a9	0.6549173
138	0xbe0fc030	-0.14038157
139	0xbd3d41eb	-0.046205442
140	0xbe74f60a	-0.23921981
141	0xbeb51733	-0.35369262
142	0xbeefdcfa	-0.4684828
143	0xbeded815	-0.43524233
144	0xbe4139d9	-0.18869723
145	0xbd60a3fd	-0.05484389
146	0x3c679e43	0.014136854
147	0x3de445bb	0.111461125
148	0x3d5aba16	0.05340012
149	0x3dc7b14c	0.097506136
150	0xbf16c32f	-0.58891577
151	0xbec887d1	-0.3916612
152	0xbe36ce21	-0.1785207
153	0xbe7795a3	-0.24178176
154	0x3ebb102d	0.3653578
155	0xbe97d708	-0.29656243
156	0xbd81116e	-0.063021526
157	0xbe57cddc	-0.21074623
158	0x3e17da46	0.14829358
159	0xbe92e93a	-0.28693563
160	0xbf11d103	-0.5695955
161	0xbec052cc	-0.3756317
162	0xbd8fff58	-0.07031125
163	0xbc81bd00	-0.015837193
164	0xbebc5a2a	-0.3678754
165	0x3cdf00c7	0.02722205
166	0x3e02af2e	0.12762138
167	0xbd48b6d0	-0.04900247
168	0xbbca3a3f	-0.0061714943
169	0xbea9596c	-0.33076036
170	0x3eb57ac1	0.35445216
171	0x3ea63e50	0.32469416
172	0xbc8247f0	-0.015903443
173	0xbba8906f	-0.005144171
174	0xbdad72e1	-0.08469177
175	0x3d6fccac	0.0585448
176	0xbeb3756c	-0.35050523
177	0x3d8b0296	0.067876026
178	0xbbc778a9	-0.006087382
179	0xbea92bf6	-0.33041352
180	0xbbc282b8	-0.005935993
181	0x3b0ad59d	0.0021184452
182	0x3f081f26	0.5317253
183	0xbe87f87d	-0.2655677
184	0xbead0d30	-0.33799124
185	0xbcd9c954	-0.026585259
186	0xbd935291	-0.07193483
187	0xbede7d74	-0.43455088
188	0xbe3d0699	-0.18459548
189	0xbdeb6051	-0.1149298
190	0x3eca4476	0.39505357
191	0xbc28d5e1	-0.010304899
192	0xbeb95ffb	-0.3620604
193	0x3c8d7d26	0.01727159
194	0x39eaf605	0.00044815257
195	0xbd654353	-0.05597241
196	0x3d616bfd	0.055034626
197	0x3e876ad1	0.26448682
198	0x3e8e4f31	0.27794793
199	0x3e37792c	0.17917317
200	0xbf2f39a7	-0.68447345
201	0x3d0b43e3	0.03400029
202	0x3f43bb54	0.76457715
203	0x3ee15394	0.44009078
204	0x3d2a7f65	0.0416254
205	0xbf0e5fd5	-0.5561498
206	0xbdb19993	-0.0867187
207	0xbe884ee2	-0.26622683
208	0xbeb452aa	-0.35219318
209	0xbf2663c2	-0.6499597
210	0xbed3eee4	-0.41393197
211	0xbe98630c	-0.29763067
212	0xbe363d65	-0.17796858
213	0x3e0cee9c	0.13762897
214	0xbd3571e4	-0.044298068
215	0xbdce619d	-0.10077212
216	0x3e0cbcd7	0.13743912
217	0x3f12c952	0.5733844
218	0x3ef05c47	0.46945402
219	0x3eaed993	0.3415037
220	0x3d8a8eae	0.06765495
221	0xbe5afbf4	-0.21385175
222	0xbe8359ab	-0.2565435
223	0x3c987c69	0.01861401
224	0xbd8c86bc	-0.06861636
225	0xbd34ca68	-0.044138342
226	0x3bcfac76	0.0063376976
227	0x3d4c7788	0.04991868
228	0xbd12dd76	-0.035855733
229	0xbce9bc07	-0.028532041
230	0xbb88daec	-0.004176488
231	0x3c8ccfc4	0.017188914
232	0xbd69664f	-0.056982335
233	0x3d77d02e	0.06050127
234	0x3cb92aed	0.022603476
235	0x3d166557	0.03671774
236	0x3cd64d28	0.026159838
237	0xbd5bf402	-0.0536995
238	0xbd4267de	-0.047462337
239	0x3d3ffffd	0.04687499
240	0xbd5d812a	-0.05407826
241	0x3d2c6638	0.04208967
242	0xbcb52726	-0.022113394
243	0x3d5dbae8	0.054133326
244	0x3b08aac0	0.0020853728
245	0xbd6c4e05	-0.057691593
246	0x3bfb9236	0.007677342
247	0x3d79b0c7	0.060959604
248	0xbd08bf27	-0.033385422
249	0xbcfaef6c	-0.030631743
250	0x3d4bfc9a	0.049801446
251	0xbeb62fcf	-0.3558335
252	0xbecf7751	-0.4052072
253	0x3dbb1366	0.09134559
254	0x3e2185eb	0.15773742
255	0xbedba4a3	-0.42899045

conv2.bias f4 [20]
0	0xbf3bd457	-0.7337088
1	0x3d838d96	0.0642349
2	0xbf273931	-0.6532164
3	0x3e359650	0.17733121
4	0xbd6a981c	-0.05727397
5	0xbeb69ed2	-0.35668045
6	0xbf2fad0c	-0.68623424
7	0xbdd61bf7	-0.104545526
8	0xbdd068be	-0.10176228
9	0xbed62628	-0.41825986
10	0xbc45d51b	-0.012074734
11	0xbe8a4e58	-0.27012897
12	0xbf06f53f	-0.52717966
13	0xbe151161	-0.14557411
14	0xbdb5c695	-0.08875767
15	0x3e9a4df4	0.301376
16	0xbea6f28e	-0.3260693
17	0xbe8ce719	-0.27520064
18	0xbe01f60f	-0.1269152
19	0xbe77ed8d	-0.24211712

fc1.weight f4 [50, 320]
0	0x3dc87c8c	0.097893804
1	0xbd5fc6aa	-0.05463282
2	0x3e2722f8	0.16321933
3	0x3d9ea026	0.0774539
4	0x3e1fd4a1	0.15608455
5	0xbebf958e	-0.3741879
6	0xbd8bc677	-0.068249635
7	0xba11bed5	-0.0005559747
8	0xbce64961	-0.028111162
9	0xbedf38a8	-0.43597913
10	0xbe50a242	-0.20374396
11	0x3d0dcf1c	0.034621343
12	0xbea85d7f	-0.32883832
13	0xbe14735a	-0.14497128
14	0x3d3415fc	0.04396628
15	0x3daf121b	0.08548375
16	0xbe1b2023	-0.15148978
17	0xbe07f25b	-0.13276045
18	0x3c1abc1e	0.009444265
19	0x3cead92b	0.028668007
20	0xbe903feb	-0.28173766
21	0x3d83f36a	0.06442912
22	0xbd39dc31	-0.045376007
23	0x3e2739cf	0.16330646
24	0xbdc14225	-0.09436444
25	0x3e61b925	0.22043283
26	0xbe8c92a8	-0.2745564
27	0xbdb99fda	-0.090636924
28	0xbda73c1a	-0.0816576
29	0x3d8cf22e	0.068821296
30	0x3bed96e7	0.007250655
31	0xbe1c68f1	-0.15274407
32	0xbda1e9ed	-0.07905946
33	0x3dd153c9	0.10221059
34	0x3e4d673f	0.20058917
35	0x3df72f7e	0.12069605
36	0x3b8e67b2	0.0043458575
37	0x3e113ddb	0.14183752
38	0x3e55393d	0.20822616
39	0x3d8dd813	0.069259785
40	0xbe9bf007	-0.30456564
41	0x3c987c84	0.018614061
42	0x3e55c068	0.20874178
43	0x3e2d38a5	0.1691614
44	0xbe259524	-0.16170174
45	0xbe0da69b	-0.13833086
46	0x3df16f1b	0.1178877
47	0x3ec58a6d	0.38582173
48	0x3e7d75ff	0.24752043
49	0x3d4b62b6	0.049654685
50	0xbdbf054f	-0.093271844
51	0x3c463098	0.012096547
52	0xbe993a46	-0.29927272
53	0xbe891eb2	-0.2678123
54	0xbc1a4590	-0.009415999
55	0xbda48485	-0.080330886
56	0x3e54dfbc	0.20788473
57	0x3e90941b	0.28237996
58	0xbe650dda	-0.22368565
59	0xbdd2d931	-0.10295332
60	0x3e99a2be	0.30006975
61	0x3e842643	0.2581044
62	0xbe4a0251	-0.19727446
63	0x3dc97649	0.09837014
64	0xbde0520d	-0.1095315
65	0xbe9105e8	-0.2832482
66	0xbe95c76b	-0.29253706
67	0x3e0da03f	0.1383066
68	0xbdb03637	-0.08604091
69	0x3ea7320b	0.32655367
70	0x3d403707	0.04692748
71	0xbe2fd629	-0.1717154
72	0x3e13a7be	0.14419457
73	0x3e5edade	0.21763179
74	0xbda6001d	-0.0810549
75	0xbe246938	-0.16055763
76	0xbe70a28a	-0.23499504
77	0xbca3152a	-0.019907553
78	0x3e841150	0.25794458
79	0x3dc3c71b	0.09559461
80	0x3d3d3ecc	0.046202466
81	0x3d4bafcc	0.0497282
82	0x3d14d1f1	0.03633303
83	0x3c6f2f23	0.014598641
84	0x3d0d8013	0.03454597
85	0xbdf66aa3	-0.12032058
86	0x3da6cefb	0.08144947
87	0x3e4ebd49	0.20189394
88	0x3e878d29	0.26474884
89	0xbb692889	-0.003557714
90	0xbe5d2bde	-0.21598765
91	0xbdfbd565	-0.12296561
92	0xbea72287	-0.3264353
93	0xbe504303	-0.20338063
94	0x3d872983	0.065997146
95	0x3e0d15fa	0.13777915
96	0x3e7dd328	0.24787581
97	0xbddb0c84	-0.106957465
98	0x3e2eb1d2	0.1706002
99	0xbdc9857b	-0.098399125
100	0xbc1cc728	-0.009568967
101	0xbe180dda	-0.14849034
102	0xbe32ce86	-0.17461595
103	0x3ddfa840	0.10920763
104	0x3e889ffd	0.2668456
105	0xbdb26bfc	-0.08712003
106	0xbe792459	-0.24330272
107	0x3e437789	0.19088568
108	0xbe52df06	-0.20592889
109	0xbea5580a	-0.3229373
110	0xbe212bb3	-0.15739326
111	0x3dfa1293	0.12210574
112	0x3d886632	0.06660117
113	0x3e684201	0.22681428
114	0x3e922da1	0.28550437
115	0xbd3017ba	-0.042991377
116	0x3ee040ab	0.43799338
117	0xbe217be5	-0.15769918
118	0x3dce6784	0.10078338
119	0x3d778bb2	0.06043596
120	0xbed25d13	-0.41086635
121	0xbec31b1b	-0.38106617
122	0xbd9ebf1a	-0.077512935
123	0x3eb0fdf5	0.34568754
124	0xbdee6aba	-0.1164145
125	0xbe5b4f7f	-0.21417044
126	0x3c8c5e2f	0.017134754
127	0x3d7d9654	0.061910942
128	0xbd431ce2	-0.047634967
129	0xbc513245	-0.012768333
130	0xbdc67938	-0.096910894
131	0x3e1d4aea	0.15360609
132	0x3cca8004	0.024719246
133	0x3dccfb01	0.10008813
134	0xbd62a6d7	-0.055334892
135	0xbd86eb6d	-0.06587873
136	0xbc8e98d4	-0.017406859
137	0xbba41798	-0.0050076954
138	0xbe3ababa	-0.18235293
139	0x3e46b635	0.19405444
140	0xbd316625	-0.043310303
141	0xbe04194f	-0.1290028
142	0x3d61b649	0.05510548
143	0x3e3f33de	0.1867213
144	0x3d99c1f3	0.07507696
145	0xbd8e68cd	-0.06953583
146	0x3ddb5fe2	0.107116476
147	0x3de24765	0.11048774
148	0x3ee4ad8e	0.44663662
149	0xbdaf5f0f	-0.08563053
150	0x3e5ebb5d	0.21751161
151	0xbe892a4e	-0.26790088
152	0xbe3ee8de	-0.1864352
153	0xbed1550f	-0.40885207
154	0xbea5d5f5	-0.323898
155	0xbaf76df9	-0.0018877379
156	0xbe5c819b	-0.21533816
157	0xbec0d9f1	-0.37666276
158	0xbe0e5346	-0.13898954
159	0x3e868c6f	0.26279017
160	0xbe5f2d4e	-0.21794626
161	0xbe71972e	-0.23592827
162	0xbd88d471	-0.06681145
163	0xbca6d75b	-0.020366361
164	0x3e28f378	0.16499126
165	0x3e390116	0.1806682
166	0xbc6b3de1	-0.014358015
167	0xbe41a4a3	-0.1891046
168	0x3c30204c	0.010749888
169	0xbdddcfbe	-0.10830639
170	0xbe925301	-0.28578952
171	0x3d9a053a	0.07520528
172	0x3d2a534f	0.041583356
173	0xbd65a9b2	-0.056070037
174	0xbdda8f79	-0.106718965
175	0x3ed1e7a2	0.40997034
176	0x3daa40a6	0.08313112
177	0x3e1e351c	0.15449947
178	0xbe19268e	-0.14956114
179	0x3c5d784e	0.013517452
180	0xbecb6332	-0.39724118
181	0xbe7fe9d6	-0.24991545
182	0x3d771d77	0.060330834
183	0x3e44fa97	0.19236217
184	0x3e047cc1	0.12938215
185	0x3dc9b337	0.09848636
186	0x3cdc1053	0.026863253
187	0xbe35b59b	-0.17745058
188	0x3eebaea3	0.46031675
189	0x3dd1c529	0.102426834
190	0xbd11e001	-0.035614017
191	0xbdf750cb	-0.12075957
192	0x3e692bee	0.22770664
193	0x3e068a49	0.13138689
194	0xbdcd9769	-0.10038645
195	0xbe3f9a38	-0.18711174
196	0x3e45a1bf	0.19299982
197	0x3e224356	0.15845999
198	0x3dc93d9f	0.098262064
199	0x3c54846d	0.012971026
200	0x3deb0c90	0.114770055
201	0xbe43cffb	-0.19122307
202	0xbcc66fce	-0.024223235
203	0x3dfc07c3	0.12306168
204	0xbef7fb94	-0.48434126
205	0xbe62d736	-0.22152409
206	0x3cf10284	0.029420145
207	0x3d40c724	0.047064915
208	0x3dc6b6f5	0.09702865
209	0xbd6e896e	-0.058236532
210	0x3d94089a	0.07228203
211	0xbd7e1f82	-0.062041767
212	0xbe40f8e1	-0.1884494
213	0x3d7ca50b	0.061680835
214	0x3d0734fd	0.033009518
215	0x3e659c28	0.2242285
216	0xbed9779a	-0.4247406
217	0xbe7cfcd1	-0.24705817
218	0x3e519171	0.20465638
219	0x3ebadf45	0.36498466
220	0x3b564643	0.0032695688
221	0xbd9ec0d7	-0.07751625
222	0xbc06c648	-0.008225985
223	0x3dab7573	0.08372011
224	0x3e196e9d	0.14983602
225	0xbe82eb48	-0.2557013
226	0xbe230614	-0.15920287
227	0x3d8f0a9c	0.069844455
228	0xbeefbfaa	-0.46825916
229	0xbdd2c489	-0.10291392
230	0x3db165d0	0.08661997
231	0xbc744d6e	-0.014911039
232	0x3e8eb113	0.27869472
233	0x3dbc66b9	0.0919928
234	0xbdfaf7d6	-0.12254302
235	0xbd8b6a2f	-0.06807362
236	0x3dcd7d49	0.10033662
237	0x3e5c76e1	0.21529724
238	0x3e0c87c2	0.13723662
239	0x3dd447df	0.10365271
240	0x3d1d7353	0.03844006
241	0xbc97c97b	-0.01852869
242	0xbdc0d4e4	-0.09415606
243	0xbe8ba48e	-0.27273983
244	0xbebae398	-0.36501765
245	0xbe6a77cc	-0.22897261
246	0x3e47c220	0.19507647
247	0xbe1276de	-0.14303157
248	0x3eff0cc5	0.4981443
249	0x3d1f0b13	0.03882892
250	0x3df87beb	0.121330105
251	0xbeb3a050	-0.35083246
252	0x3dc51485	0.096230544
253	0xbda24890	-0.079239964
254	0x3e96274e	0.29326862
255	0x3d04a608	0.032384902

fc1.bias f4 [50]
0	0x3d3ecbfd	0.046581257
1	0xbe62150d	-0.22078343
2	0x3e33e828	0.1756903
3	0xbe6de161	-0.23230506
4	0x3e1a0d40	0.15044117
5	0x3d769032	0.06019611
6	0x3f2ad2eb	0.66728085
7	0x3e26ec9e	0.163012
8	0x3e2d3cb5	0.16917689
9	0x3dcb856c	0.099375576
10	0x3e199cfc	0.15001291
11	0x3dc3a08e	0.09552108
12	0x3eb5b5e1	0.35490325
13	0x3f267088	0.6501546
14	0xbe7b6909	-0.24551786
15	0x3f10867c	0.56455207
16	0x3eca6607	0.39530966
17	0xbdfa0c43	-0.1220937
18	0xbe961bd7	-0.29318115
19	0x3f0e90c4	0.55689645
20	0x3cc07047	0.023491038
21	0x3de38880	0.1111002
22	0x3f6d9043	0.9279825
23	0xbe866426	-0.26248282
24	0xbd9f02f1	-0.07764233
25	0xbd5e5f9e	-0.054290406
26	0x3eb704c6	0.3574583
27	0x3f6741c0	0.903347
28	0x3df7e467	0.12104111
29	0xbdd92980	-0.106036186
30	0x3e543b26	0.20725688
31	0x3f721ab6	0.9457201
32	0x3c5ceb61	0.013483853
33	0xbe48e4ce	-0.19618532
34	0x3e16854e	0.14699289
35	0x3f46560f	0.77475065
36	0x3f492043	0.7856485
37	0xbe9dfb2c	-0.3085569
38	0x3e9f6d39	0.31138018
39	0x3d151a30	0.036401927
40	0x3f57c62d	0.8428677
41	0x3ee56b55	0.4480845
42	0x3dec7f05	0.115476646
43	0xbdf743ec	-0.12073502
44	0x3dd62d92	0.104579106
45	0xbe8b2c90	-0.27182436
46	0x3dd7981d	0.1052706
47	0x3e783f24	0.24242836
48	0x3f410e06	0.75412023
49	0xbe9cb1f7	-0.30604526

fc2.weight f4 [10, 50]
0	0xbe143ace	-0.14475557
1	0xbe250843	-0.16116433
2	0x3ed7dabc	0.4215907
3	0xbeb8487b	-0.35992798
4	0x3ef21e63	0.47288808
5	0xbd9a3952	-0.07530464
6	0xbe150d54	-0.14555866
7	0x3da81424	0.082069665
8	0x3eb773e6	0.3583061
9	0x3ef508c5	0.47858253
10	0x3da9f7e9	0.08299238
11	0x3ebea632	0.37236172
12	0xbdd65f23	-0.10467365
13	0xbb72a7e2	-0.0037026335
14	0xbe18f357	-0.14936577
15	0xbf12fca0	-0.57416725
16	0xbcabc528	-0.020968035
17	0x3efff456	0.499911
18	0xbdbfec8d	-0.0937129
19	0x3ec868b1	0.39142373
20	0x3ddf9604	0.10917285
21	0xbe6c7e56	-0.23095068
22	0xbe549bcf	-0.20762561
23	0xbeb45bb1	-0.35226205
24	0xbe5597e1	-0.20858718
25	0x3f060a2c	0.5235927
26	0x3eaf43a5	0.34231296
27	0xbf0b57b5	-0.54430705
28	0xbefae1cd	-0.49000397
29	0xbe8fac94	-0.28061354
30	0xbeb86b37	-0.36019298
31	0x3ec01856	0.37518567
32	0x3e943323	0.28945264
33	0xbf09c791	-0.5382014
34	0xbeeed606	-0.46647662
35	0xbeacf56d	-0.33780995
36	0xbe5863dc	-0.21131843
37	0xbe284f8d	-0.16436596
38	0xbe88984f	-0.26678702
39	0xbec0e256	-0.3767268
40	0xbe1c2bd4	-0.15251094
41	0xbe22332b	-0.15839832
42	0xbec5a5a0	-0.38602924
43	0xbeec19f7	-0.4611356
44	0x3eb959c8	0.3620131
45	0xbde23712	-0.1104566
46	0xbe88c905	-0.26715866
47	0xbefcabd9	-0.4934986
48	0xbe812818	-0.25225902
49	0xbe4b2316	-0.19837603
50	0xbeb87a67	-0.36030886
51	0xbc4ed6f9	-0.012624496
52	0xbcbe5e52	-0.023238335
53	0xbe3ac870	-0.18240523
54	0xbeddfd00	-0.43357086
55	0xbc1457ff	-0.009054183
56	0x3edda6aa	0.43291217
57	0xbeb97bae	-0.36227173
58	0xbe9d57db	-0.3073109
59	0xbed65a43	-0.4186574
60	0xbf040f5e	-0.5158595
61	0xbed5c907	-0.41754934
62	0x3e882122	0.26587778
63	0x3ef5e349	0.48024967
64	0xbe77e2ab	-0.2420756
65	0x3e9f9030	0.31164694
66	0xbe922754	-0.2854563
67	0xbf099d15	-0.53755313
68	0xbed03b6a	-0.4067033
69	0xbe4590ca	-0.19293514
70	0xbdd9b8d0	-0.10630953
71	0xbe4be02b	-0.19909732
72	0x3ec62b3c	0.3870486
73	0xbe918e9d	-0.28429118
74	0xbec32d2d	-0.38120404
75	0xbf159825	-0.5843528
76	0xbe3fc6af	-0.18728136
77	0x3ee1e548	0.4412024
78	0xbe848f95	-0.25890794
79	0xbeb1c3c6	-0.34719676
80	0xbe9458ce	-0.28974003
81	0x3e789e76	0.24279198
82	0xbf3805ee	-0.7188405
83	0xbec39ad9	-0.38204077
84	0x3e885434	0.26626742
85	0x3ef7463a	0.48295766
86	0x3efa87d3	0.4893175
87	0xbed46bfb	-0.41488633
88	0x3ea46eeb	0.32115874
89	0xbe0b266c	-0.13588876
90	0x3e4beb23	0.19913916
91	0x3f157aec	0.5839069
92	0xbda833b0	-0.082129836
93	0xbedade27	-0.42747614
94	0xbef4f23b	-0.47841057
95	0xbecb57ed	-0.3971552
96	0xbe8b7d46	-0.27244014
97	0x3e77d71c	0.24203151
98	0x3e8b1a88	0.2716868
99	0xbeb67d85	-0.3564264
100	0x3ea700a4	0.32617676
101	0x3eb40868	0.35162663
102	0x3e8d503b	0.27600273
103	0x3e34dcd7	0.17662369
104	0xbe86258b	-0.26200518
105	0x3edb6440	0.42849922
106	0x3e8ba2b8	0.27272582
107	0x3d841ade	0.06450437
108	0x3e73cbe3	0.23808245
109	0x3f02a280	0.51029205
110	0xbed9b18d	-0.42518273
111	0xbeb0b008	-0.345093
112	0x3eab8420	0.3349924
113	0x3ce87312	0.028375182
114	0xbe55be5c	-0.20873398
115	0x3d81defd	0.0634136
116	0xbd1fd0d4	-0.039017513
117	0xbeb3f4c7	-0.35147688
118	0xbdd850bb	-0.10562273
119	0x3b99c3d2	0.004692533
120	0x3eb63850	0.35589838
121	0x3f1cc331	0.6123534
122	0xbd71025d	-0.058840144
123	0xbe74bd53	-0.23900346
124	0x3d336125	0.043793816
125	0xbecf10d1	-0.40442517
126	0x3e7cff1e	0.24706694
127	0xbdf0c693	-0.11756625
128	0xbd45eece	-0.048323445
129	0x3d2d9c23	0.04238523
130	0x3d77a55e	0.06046044
131	0xbd20d60e	-0.03926664
132	0x3da519d9	0.08061571
133	0x3b777c09	0.003776314
134	0x3e275ea6	0.163447
135	0xbe7f2c41	-0.24919225
136	0x3eda0a27	0.4258587
137	0x3efab6b9	0.4896753
138	0xbe21df08	-0.15807736
139	0xbe07014a	-0.13184085
140	0xbe1970f8	-0.149845
141	0x3efebfbb	0.49755654
142	0x3eaef81b	0.34173664
143	0xbe82b59b	-0.2552918
144	0xbe98c200	-0.2983551
145	0x3ec4d752	0.38445526
146	0x3de86ea7	0.1134923
147	0x3ee71441	0.4513264
148	0xbee1ee32	-0.4412704
149	0xbe3cd5e8	-0.18440974
150	0x3e42cc9f	0.19023369
151	0xbdd3ea68	-0.10347444
152	0xbe0009a4	-0.12503678
153	0x3e9c009b	0.30469212
154	0xbe725ba3	-0.23667769
155	0x3d7337fb	0.05937956
156	0xbeabd948	-0.3356421
157	0xbe333a4e	-0.1750271
158	0x3e7b36b6	0.2453259
159	0xbe6c0d36	-0.23051915
160	0xbec98861	-0.3936186
161	0x3bbbab51	0.0057272096
162	0xbd556517	-0.05209836
163	0xbed0cbba	-0.4078043
164	0x3d820f53	0.06350579
165	0x3ee8cb47	0.45467588
166	0xbe98929e	-0.2979936
167	0xbd82ed1c	-0.06392881
168	0x3ded78bc	0.11595294
169	0xbeb8c8a3	-0.36090574
170	0x3f17aff6	0.5925287
171	0xbe7983a7	-0.24366628
172	0xbd77742e	-0.060413532
173	0x3eaa097a	0.33210355
174	0x3e78426c	0.24244088
175	0xbe7ab001	-0.24481203
176	0xbdee600d	-0.11639414
177	0xbdaf3690	-0.08555329
178	0x3e8db513	0.2767721
179	0x3eb9c9c4	0.36286747
180	0xbe7e0aba	-0.2480878
181	0xbd8198d0	-0.06327975
182	0x3e99da2b	0.3004926
183	0x3ee4faec	0.44722688
184	0x3ef1ebe2	0.47250277
185	0xbe9a75c9	-0.30167988
186	0xbe419965	-0.18906172
187	0x3e1eb145	0.1549731
188	0xbd1d6899	-0.03842983
189	0xbe60e9ef	-0.21964239
190	0xbe75972b	-0.23983447
191	0xbd5b6953	-0.053567242
192	0x3f06064d	0.52353364
193	0xbe57d615	-0.2107776
194	0x3e2f9ab7	0.17148863
195	0x3de258b3	0.11052074
196	0xbe4c962a	-0.19979158
197	0x3f04898e	0.5177239
198	0xbeea8202	-0.45802313
199	0x3c093463	0.008374306
200	0xbd2dbc02	-0.042415626
201	0xbd15c0d4	-0.03656085
202	0x3e20b842	0.15695289
203	0xbea9de73	-0.33177528
204	0xbd5eaaa8	-0.05436197
205	0x3be87142	0.0070935795
206	0xbc3b44ab	-0.011429946
207	0x3ea884f3	0.32913932
208	0x3bb3c2e8	0.005485881
209	0x3d888853	0.06666627
210	0x3f20fb43	0.62883395
211	0xbe092876	-0.13394341
212	0x3cff9a6d	0.031201566
213	0x3d8f615e	0.07000993
214	0xbd2003fb	-0.039066296
215	0xbe32fe5d	-0.17479844
216	0x3eb2fd76	0.34959
217	0xbedf6545	-0.4363195
218	0x3dae1fdc	0.085021704
219	0xbe3977c1	-0.18112089
220	0xbdf14acc	-0.117818445
221	0x3eba4925	0.3638393
222	0x3d4312d5	0.04762538
223	0x3e5f9d11	0.2183726
224	0xbd5863e1	-0.052829627
225	0xbd98d527	-0.074625306
226	0xbe62fea5	-0.22167452
227	0x3efc56bf	0.49284932
228	0x3e9b0658	0.30278277
229	0xbe845129	-0.2584317
230	0x3f130cc8	0.5744138
231	0xbe6297a1	-0.22128154
232	0xbe7f7fb7	-0.24951063
233	0xbc063186	-0.008190518
234	0xbe726c58	-0.23674142
235	0x3eb9dc29	0.3630078
236	0x3e97d0cb	0.29651484
237	0xbe43115a	-0.19049588
238	0xbe3567a0	-0.17715311
239	0x3f03116c	0.5119846
240	0xbd78a55e	-0.06070458
241	0xbd2c0320	-0.041995168
242	0xbe8e1fe1	-0.27758697
243	0x3ee8414d	0.4536232
244	0xbd7e3b47	-0.06206825
245	0xbe6095b0	-0.21932101
246	0x3d9208f8	0.07130617
247	0xbecc088b	-0.39850268
248	0x3edfc0c2	0.4370175
249	0xbd12e2ff	-0.03586101
250	0xbc2e097b	-0.0106223775
251	0xbd9a329c	-0.07529184
252	0xbe778ee5	-0.24175604
253	0xbe01e9da	-0.12686864
254	0xbd9d6035	-0.07684366
255	0xbea527a4	-0.32256806

fc2.bias f4 [10]
0	0x3ea33189	0.3187373
1	0x3f667ae2	0.90031254
2	0xbea11ba6	-0.31466407
3	0x3e86cca1	0.26327994
4	0xbd6c68fd	-0.057717312
5	0xbebc6987	-0.3679926
6	0xbf92d8eb	-1.1472448
7	0xbecbe3cf	-0.39822242
8	0x3edd49cc	0.43220365
9	0xbdd23d1c	-0.10265562

momentum_buffer f4 [10, 1, 5, 5]
0	0xbe77319a	-0.24140015
1	0xbe5359f6	-0.20639786
2	0xbe66884a	-0.22512928
3	0xbe8fb766	-0.2806961
4	0xbe0aaf40	-0.13543415
5	0xbe68603e	-0.22692963
6	0xbe86922a	-0.2628339
7	0xbecc7ce1	-0.39939025
8	0xbe46d37a	-0.1941661
9	0xbc20534b	-0.009785484
10	0xbe4f5b30	-0.20249629
11	0xbe808fec	-0.25109804
12	0xbe912e4b	-0.2835563
13	0xbdbb4987	-0.091448836
14	0xbb412bcb	-0.0029475566
15	0xbe54f38e	-0.20796034
16	0xbe576bb6	-0.21037182
17	0xbe1df6ae	-0.15426132
18	0xbd1db4cd	-0.038502503
19	0x3c385510	0.011250749
20	0xbe14787b	-0.14499085
21	0xbe22e215	-0.15906556
22	0xbe2ae25e	-0.16687915
23	0xbc76f072	-0.015071975
24	0x3c680d02	0.014163258
25	0x3c991dba	0.018690933
26	0xbd0b4a26	-0.03400626
27	0xbc8d3a88	-0.017239824
28	0x3c982314	0.018571414
29	0x3d8c4759	0.06849546
30	0x3c3d087a	0.0115376655
31	0xb91d5a00	-0.00015006214
32	0x3d13508a	0.03596548
33	0x3d78c1aa	0.060731567
34	0x3d88f448	0.06687218
35	0x3d263266	0.040575407
36	0x3da384e9	0.07984335
37	0x3d84a2f9	0.06476397
38	0x3ce59e44	0.028029568
39	0x3cddcb0f	0.027074365
40	0x3cb33160	0.02187413
41	0x3d2a06de	0.041510455
42	0x3cb2adc1	0.021811368
43	0x3cdcda3c	0.026959531
44	0x3c38d58d	0.011281383
45	0x3c6d9b9e	0.014502434
46	0x3c2742f8	0.010208838
47	0xbb3c4021	-0.0028724747
48	0x3c0b0666	0.008485412
49	0x3ccc979f	0.024974642
50	0x3da99aea	0.08281501
51	0x3dabf007	0.08395391
52	0x3bd3378e	0.0064458316
53	0x39296e4b	0.00016158183
54	0x3c06e1d0	0.008232549
55	0xbc0349a4	-0.008013163
56	0x3d12715b	0.035752635
57	0x3c249803	0.010046008
58	0x3bd98478	0.006638106
59	0x3bbf4e1c	0.005838169
60	0xbc306b00	-0.010767698
61	0xbbc9ed88	-0.006162349
62	0xbcc40dcb	-0.023932358
63	0xbbcbb271	-0.00621634
64	0xbb405b4b	-0.002935129
65	0xbce0d832	-0.02744684
66	0xbd1a4822	-0.037666447
67	0xbd845c5f	-0.06462931
68	0xbd04e39c	-0.032443628
69	0xbc276467	-0.010216809
70	0xbccb9b98	-0.024854466
71	0xbd45c5a2	-0.04828418
72	0xbd59747c	-0.053089604
73	0xbc470056	-0.012146076
74	0x3c276fc0	0.010219514
75	0xbc5b45f9	-0.013383382
76	0xbb47f335	-0.0030509953
77	0x3c7f0738	0.015565686
78	0xbb2bf200	-0.0026236773
79	0xbcc8c7f7	-0.024509413
80	0xbabbdc4e	-0.0014332624
81	0x3a03052c	0.0004998024
82	0xbc44836c	-0.011994224
83	0xbd3de042	-0.046356447
84	0xbc202afa	-0.009775871
85	0x390c103f	0.00013357493
86	0xbb614548	-0.003437357
87	0xbd59b3bd	-0.053149927
88	0xbd4b32f3	-0.049609136
89	0xbd27bdf6	-0.040952645
90	0xbb9c7c5c	-0.004775567
91	0xbc889850	-0.01667419
92	0xbd13b711	-0.036063258
93	0xbc6b82e4	-0.0143744685
94	0xbd3a69d0	-0.045511067
95	0xbcaf1523	-0.021372383
96	0xbc5448a8	-0.012956776
97	0x3c80f22a	0.015740473
98	0x3da8137a	0.0820684
99	0x3d14b498	0.03630504
100	0x3d197602	0.037466057
101	0x3c89cabb	0.016820302
102	0xbc9e9a20	-0.019360602
103	0x3da7168d	0.08158598
104	0x3dc3cf1a	0.09560986
105	0xbaf2a5a4	-0.00185125
106	0x3c7defbd	0.015499053
107	0x3c707ba2	0.014677914
108	0x3d3a7ec0	0.045531034
109	0x3d0fd2de	0.035113208
110	0xbcf7a1e8	-0.03022857
111	0xbcbda4b2	-0.023149822
112	0x3bb1dd44	0.0054279882
113	0x3c62e859	0.013849341
114	0xbce87efb	-0.028380862
115	0x3b6e3170	0.0036345385
116	0x3bcc03a0	0.006226018
117	0x3cf37912	0.029720817
118	0x3c1eee08	0.009700306
119	0xbd8a14ac	-0.06742224
120	0x3d5c2980	0.053750515
121	0x3b54f640	0.003249541
122	0xbc520a80	-0.012819886
123	0xbbf04480	-0.0073323846
124	0x3c13f420	0.009030372
125	0x3da06c44	0.0783315
126	0x3da42529	0.080149
127	0xbb9fd980	-0.004878223
128	0xbd2d6582	-0.042333134
129	0xbd6a278f	-0.057166632
130	0xbc90ddf1	-0.017683955
131	0x3c851aa2	0.016248051
132	0x3b047600	0.0020211935
133	0x3b46fc58	0.003036281
134	0xbd7d2337	-0.06180116
135	0xbc3668ef	-0.011133417
136	0x3ae2cf40	0.0017304197
137	0x3a690dcc	0.00088903005
138	0x3cf27041	0.029594542
139	0x3ccd7553	0.025080359
140	0xbbe863a3	-0.0070919557
141	0xb9112c48	-0.00013844774
142	0x3941abb6	0.00018469882
143	0x3c234de6	0.009967303
144	0x3c9b18d2	0.018932734
145	0x39e4c320	0.00043632928
146	0xbc15ff43	-0.009155097
147	0xbc0f9e98	-0.008765839
148	0xbb84b1da	-0.004049522
149	0x3ba8b27c	0.00514823
150	0x3f542f84	0.82885003
151	0x3f317b12	0.69328415
152	0x3f0c8e32	0.5490447
153	0x3e8268fd	0.25470725
154	0x3d24d21b	0.040239435
155	0x3f6bb1ac	0.9206798
156	0x3f247421	0.642397
157	0x3e86ca67	0.26326296
158	0x3ca19d0e	0.01972821
159	0xbdaef39c	-0.085425586
160	0x3f3d8ee7	0.74046177
161	0x3e98899d	0.2979249
162	0x3d8917e1	0.06694008
163	0x3d588407	0.052860286
164	0xbd695f31	-0.056975547
165	0x3e724d0e	0.23662207
166	0x3d20f361	0.039294604
167	0x3cabf894	0.020992555
168	0xbbe71a4e	-0.0070526963
169	0xbdb897c3	-0.09013321
170	0x3a8d7ab4	0.0010794015
171	0xba44b207	-0.0007503335
172	0x390daea9	0.00013511874
173	0xbad20a64	-0.0016024825
174	0xbd1d216e	-0.03836196
175	0xbe0d4d6a	-0.13799062
176	0xbd904415	-0.070442356
177	0xbc260218	-0.010132335
178	0x3e128938	0.14310157
179	0x3db051d7	0.0860936
180	0xbe3a66c7	-0.18203269
181	0xbe32e514	-0.17470199
182	0xbc3cd276	-0.011524787
183	0x3d7c3d01	0.061581615
184	0x3cfddcba	0.03098904
185	0xbe21e117	-0.15808521
186	0xbe212d65	-0.15739973
187	0xbd53bdb8	-0.0516946
188	0xbd0b756f	-0.03404754
189	0xbd916115	-0.07098595
190	0xbdd4da6e	-0.10393225
191	0xbdc37769	-0.0954426
192	0xbd8ef3e8	-0.06980115
193	0xbb42ae30	-0.0029705875
194	0xbd7eea38	-0.062235087
195	0x3c335de5	0.010947679
196	0xbb2e34c8	-0.0026581753
197	0xbd436b14	-0.04770954
198	0x3d76c880	0.060249805
199	0x3a0c5e80	0.0005354658
200	0x3cf8b91a	0.0303617
201	0x3d86c796	0.06581037
202	0x3dd102ce	0.10205613
203	0x3dbc4dba	0.09194513
204	0x3dd612e8	0.10452825
205	0x3df411d6	0.119174644
206	0x3d969325	0.07352284
207	0x3d44ccf9	0.04804704
208	0x3c0dbb94	0.008650679
209	0x3e85a266	0.26100463
210	0x3d9cb82a	0.07652314
211	0x3c25a945	0.010111158
212	0x3caab6cf	0.020839123
213	0x3e3d457e	0.1848354
214	0x3f13c503	0.5772249
215	0x3c43aa0e	0.0119424
216	0xbb0935af	-0.002093654
217	0x3dcf2cf8	0.10115999
218	0x3e3a936a	0.18220297
219	0x3e82ee97	0.25572655
220	0x3ac7fa52	0.0015257096
221	0x3d432a44	0.04764773
222	0x3dab4cd2	0.08364262
223	0x3e08f2fd	0.13373943
224	0x3e86bef5	0.26317564
225	0x3503c56c	4.908859e-07
226	0x341c7716	1.4571955e-07
227	0xb3a9cbd6	-7.906753e-08
228	0xb4b6eab5	-3.4070914e-07
229	0x37326282	1.0632562e-05
230	0xb3aa5108	-7.9309814e-08
231	0x34028d4e	1.21586e-07
232	0x33b27217	8.309524e-08
233	0xb4120263	-1.3598178e-07
234	0x3735e728	1.0842261e-05
235	0x34ca567e	3.7688363e-07
236	0x35abb301	1.279259e-06
237	0x38dc8dcb	0.000105168285
238	0x371d4079	9.37294e-06
239	0x373f0a60	1.1386903e-05
240	0x38a82d8c	8.019348e-05
241	0x33de4f2f	1.0352084e-07
242	0x38d8d416	0.00010339187
243	0x371bd7c2	9.288955e-06
244	0x3727166f	9.959199e-06
245	0x3914c630	0.0001418821
246	0xb29e5d50	-1.8436054e-08
247	0x38cff0c2	9.915374e-05
248	0x370515d3	7.932499e-06
249	0xb3444c28	-4.570407e-08

momentum_buffer f4 [10]
0	0xbe83f7ba	-0.25774938
1	0x3d9aa9d2	0.07551922
2	0xbcf5a678	-0.029986605
3	0xbca76917	-0.020435853
4	0xbd8b0ab0	-0.06789148
5	0xbc3cdda0	-0.011527449
6	0x3f57b682	0.8426286
7	0xbdd6e782	-0.10493375
8	0x3e99475a	0.2993725
9	0x3923ec36	0.00015632887

momentum_buffer f4 [20, 10, 5, 5]
0	0xbc541f7c	-0.01294696
1	0xbc73ac53	-0.014872628
2	0xbbb1bcb9	-0.005424109
3	0xbbe061fa	-0.006847617
4	0x3bd36b89	0.006452028
5	0xbbe565b2	-0.0070006484
6	0xbadeb919	-0.0016992419
7	0x3b4ec0fd	0.0031548135
8	0xbb90b96f	-0.0044166367
9	0x3b5d2530	0.003374409
10	0x3b285cc4	0.0025690058
11	0x39359cca	0.00017319914
12	0xbb44256b	-0.002992953
13	0x3b175d07	0.002309622
14	0xbb4cb414	-0.0031235265
15	0xb8d7675f	-0.00010271253
16	0x3bcd6980	0.00626868
17	0xbc18a8f3	-0.009317624
18	0x3b916da1	0.0044381176
19	0xbc3d43de	-0.011551825
20	0xb98df8dc	-0.0002707903
21	0x3a99597f	0.0011699646
22	0xbd063ebd	-0.032774676
23	0xbbd9f0f7	-0.0066510397
24	0xbc9f97de	-0.019481596
25	0x3c5b4dba	0.013385231
26	0x3c5d59b5	0.013510157
27	0xb890c71c	-6.903542e-05
28	0x3b9c0c36	0.004762198
29	0x3a0f1aa1	0.0005458985
30	0xbae1bde3	-0.0017222728
31	0xb81e3f6c	-3.77292e-05
32	0x3615710f	2.226854e-06
33	0x3a6f43dc	0.00091272383
34	0x3c5f26df	0.013620107
35	0x3c48a7b4	0.012247015
36	0x3b44d5a9	0.0030034578
37	0x3c2c2039	0.010505729
38	0x3c23e69e	0.010003714
39	0x3b2f01cb	0.002670395
40	0x3b958e67	0.004564095
41	0x3c0ae8fb	0.008478398
42	0x39f6eb5a	0.00047096127
43	0x3a8c9525	0.0010725601
44	0xbc50fcec	-0.012755614
45	0xbb23cb30	-0.0024992935
46	0xbb994419	-0.0046773073
47	0xbd10af8f	-0.035323676
48	0xbc9d97c4	-0.019237407
49	0xbc34d2ce	-0.011036588
50	0xbadafdcd	-0.0016707719
51	0xbc02916f	-0.007969244
52	0xbc46bd61	-0.012130112
53	0xbab5595f	-0.0013835839
54	0xbc4296ac	-0.011876743
55	0xbc17e66f	-0.009271248
56	0xbb074610	-0.0020641126
57	0xbc648e50	-0.013949946
58	0xbc12f3d6	-0.008969268
59	0xbb8bb744	-0.0042637903
60	0xbc7793b4	-0.015110899
61	0xbc6e5c57	-0.014548383
62	0xbc47a447	-0.012185163
63	0xbcaaa882	-0.020832304
64	0xbb6463c2	-0.00348495
65	0xbb5f18cb	-0.0034041877
66	0xbca28fe2	-0.019844
67	0xbbe0bc79	-0.006858405
68	0xbccf8818	-0.02533345
69	0xba60176d	-0.00085484126
70	0x39c1eb79	0.0003698727
71	0xbc8f441b	-0.01748853
72	0xbc9bd8a5	-0.019024203
73	0xbb0d4b7d	-0.0021559887
74	0x3bb0dc03	0.005397321
75	0xbcea46df	-0.028598247
76	0xbacc1638	-0.0015570587
77	0xbc0ba4a6	-0.008523142
78	0xbb7d97c1	-0.0038695189
79	0x3ba7b999	0.0051185605
80	0x3be4a2dc	0.006977422
81	0xba78a518	-0.000948505
82	0xbbbad8e3	-0.0057021244
83	0xbc2bfbee	-0.010497076
84	0xbb2c8dbf	-0.0026329604
85	0x3bfae31a	0.007656467
86	0xba4a66aa	-0.00077209866
87	0xbb7126af	-0.003679674
88	0xbbbf364e	-0.005835331
89	0xbc472f72	-0.012157308
90	0xbbfdcf03	-0.007745625
91	0x3aa5e9e3	0.0012658205
92	0x39d1c745	0.00040012054
93	0xbb4159cd	-0.0029502988
94	0x3a9d5f06	0.0012006469
95	0xbb9afdad	-0.0047299475
96	0xba03802f	-0.0005016354
97	0x3b1f2741	0.0024284872
98	0xbbf7309a	-0.0075436356
99	0xbb193236	-0.0023375875
100	0x3abdd368	0.001448256
101	0xb9a248c6	-0.00030953268
102	0xbbba8818	-0.005692493
103	0x3bdc07fc	0.006714819
104	0xbba5130d	-0.0050376714
105	0xba5f59dc	-0.0008520165
106	0xbb80d0d6	-0.003931145
107	0xbbed398f	-0.0072395275
108	0x3aed0c4b	0.0018085329
109	0x3a79c4d1	0.0009527924
110	0xbbb92f15	-0.0056513646
111	0x3b9ea242	0.00484112
112	0x3b334fc9	0.0027360788
113	0xbc8256f7	-0.015910609
114	0xbc6a9125	-0.014316832
115	0xbc6e1c74	-0.014533151
116	0xbc0d32e8	-0.008618094
117	0xb938a6b4	-0.00017609709
118	0xbbbe560f	-0.005808599
119	0xbc61ad1f	-0.013774185
120	0x3b324cff	0.0027206538
121	0xbbf417fa	-0.0074491473
122	0xba931967	-0.001122278
123	0xbc09f09a	-0.00841918
124	0xbacf407b	-0.0015812063
125	0xbaf94c26	-0.0019019886
126	0xb9b69d05	-0.00034830734
127	0xbc4da271	-0.012550936
128	0x3a5cec68	0.0008427561
129	0xbc51869c	-0.012788441
130	0xbb0a393d	-0.0021091246
131	0xba51bb0f	-0.0008000591
132	0xbc2ab3cc	-0.0104188435
133	0xbb759b58	-0.0037476625
134	0x3bc70fdc	0.0060748886
135	0xb7368e61	-1.08811955e-05
136	0x3bc4b299	0.006002736
137	0x3c4dac2f	0.012553259
138	0x3bf80da2	0.0075699845
139	0x3afb7113	0.0019183479
140	0x3b10a30d	0.0022069842
141	0xbabb23c6	-0.0014277629
142	0x3b802c2f	0.003911517
143	0x3b04e305	0.0020276916
144	0xbabf13eb	-0.001457808
145	0xbc0c97d7	-0.008581123
146	0x38d1c4e8	0.00010002573
147	0xbc8f9ad6	-0.017529886
148	0xbc83798c	-0.016049169
149	0xbc3f4a28	-0.011675395
150	0xb5844677	-9.855274e-07
151	0xbc4cdc18	-0.012503646
152	0xbc782a6b	-0.015146832
153	0xbbc79f77	-0.0060920077
154	0xbba62a09	-0.005070929
155	0x3a9e9e0e	0.0012101547
156	0x3bfdafb6	0.0077418936
157	0x3c0d522a	0.0086255465
158	0x3c53fb73	0.012938368
159	0x3a4b3f6a	0.0007753285
160	0xb7f07245	-2.866344e-05
161	0xba0ca9bb	-0.0005365868
162	0x38f6f135	0.000117751224
163	0x3ca0d4e0	0.019632757
164	0x3cb5e2de	0.022202905
165	0x3c84afe7	0.016197158
166	0x3bb20262	0.005432413
167	0xbca88de9	-0.02057548
168	0xbcc9be4e	-0.024626877
169	0xbcb6255c	-0.022234611
170	0xbc483d50	-0.012221649
171	0xbd4741a4	-0.048646584
172	0xbd2247fa	-0.039619423
173	0xbcf1d6f8	-0.02952145
174	0xbca6b470	-0.020349711
175	0xbb88cd15	-0.0041748383
176	0xbcf74c05	-0.030187616
177	0x3b3f6016	0.0029201559
178	0xbb39350f	-0.0028260385
179	0xbc493420	-0.012280494
180	0xbcd67493	-0.026178634
181	0xbc9ba317	-0.018998666
182	0xbd25676f	-0.040381845
183	0xb9169d19	-0.00014363638
184	0xbc03c94b	-0.008043597
185	0xbd4271be	-0.047471754
186	0xbc26e84a	-0.010187218
187	0xbd1e3b83	-0.038630974
188	0xbb306a81	-0.002691895
189	0xbc3cf2f1	-0.011532531
190	0xbca4790e	-0.020077255
191	0xbd8ab9fb	-0.06773754
192	0xbc43bbac	-0.0119466
193	0xbb756c1a	-0.0037448467
194	0xbc2198f8	-0.009863131
195	0xbb1e7e58	-0.0024184193
196	0xbd2e49cd	-0.04255085
197	0x3ab0faa8	0.0013502436
198	0x3c748c30	0.014926001
199	0x3b40c66e	0.0029415148
200	0x39c3c942	0.00037343247
201	0x3d0b0df2	0.033948846
202	0xb98ebb38	-0.0002722384
203	0xbcafd4b3	-0.021463728
204	0x3b266f56	0.0025395951
205	0x38ae2829	8.304447e-05
206	0x3ce7f0fd	0.028313154
207	0x3b363594	0.002780293
208	0xbb0a6b07	-0.0021120922
209	0xbb9599f8	-0.0045654736
210	0x3b772530	0.0037711374
211	0x3ba0bfc8	0.0049056746
212	0xbc8cbf43	-0.017181044
213	0xbc653dbd	-0.01399177
214	0xb9dc2620	-0.00041990075
215	0xbc39476f	-0.011308535
216	0xbb9ff9e7	-0.0048820856
217	0xbd10e965	-0.035378832
218	0xbc38582b	-0.01125149
219	0x3c916173	0.017746663
220	0xbc4f8421	-0.012665779
221	0xbc0bb3c6	-0.008526748
222	0x3c027717	0.007962964
223	0x3d0e20cf	0.034699257
224	0x3a7ec916	0.0009719295
225	0xb2fb14be	-2.9229678e-08
226	0x27b5caf2	5.0457626e-15
227	0x21d14d16	1.4182795e-18
228	0x96f2d0d4	-3.9228998e-25
229	0x31b4bc13	5.260071e-09
230	0x80b1deae	-1.6334765e-38
231	0x9a78d365	-5.145596e-23
232	0x8a879f94	-1.3060054e-32
233	0x8b7bdbbf	-4.850616e-32
234	0x2786dbc6	3.743075e-15
235	0x800000ae	-2.44e-43
236	0x00010d9c	9.6718e-41
237	0x006cee66	1.0003755e-38
238	0x006972ce	9.683911e-39
239	0x8256554d	-1.5746717e-37
240	0x113ab272	1.47278e-28
241	0x2bbe245f	1.3510407e-12
242	0xa39ecd41	-1.7217323e-17
243	0xa971d8a6	-5.3700662e-14
244	0xaa2c2d76	-1.5292441e-13
245	0x2a8cb796	2.4996384e-13
246	0xaf04af76	-1.2067666e-10
247	0xb5ec0a69	-1.75864e-06
248	0xb6064bd6	-2.0011698e-06
249	0xaf415b9e	-1.7585797e-10
250	0x3c8d51f3	0.01725099
251	0x3b06ee1c	0.0020588702
252	0xbb2b2f07	-0.002612056
253	0xbade1d2c	-0.001694595
254	0x3c401009	0.011722573
255	0x393b557f	0.0001786556

momentum_buffer f4 [20]
0	0xbd7cba3d	-0.06170105
1	0x3e063980	0.13107872
2	0xbde2177f	-0.11039638
3	0x3d39d482	0.04536868
4	0xbd6c673d	-0.057715643
5	0xbd390fcf	-0.045181092
6	0xbde5932e	-0.11209713
7	0x3d5b9aa2	0.053614266
8	0xbbc1f54c	-0.0059191342
9	0x3d31fe96	0.043455683
10	0x3bbcd729	0.005762954
11	0xbd0fb5dc	-0.035085544
12	0xbcea4cae	-0.028601017
13	0xbdfa7cde	-0.12230848
14	0x3d5227e1	0.051307563
15	0x3d830278	0.06396955
16	0x3c356622	0.011071714
17	0xbd26b2db	-0.040697914
18	0xba9b64f7	-0.0011855651
19	0xbe00cfa1	-0.12579204
