checkpoints/task-004.pth (torch, 179983 bytes, 16 tensors)

conv1.weight f4 [10, 1, 5, 5]
000000 3c 0c 7e 3e ac b5 8a 3e d5 1b 8c bc 46 34 21 be
       0.24809355 0.2709173 -0.017103115 -0.15742597
000010 dc ee 04 3d d3 06 62 3e 89 36 46 bd 90 41 04 3d
       0.032454357 0.22072916 -0.048391853 0.032289088
000020 0b 1e 29 be 32 43 65 ba 19 6d a2 3e d3 23 76 bd
       -0.16515367 -0.00087456696 0.3172386 -0.06009276
000030 e6 b9 3a be de 64 ef bd af bf 89 3d d4 2c 09 be
       -0.18234977 -0.11689161 0.06726014 -0.13396007
000040 a2 a2 43 be 33 71 04 be 43 9a cd bd a8 f2 34 be
       -0.19105008 -0.12933807 -0.10039189 -0.17670691
000050 6e 95 28 be a4 af 26 bd 34 0e b5 bc dd 84 60 be
       -0.16463253 -0.040694848 -0.0221015 -0.21925683
000060 30 19 db bc 1c 5a 60 be e9 fb 82 bc ef fe d9 3b
       -0.026745409 -0.21909374 -0.01598926 0.006652705
000070 49 b5 09 bd d3 82 90 3e b9 31 b8 3c 72 ad 0d bd
       -0.033620153 0.2822481 0.022484647 -0.03458924
000080 bf d3 35 be e5 66 ee bd 0d 87 18 3d cf 6f b9 3d
       -0.17756556 -0.11640719 0.03723817 0.09054529
000090 ab 7f 1f be 56 e1 5c be 5c f1 15 be 5b 36 41 be
       -0.15576045 -0.21570334 -0.14642853 -0.18868391
0000a0 33 45 c5 bd ae be 81 3e 01 f2 66 3d 28 f1 90 bd
       -0.09632339 0.2534079 0.056383137 -0.07077247
0000b0 5e 4f 4e be 89 f9 db bd 94 5d 06 3e 92 09 6c 3e
       -0.20147464 -0.107409544 0.13121635 0.23050526
0000c0 1a c3 1c bd a3 0a 22 3d 92 c2 7d be 96 ca aa be
       -0.038272 0.039560925 -0.24781254 -0.33357686
0000d0 e5 01 5b be ef 59 a3 3d 20 97 c7 3d 24 33 9a be
       -0.21387441 0.07976138 0.09745622 -0.30117142
0000e0 a6 dc 9d be f4 80 7e be 96 8c f7 3d 3e e8 e2 3e
       -0.30832404 -0.24853879 0.120873615 0.44317812
0000f0 e9 0d db bd f6 ab 97 bd 8d b9 4c be ac 19 2e 3e
       -0.106960125 -0.07405846 -0.19992657 0.1700198
000100 6c 26 f5 3e ad f3 3c be 66 86 74 be fc cb b7 bd
       0.47880876 -0.1845233 -0.23879394 -0.08974454
000110 dc 52 cd 3e cc 92 1d 3e 59 61 ab bd 43 8f 26 be
       0.4010228 0.1538803 -0.08368177 -0.16265588
000120 34 d2 0a 3e 64 27 d5 3e d6 90 b1 3e 1e 2e 53 3e
       0.13556749 0.41631615 0.34680814 0.20623061
000130 31 5f 33 be de 1c 42 3e 97 8f eb 3d e4 c4 32 bc
       -0.17516781 0.18956324 0.11501997 -0.0109112
000140 d2 fa 96 3d 0c a9 22 be 3c 0c 3d 3e e9 5a b7 3e
       0.07372059 -0.15884799 0.18461698 0.35811546
000150 d4 29 42 bd 2b d5 ea bd 08 99 d6 3d 97 f6 bf 3e
       -0.04740317 -0.1146644 0.10478407 0.3749282
000160 65 a8 2a 3e a9 a3 08 3e fe 2f 5a 3d be 75 61 3e
       0.166658 0.13343681 0.053268425 0.22017571
000170 ae 18 77 3e 81 cc 8e 3d 21 d3 f7 bc fc 6a 8c bd
       0.24130508 0.069726 -0.030252041 -0.06856343
000180 d7 47 05 3e 98 0f 33 bd 11 ca 24 be 50 4e 34 be
       0.13015686 -0.043716043 -0.16092707 -0.17607999
000190 ba 23 f3 bd 53 9e 76 bc 88 47 53 3e a9 b4 6d be
       -0.11872049 -0.015052396 0.20632756 -0.23213448
0001a0 db 5b 6c be e5 80 e4 ba e3 83 37 3c 68 e0 bd bc
       -0.23081915 -0.0017433433 0.011200878 -0.023178294
0001b0 00 a0 98 bd 28 35 5d be 54 75 2f be 0b c7 7b 3e
       -0.074523926 -0.21602309 -0.17134601 0.24587648
0001c0 64 1b 9f 3e 6f d6 65 3e 33 19 5f 3e 70 a5 5f 3e
       0.31075585 0.22445081 0.21786956 0.21840453
0001d0 f4 f5 15 3e 0b 6c 84 3e 24 6b b8 3e 1f 3c 1c 3e
       0.14644605 0.2586368 0.36019242 0.1525731
0001e0 92 15 d0 3d c8 f7 91 3e 4d 4f 50 3e bf dc a8 3e
       0.10160364 0.28509355 0.20342751 0.32980916
0001f0 db 21 07 3e 5d 46 ab 3e a1 b5 82 3e d8 31 3b 3e
       0.13196509 0.3345212 0.25529197 0.18280733
000200 54 cc d5 bd 70 38 35 be 63 06 cd 3e dc 5e e5 3e
       -0.10439363 -0.1769731 0.40043935 0.44798934
000210 85 36 f8 3c de dc 6e be c1 97 f4 be a9 22 ce 3e
       0.030299434 -0.23326442 -0.4777203 0.4026082
000220 e9 93 12 3f 06 37 87 3e 7e fc f6 bd f5 c5 bc be
       0.57256943 0.26409167 -0.12059878 -0.3686978
000230 e8 50 8d 3d 78 33 f8 3e 8b 4b e9 3e 70 0f 8d 3e
       0.06900197 0.48476768 0.45565447 0.2755084
000240 9d 44 95 3e 2e 4b 78 bd b9 f1 b5 3d 89 f9 69 3e
       0.2915391 -0.060618572 0.088839956 0.22849096
000250 7a 83 66 3e 6e ae bf 3e 03 7d 23 3d 1f fc 25 bd
       0.22511092 0.37437767 0.039914142 -0.040523645
000260 c6 9e 12 3e 0e 25 54 3c 36 87 8b be f6 d8 1c 3e
       0.1431838 0.012948288 -0.27251595 0.15317139
000270 58 d0 83 3e 16 93 97 3e 5a 58 5d 3e 72 b2 17 3e
       0.2574489 0.29604405 0.21615735 0.14814165
000280 25 04 c8 3d 38 ba d5 bc d8 b4 df 3e 50 a9 13 3f
       0.097664155 -0.026089773 0.4369266 0.57680225
000290 cb fc 75 3e 83 e1 94 bc 5b db c9 bc a1 9e b5 3e
       0.24022214 -0.018173939 -0.02464073 0.35472587
0002a0 95 a7 8c 3e 09 07 cd 3e 2a 2d c3 3c c0 a6 a1 be
       0.27471605 0.4004443 0.023825247 -0.31572533
0002b0 79 f3 07 be 61 3a fe 3d e3 26 31 3e 6d c0 da 3d
       -0.13276471 0.12413479 0.1729999 0.106812336
0002c0 ed 13 89 bd b9 78 e6 bd 15 43 9a 3c 44 4b ba 3b
       -0.06693254 -0.11253495 0.018830815 0.005685242
0002d0 15 a9 4a 3d 87 87 41 be c2 4c e2 3d c8 43 ab 3d
       0.049477655 -0.18899356 0.11049797 0.083625376
0002e0 f6 ee bc bd 23 b2 2c be f2 2c dd bd 08 d1 ac bd
       -0.09225266 -0.16864829 -0.10799588 -0.08438307
0002f0 d0 e5 82 bd 24 23 0d be 69 f5 30 be e0 f2 f3 bd
       -0.063914895 -0.13782936 -0.17281117 -0.11911559
000300 bc 0d 2a 3e 79 93 45 be 14 6b b9 bd f9 49 f2 3d
       0.16606802 -0.19294538 -0.09053627 0.118305154
000310 21 a3 e8 bd 44 c9 d8 3d 42 ea 3e be 5c 24 d3 bd
       -0.11359239 0.10585263 -0.1864405 -0.103096694
000320 9b 1f 6f be a1 fa 8b bd 3b e6 e8 3d f5 ff 30 3e
       -0.233519 -0.06834913 0.11372038 0.1728514
000330 24 fb b3 3e 20 90 83 be 18 52 7c be d7 fe af bd
       0.35152543 -0.25695896 -0.24640691 -0.08593529
000340 6b ee c7 3e 66 27 a7 3e a9 10 03 3e d5 2a d1 3c
       0.39049086 0.32647246 0.12799324 0.02553312
000350 f1 93 d8 3e bd 2d c6 3e 3a ea 68 3d 1e 2f ab 3e
       0.4230037 0.3870677 0.056864 0.33434385
000360 e9 3d bc 3e 93 4f ab 3e ed 02 02 3f 0a 9a 8e 3e
       0.36765984 0.33459148 0.50785714 0.27851897
000370 81 63 0d 3e a0 b9 83 3c 82 ab 13 3e 7f d5 78 3d
       0.13807489 0.016079724 0.14420894 0.06075048
000380 08 92 3d 3e e1 5a 5b bc 93 cf c5 3e 49 17 ec 3e
       0.18512738 -0.013388366 0.3863493 0.46111515
000390 34 94 09 3f e3 63 c5 3e 38 af 9e 3e e1 08 94 3d
       0.53741765 0.3855277 0.30993056 0.07228256
0003a0 bb 37 e7 3d d5 04 ae 3e 73 04 c4 3e 82 b5 89 be
       0.112899266 0.33988062 0.38284644 -0.26896292
0003b0 a8 18 0f be 0c c8 bb be 60 e1 e1 bd c8 54 0d be
       -0.1397425 -0.3667606 -0.11029315 -0.13801873
0003c0 b8 f2 b0 be 0b 04 5e be 39 df 5f be b7 2f d3 be
       -0.3456018 -0.2168123 -0.21862496 -0.4124734
0003d0 c1 ac a8 bc eb fd 8b be 7e c8 71 be 73 67 80 be
       -0.020590188 -0.27342162 -0.23611638 -0.25078925
0003e0 b0 c8 ad be bf 88 37 be
       -0.33942175 -0.17923258

conv1.bias f4 [10]
000000 78 03 29 3d dd 57 05 3e c4 cc b2 bd d3 58 b8 bc
       0.041263074 0.13021798 -0.08730462 -0.022503292
000010 fe c4 93 39 4f 68 95 bb 80 92 05 bc 7c 38 17 be
       0.00028184796 -0.0045595537 -0.008152604 -0.14767641
000020 77 cd 8b bc 76 a2 02 3e
       -0.017065747 0.12757286

conv2.weight f4 [20, 10, 5, 5]
000000 18 35 1b bb 82 77 92 3a 46 d2 36 3d cc 60 9b 3d
       -0.002368277 0.0011174532 0.044634126 0.07586822
000010 62 84 4b 3d 1d 2f 64 bd 6d e2 d8 bc c7 18 bf bb
       0.049686797 -0.055708993 -0.026475156 -0.005831811
000020 d9 2a f8 3c 08 14 29 bc 22 21 6e 3d 37 f1 3c ba
       0.030293869 -0.010319717 0.058137067 -0.00072075747
000030 42 a5 08 3d f7 c6 15 3d f3 2d 27 3b 86 2f 25 bd
       0.033360727 0.0365667 0.0025509566 -0.040328525
000040 1a ed 17 3d 43 1b 2d 3d 9f f0 64 3c 6b e2 d7 3a
       0.037091352 0.042262327 0.013973384 0.0016470676
000050 c3 e1 22 bc 53 90 8d bd 7f 9f 18 bd 84 ba 2d 3d
       -0.009941521 -0.06912293 -0.037261482 0.042414203
000060 32 75 20 3d a7 61 6f 3d c3 ee e1 bc 58 7a 7b bd
       0.039174266 0.058442738 -0.02757967 -0.061395973
000070 d6 42 15 bd 7d ca 8a 3d 2a 8f 71 3c b4 1f 0d bd
       -0.036440693 0.06776903 0.014743606 -0.034454063
000080 e2 1b 31 3b 03 95 0d bc 5c c6 a1 3d d2 76 83 3d
       0.0027024676 -0.008641484 0.07899162 0.064191476
000090 c2 c4 c9 3c e6 2b 3d 3d 01 1b b2 3c 28 f1 1b 3d
       0.024629954 0.046184443 0.021741392 0.03807178
0000a0 76 71 a4 3c 8d 06 0d bd 0b 39 8f bc dd 75 2d 3a
       0.020073634 -0.034430075 -0.017483255 0.0006616989
0000b0 f3 bc fb 3b 0d ab 40 3d 7f 20 8c 3c 24 46 3c bd
       0.0076824366 0.047038127 0.01710534 -0.04596533
0000c0 ab 90 70 bd 55 f6 64 3c 80 7f d2 3d 92 d7 2a 3d
       -0.058731716 0.013974746 0.10278225 0.04170949
0000d0 e9 59 a5 3d 86 99 3d 3d 7b fe 94 bc f7 35 a1 3d
       0.080737896 0.04628899 -0.018187752 0.07871621
0000e0 70 c9 72 bc 82 6a 26 bd 92 4e c3 bb 74 6c 1f bd
       -0.014818534 -0.040628918 -0.005960294 -0.03892179
0000f0 c1 67 08 bd fb 18 6f bd 5d de a4 bd 16 70 2e 3c
       -0.033302072 -0.058373433 -0.08050225 0.010646841
000100 53 1a 6c 3c ba 28 a3 bd e6 da 5a 3c 0e 4d 16 bd
       0.014410573 -0.07966752 0.0133578535 -0.03669458
000110 36 e1 7e 3d 28 dd 1f 3d 31 ee 2c bd 78 00 8f 3d
       0.062226497 0.03902927 -0.042219345 0.06982511
000120 72 8e 71 3d 9c ad 87 bd 30 d5 3c bd 3c 76 ad bd
       0.058973737 -0.0662491 -0.04610175 -0.08469817
000130 cf f0 13 bd b7 f6 80 3d 32 b0 b9 bc 8d f5 97 bc
       -0.036118325 0.06297057 -0.022667024 -0.018549705
000140 05 a3 3b bd c6 96 5c bc c1 c1 d4 bc 17 4a 89 bd
       -0.045809764 -0.013463682 -0.025971295 -0.06703585
000150 24 aa 92 bc 66 2c a1 bc f0 40 3b bd 34 f1 8f bd
       -0.017903395 -0.019674491 -0.045716226 -0.07028428
000160 12 00 29 bc 64 90 5d bd 9b a9 b6 3c bd fa cd bd
       -0.010314958 -0.05409278 0.022297671 -0.1005759
000170 ae 80 11 3d e2 dd 1d bb 01 6a 12 3c ba b9 87 3c
       0.03552311 -0.0024088551 0.008936406 0.016568054
000180 e5 a1 d8 3d 59 89 58 3d cf 96 99 3d bd 57 27 bd
       0.10577754 0.05286536 0.074994676 -0.040855158
000190 55 a9 68 bc da 41 a4 3c 47 4e 98 3d 51 d9 69 bd
       -0.014200528 0.020050932 0.07436805 -0.057092015
0001a0 25 f8 13 bc eb 06 c1 3b 34 5a 85 3d 84 52 77 bc
       -0.00903133 0.0058907173 0.065113455 -0.015095357
0001b0 77 9e 03 bd 34 05 c0 bd 81 6d 97 bd d9 37 f7 bc
       -0.032133546 -0.093759924 -0.07393933 -0.030177997
0001c0 18 93 d6 bc f8 05 b0 3c fb 66 50 3d 8f ca 6b 3d
       -0.026193187 0.021487221 0.05087946 0.05756622
0001d0 07 b1 30 3c aa 4b ea bc 59 d5 49 3c 50 57 de ba
       0.010784394 -0.028600533 0.012318932 -0.0016963277
0001e0 3e a4 d8 3d 52 de 09 3e 42 2c b4 3d 28 ed 1a 3d
       0.10578202 0.13463715 0.08797504 0.037823826
0001f0 5b a6 b9 bd 11 8e a3 bd 60 d0 e6 bb ed 74 02 bd
       -0.09064933 -0.079860814 -0.007043883 -0.03184979
000200 ac ca 65 bc e9 c8 c0 bc 8c fc ca bd 5c 62 e7 3c
       -0.0140253715 -0.023533301 -0.09911451 0.028245144
000210 87 d4 92 3d 95 5d b2 bc f4 8d 06 bd 70 15 a1 bd
       0.071694426 -0.021773139 -0.03285022 -0.07865417
000220 6f 8c a0 bd 53 be 9a bd 2e d5 1b bc 17 c3 d3 3b
       -0.078392856 -0.07555833 -0.009511275 0.0064624655
000230 c8 b6 bb 3c e2 c6 09 bd 9f b1 11 be ea 4e e2 bd
       0.022914305 -0.033636935 -0.14227913 -0.11050208
000240 4d f5 6d 3d 44 f8 dd 3d db 49 dc 3d 7b 1d 8c bc
       0.058095265 0.108383685 0.10756274 -0.017103901
000250 b3 1f 2a 3d 5a 2f 92 3b cb 33 8d bd 4f c3 b7 3c
       0.041534137 0.004461211 -0.06894644 0.022431998
000260 08 d5 32 3d 54 7d 2d 3c 21 7a ed bd 3c 26 bb bc
       0.043660194 0.010588963 -0.1159556 -0.02284538
000270 33 53 9e 3d dd 6d 24 bd dd cf b0 bd 81 ae 4a bd
       0.07730713 -0.040143836 -0.08633397 -0.049482826
000280 d4 8f bd bd 05 0e d8 bd 7d 46 1d 3c 09 e4 bb bc
       -0.09255949 -0.10549549 0.009599325 -0.022935884
000290 be f1 68 3d ba 75 b3 bd 9a fa 1e bd a1 12 c5 bd
       0.05687117 -0.08762689 -0.03881321 -0.09622694
0002a0 76 de aa 3c f9 98 dc 3d ec 9d 6c 3d 7d cf 9e 3d
       0.02085803 0.10771365 0.057767794 0.07754419
0002b0 72 bc f5 3d b0 3a 89 3d ec 16 1b 3c 26 ac b6 bc
       0.11998834 0.06700647 0.009465914 -0.022298884
0002c0 b2 ca 7b bd c7 0c f0 bc 92 28 73 3d ae 8e e1 3c
       -0.061472602 -0.029302968 0.059364863 0.027533855
0002d0 0d 8d c5 3c 8c 6e 61 3d 16 6a 53 3d 56 df 58 bd
       0.02411511 0.055037066 0.051614843 -0.052947365
0002e0 fd 7b 36 3c fe 9c 7f bd 10 6a 66 bd 69 e0 7b bd
       0.01113796 -0.06240558 -0.056253493 -0.06149331
0002f0 77 29 66 3d 50 90 4f bc 7c 40 ed 3c fc 4b d8 3c
       0.056191888 -0.012668684 0.028961413 0.02640342
000300 18 27 14 bd b1 5d 08 3d 8f 65 22 bd c2 9b de 3c
       -0.036170095 0.033292476 -0.039647635 0.02717388
000310 fe b3 9e 3b 33 80 03 bd bb 89 37 bd a4 6f 2e 3c
       0.004843234 -0.032104682 -0.044809084 0.010646734
000320 c4 7f 34 bd 74 f1 bb bc ba 9c 16 3d 13 22 5f 3d
       -0.04406716 -0.022942282 0.03677056 0.054475855
000330 79 ef 0b bd 88 63 cf 3c b0 5d 89 3d df 10 90 3d
       -0.034163926 0.025316015 0.067073226 0.07034468
000340 7b ff e3 bc f4 e8 c5 bd 0c 6a 9d bd 23 d9 34 be
       -0.027831784 -0.09663573 -0.076862425 -0.17660956
000350 ce 79 9b bd 5b a3 ac bc 61 0c 87 bd 15 0e bd 3c
       -0.07591592 -0.021073988 -0.06594158 0.023078004
000360 e9 93 23 bd fa 8e 95 3b b7 b0 57 3d 12 2d 9f 3c
       -0.03993598 0.0045641633 0.052658763 0.01943067
000370 d3 07 fa 3d 79 cd d2 3d 4d af d9 3d 04 72 b4 3d
       0.122085236 0.10293097 0.10629139 0.08810809
000380 b5 e2 94 bb 7c 33 06 bd c5 e3 a3 bd 4b 8f 56 3d
       -0.004543627 -0.032763943 -0.08002428 0.05238275
000390 b8 f1 80 3a 4a f9 dc 3d 10 73 9e 39 84 a8 29 3d
       0.0009837663 0.107897356 0.00030221837 0.041420475
0003a0 8a 27 b4 3d 7d 0a 9b 3b 85 85 1b 3c 4b 22 01 3d
       0.08796604 0.004731475 0.009492283 0.031526845
0003b0 6f 8e 55 3d b1 a7 c1 3d 18 1d de bc 4a 03 2f bd
       0.05213779 0.09455813 -0.027113482 -0.042727746
0003c0 8b 5c 45 3d bf 2c 5a bd 94 40 ad bd 85 bd 68 bd
       0.04818396 -0.05326533 -0.08459583 -0.056821365
0003d0 48 d2 74 3c 5a 39 8f bd ae b8 83 bd 14 68 0d bd
       0.014942713 -0.06993361 -0.06431709 -0.034523085
0003e0 df 0e b1 3c b6 b7 05 3d ef 3a 51 3c 99 ab 67 3c
       0.021613536 0.032645904 0.0127703985 0.014140033
0003f0 d6 83 3b bd 98 77 9d bc 90 7a ea bc 3c 0b 84 bd
       -0.045780025 -0.019222066 -0.028622895 -0.06447455

conv2.bias f4 [20]
000000 73 e1 7c 3b a2 b0 9e bc 25 44 e8 bd 8e 54 19 bd
       0.0038586527 -0.019371334 -0.113411225 -0.037434153
000010 bf 91 de 3d 06 62 f3 3b f0 29 47 3d 0f 09 64 3c
       0.108676426 0.007427457 0.04862398 0.013918175
000020 78 17 90 bd 3f 27 87 3d d1 ad 47 bd 84 ce 24 bd
       -0.07035726 0.065992825 -0.04874975 -0.04023601
000030 62 e7 af 3c 48 1a 3a bd 50 de 60 bd 5a 23 1b bd
       0.021472637 -0.04543522 -0.054899514 -0.03787551
000040 c8 64 38 bd 12 d5 3c bd 06 29 7f bd 19 76 92 bd
       -0.045017987 -0.046101637 -0.062294982 -0.071514316

fc1.weight f4 [50, 320]
000000 7f eb cf bc 9b d7 72 3c 64 fe ac 3a c6 a2 3c 3d
       -0.025380848 0.014821912 0.0013198373 0.04605367
000010 5a 79 92 3d 61 e4 9d bc 37 5e 59 3d 05 91 2f 3d
       0.07152052 -0.019273939 0.053068366 0.04286291
000020 a0 2a 3d 3c 56 36 06 bd 2d 85 95 bd e9 b1 b5 bc
       0.011545807 -0.032766663 -0.07300792 -0.02217956
000030 c1 f6 4d bd 1f 11 c5 bd 6e 32 7b bd 5e 7e ae bd
       -0.05028415 -0.09622406 -0.06132739 -0.085201964
000040 c1 6d 25 bd c6 e3 88 bc ee 98 aa bd 70 34 66 bd
       -0.040387873 -0.016710173 -0.0832995 -0.056202352
000050 89 88 bc ba d0 a9 18 3b 4c d0 0a bd 78 c6 c4 3d
       -0.0014383952 0.0023294576 -0.033890054 0.096081674
000060 d5 21 01 bd 8d 8f 26 3d 4a ee 1f 3e 1c ea bd 3d
       -0.031526405 0.040664244 0.15618244 0.092731684
000070 53 ec db bc 83 f2 ed 3b bf ab a4 bd b2 88 7d bc
       -0.026846087 0.0072615757 -0.080405705 -0.015474485
000080 1f 6f 85 bd 56 28 91 bc 8b 65 56 bd 19 3c 1d b9
       -0.06515335 -0.017719429 -0.052342933 -0.00014995075
000090 7e 97 c5 ba 1d f9 14 3d 41 d3 09 3d ae ad 15 3c
       -0.0015075055 0.036370385 0.033648733 0.009135647
0000a0 df bd cb 3d e9 fb 74 3d 19 db bb 3c a8 81 56 3c
       0.099483244 0.059810553 0.022931622 0.013092436
0000b0 13 bd a5 bd 3a d3 e6 bd f5 2a 9e bd 69 8d e5 bc
       -0.08092704 -0.11270757 -0.07723037 -0.028021531
0000c0 5d 84 89 bd c0 11 94 bd d3 4d ca bd cd f7 00 bd
       -0.067146994 -0.07229948 -0.09878125 -0.03148632
0000d0 cf 3a d9 3d 59 55 6e bc 91 b1 14 bc 1a 89 15 bd
       0.1060692 -0.014546716 -0.009075538 -0.036507703
0000e0 b7 ff 18 3d 73 62 6e 3c c7 e9 48 3d 1b e0 bb 3d
       0.037353244 0.014549839 0.049051072 0.09173604
0000f0 01 71 08 3d 86 0f 2e bd fb a4 ff 3a 75 38 84 bd
       0.033310894 -0.042495273 0.0019504124 -0.06456081
000100 da 91 b6 3c 92 5d 5f bd 5b bc 21 bd 2c 31 2b bc
       0.022286344 -0.054532595 -0.03948627 -0.010448735
000110 e6 27 06 3d 98 22 06 3d 9a 6a 38 3d f5 d5 8b 3a
       0.032752894 0.032747835 0.04502354 0.0010668623
000120 cd c0 e5 3c 33 ef 58 ba 3c 7f 32 bd 6e a2 96 bc
       0.028046036 -0.00082753896 -0.04357837 -0.018388
000130 d3 e7 4b bd ab a1 f8 3c 42 68 cc 3c fd 6e ee bb
       -0.04978163 0.030350527 0.024952058 -0.0072764144
000140 2d 50 8b 3c df 52 2a bd 77 53 08 bd 51 71 61 bd
       0.017006004 -0.04158294 -0.033282723 -0.055039708
000150 b3 84 a3 bd 04 c5 97 bd 82 fe 05 be 35 74 16 be
       -0.07984295 -0.074106246 -0.13085368 -0.14692767
000160 4a 63 62 bc b3 26 97 3c 23 12 a6 3d d0 b4 e8 b9
       -0.013817618 0.01845107 0.08108928 -0.00044385204
000170 60 23 36 3c 59 4a f2 bb 37 ae a4 3d d7 c8 1f 3e
       0.0111168325 -0.007394117 0.08041041 0.15603958
000180 57 08 29 bd f7 34 07 bd 5f 15 e3 3c ae 3c 82 3d
       -0.04126772 -0.033009496 0.027720151 0.0635923
000190 57 4d 8b 3c bf 1a b2 3b bb 71 c2 3c 4c f1 0e 3d
       0.017004652 0.0054353173 0.023735872 0.034898087
0001a0 4b 04 25 3c 7f 65 c2 3c 62 04 91 3c 4e ce 1c bd
       0.010071824 0.023730038 0.017702285 -0.038282685
0001b0 d4 39 9f bd 4f 0c ba bc 60 d3 b7 bd 01 54 18 bd
       -0.07774702 -0.022710947 -0.089758635 -0.037189487
0001c0 4b 38 e6 3c 71 d7 e7 3d 7b 07 dd 3c 29 fc f0 3c
       0.028103014 0.11320389 0.026981106 0.029417114
0001d0 a4 6a 65 3c 7d d8 66 bd 3d c1 fa bb 70 b8 61 bd
       0.014002476 -0.056358803 -0.0076524303 -0.055107534
0001e0 a3 4e 2d bd 0e 91 61 bd 01 15 89 bd d0 d5 0f bd
       -0.042311322 -0.055069976 -0.06693459 -0.035116017
0001f0 ee 79 f9 3b 25 21 7a 3d 50 ff 86 3c bc d1 b3 3d
       0.007613412 0.061066765 0.016479164 0.08780238
000200 f8 a0 2c bb e6 07 8d 3c a2 a4 7c 3d ff 88 f8 3c
       -0.0026341062 0.01721568 0.061680444 0.030338762
000210 7e cf 0d 3d 56 f9 27 bd c1 2d 59 3c f8 d4 31 3a
       0.034621708 -0.04100927 0.0132555375 0.0006783749
000220 81 3b ae bc f0 8b 19 3d 8f 2d cf 3c 84 d8 22 3c
       -0.021268608 0.03748697 0.025290279 0.009939317
000230 8d 7c 32 3c 41 19 dd 3c 12 30 dc bb c3 b2 47 3d
       0.010893953 0.026989581 -0.0067195976 0.048754465
000240 ee c9 ff b8 89 35 ae 3c a3 36 c3 3d 8c c8 c2 3d
       -0.0001219696 0.021265762 0.095319055 0.095109075
000250 a6 05 2f bd 21 0f 33 3c 79 d2 c4 bc c9 f6 8e bc
       -0.042729996 0.0109289 -0.024026142 -0.01745166
000260 6b f3 18 3d 91 e0 93 bd 76 51 17 3d 01 a9 53 bb
       0.037341516 -0.07220567 0.03694292 -0.003229678
000270 29 c4 97 bd 85 af fe bb 77 e0 55 bd 08 30 df 3b
       -0.074104615 -0.0077723884 -0.05221602 0.0068111457
000280 6a 7a 00 bc 41 ef 92 bc db 05 74 3d ff d1 b7 3d
       -0.007841686 -0.01793635 0.059575897 0.089756005
000290 7b 1e 8b bd 12 f2 4d bd 59 75 45 bd 87 2d c9 bc
       -0.06792923 -0.050279684 -0.048207615 -0.024557842
0002a0 6c 03 e6 3b 15 44 30 bc aa db 6b bd 3d 3e 7d bd
       0.007019451 -0.0107584195 -0.057582535 -0.061826933
0002b0 8e 0c 73 3d 58 2a 35 bc 06 1e 41 3d 46 39 7c 3c
       0.059338145 -0.011057459 0.047147773 0.015394514
0002c0 1a 19 87 bb a0 ad ec ba cd c8 93 bd 42 0d 71 bd
       -0.0041228654 -0.0018057115 -0.07216034 -0.058850534
0002d0 cf d5 b9 3c 1d 09 bb 3d c5 6a 56 3d 46 a4 27 3c
       0.02268496 0.091325976 0.052347917 0.010232037
0002e0 e0 25 6b 3c 01 6e 19 3c 65 34 a4 3d 02 cf 09 3d
       0.014352292 0.009364606 0.08017806 0.033644684
0002f0 69 11 d3 bd 50 1f ad bd f3 4d 0b bd c1 fd 5d bd
       -0.10306055 -0.08453238 -0.034009885 -0.054197077
000300 e5 7f 2e 3c c9 f7 20 3d 88 ec cf 3c 85 77 25 3d
       0.01065061 0.039298806 0.025381342 0.040397186
000310 1b 5d 6f 3d af 56 81 3d 06 e2 bc 3b 2b 8f 3e 3d
       0.0584384 0.06315362 0.005764249 0.046523254
000320 09 1d 5d 3d 1b f9 bf bc 15 8a 77 3a ce d7 cc 3c
       0.05398277 -0.023434212 0.0009442878 0.025005247
000330 7c f4 11 bd 16 de 98 bd 8e 26 3e bd 7f 80 9c bd
       -0.03563355 -0.074642345 -0.046423487 -0.07641696
000340 be 0e 4b 3d f4 36 a7 3d db 3a eb 3d 7e dd 8f 3b
       0.049574606 0.08164778 0.11485835 0.0043904176
000350 c1 6f 36 bc d0 75 b3 bd 58 d5 2c bd 5f 39 b8 3c
       -0.011135043 -0.08762705 -0.042195648 0.022488294
000360 f1 64 6d b8 26 72 a6 bc af c5 23 3d ad be 51 bd
       -5.6599212e-05 -0.020318102 0.039983448 -0.051207233
000370 a8 ee 6e 3d a2 df 8a 3c 74 6d a3 bc 57 a9 99 ba
       0.05833307 0.01695234 -0.019949652 -0.0011723441
000380 5c 14 f9 bc 16 53 db bd 61 8c 11 be a4 9b 2e bd
       -0.030405216 -0.10709207 -0.14213707 -0.0426289
000390 50 8e e4 bc f2 fb cb 3c c7 81 ea bc c5 4f 2b bd
       -0.027899891 0.02490041 -0.028626336 -0.04182412
0003a0 3c 6f 91 3b a8 0f ec 3d 82 9b 85 3d 22 a8 5a 3d
       0.004438309 0.11526424 0.065238014 0.053383
0003b0 58 16 4e bd 13 fc 91 3d 58 24 47 3c 21 bf 82 3d
       -0.050314277 0.071281575 0.012154661 0.06384111
0003c0 9a 72 cb bd 57 a9 2a be 50 ed 59 bd 39 e8 aa bd
       -0.09933968 -0.1666616 -0.053204834 -0.08345074
0003d0 c2 05 3d 3c 75 5f 06 3c d3 da 9b bd 9c 85 65 bc
       0.011537017 0.00820147 -0.07610097 -0.014008906
0003e0 42 d5 b5 3d df 2e a6 3d f2 21 f9 3c 94 e3 aa 3d
       0.08878566 0.08114409 0.030411694 0.08344188
0003f0 9a 8c 59 bd 92 0b 2c bc fe a2 1c bb af 67 6f bc
       -0.053112604 -0.010500805 -0.0023900862 -0.014612122

fc1.bias f4 [50]
000000 d9 03 72 3d 0e b9 ed bc 49 65 23 3c b1 42 29 3c
       0.0590857 -0.029018905 0.009972879 0.010330842
000010 1e 33 9b 3d 87 f1 88 bb 0a d0 18 3c 64 26 f9 3d
       0.07578109 -0.004179183 0.009326944 0.121655256
000020 d3 31 01 3d ac 37 a3 3a 8a 90 04 3d 35 96 ec 3c
       0.031541657 0.0012452505 0.032364406 0.028880218
000030 17 2c 7a 3d ef 92 d2 bc d9 20 11 bd 84 47 5f 3d
       0.061077204 -0.025704829 -0.035431717 0.054511562
000040 f2 36 b9 3c 5d 56 79 bd 7a 24 b4 bc 9d a4 81 3d
       0.022609208 -0.060873378 -0.02199005 0.063302256
000050 f3 f1 05 bd 53 23 4f 3c 31 8d c7 3c 5c 76 3f 3d
       -0.032701444 0.012642699 0.024359317 0.046743736
000060 2b 35 78 3d 9a ce b7 3d b4 50 3b 3d b0 a5 4f 3d
       0.06059758 0.08974953 0.04573126 0.05069512
000070 d6 af 48 bb 48 b7 fa 3c 4a 7a 7a 3c 7e b0 b3 3c
       -0.0030622385 0.030604973 0.015287945 0.021934744
000080 55 f5 92 3d 45 09 d7 bc c6 b0 47 3d e8 a0 71 bd
       0.071756996 -0.026249537 0.04875257 -0.058991343
000090 00 bd 34 3c 5a 00 b4 3d e6 35 5c 3d 40 b2 d9 3d
       0.011031389 0.087891296 0.05376234 0.106297016
0000a0 0c d3 8e 3d 2f 50 c4 ba ff 26 80 3d a9 76 4c 3d
       0.06973848 -0.001497751 0.06257438 0.04991785
0000b0 66 37 8d 3d 01 aa b4 3d 44 8d 5f bc ed ba fd 3c
       0.06895332 0.08821488 -0.01364452 0.030972922
0000c0 ed ae 87 bc c3 7d 33 3d
       -0.016562903 0.043821108

fc2.weight f4 [10, 50]
000000 d9 1d 66 3d 87 15 10 3e 93 80 87 be 8d 73 72 3e
       0.05618081 0.14070712 -0.26465282 0.23676892
000010 2b ce bb 3b 18 19 0a be 69 6f d5 bd b0 ae 85 be
       0.0057313642 -0.13486135 -0.104216404 -0.26109838
000020 f4 8e b0 3d cc 11 79 be 42 3f 89 be 69 0a 50 be
       0.08621016 -0.24323195 -0.26806074 -0.20316471
000030 09 1d 79 bc 25 c9 68 be 9a 92 35 be b8 6d 33 3e
       -0.015204676 -0.2273298 -0.17731705 0.17522323
000040 23 02 92 3e 92 e9 87 bd fd 01 92 be 2c 66 ca bd
       0.28517255 -0.06636347 -0.28517142 -0.09882769
000050 d6 06 38 be bb 6d 9d bc fb a8 46 3e 2d 66 3d 3e
       -0.17971358 -0.019217363 0.19400398 0.18496008
000060 9b 67 a0 3e ad a0 15 be c5 70 ea bd f8 49 54 3e
       0.31329045 -0.14612074 -0.1144729 0.20731342
000070 da 88 0b 3e 2e 33 01 3e 5d 65 8b 3e b9 7d 88 be
       0.13626423 0.1261718 0.27225772 -0.2665842
000080 9b ad 6c be 9f 2f e2 3d be 5a 00 3e da 99 60 3e
       -0.231131 0.11044239 0.12534615 0.2193369
000090 49 6c 1d 3e b9 ec 9c be 3d 9d a1 3d db f2 7b be
       0.15373339 -0.30649355 0.07891319 -0.24604361
0000a0 2a 7e a2 3e 56 04 9f bd e8 31 5e 3e 56 2b c5 bd
       0.3173688 -0.07764499 0.21698725 -0.09627406
0000b0 b4 85 10 bd ac 8e 76 3e e6 a5 04 be 35 a3 66 3c
       -0.03528376 0.24077863 -0.1295391 0.0140769975
0000c0 3b 15 ae bc f3 85 f6 3d 75 4b c8 bd b2 28 9f be
       -0.021250358 0.120372675 -0.09780017 -0.31085736
0000d0 c5 ab 75 3e 8c 8c 16 be 5d 1c 87 3e 1e 39 4f be
       0.23991306 -0.14702052 0.26388827 -0.20236632
0000e0 a7 93 b6 bd 50 73 61 3e 73 c4 2b 3e 82 d4 5d be
       -0.08914881 0.22016644 0.16774158 -0.21663097
0000f0 80 cd 6e 3e 5a 3e 4e 3e a7 dc a3 3e 64 d4 e9 3d
       0.2332058 0.20140973 0.32004282 0.114174634
000100 d9 bc ba 3c cb 46 5e be 48 e1 29 3e 5c b0 2c 3d
       0.022795128 -0.21706693 0.16589844 0.042160377
000110 2c d9 a1 bd 03 ba a5 3e 9d 56 52 be a8 45 85 be
       -0.079027504 0.32368478 -0.20540853 -0.26029706
000120 30 5d ff bd 9b db 89 be 54 b9 e0 bd 83 c9 1d 3e
       -0.12468946 -0.26925358 -0.109728485 0.15408902
000130 51 29 5e 3e ac 2f 9c be d8 ab 88 bd a0 9a ad be
       0.21695448 -0.3050512 -0.066734016 -0.33907032
000140 5a e0 88 be e0 61 56 3e 2a 57 60 3e 2f 55 86 be
       -0.26733667 0.20935774 0.2190825 -0.26236865
000150 44 0e 53 be 9e 03 af bd 8b 15 00 be f9 a4 9e 3e
       -0.2061091 -0.08545612 -0.12508218 0.3098524
000160 17 31 a5 be 81 a8 2c 3e c1 3a 89 3e 78 eb 10 be
       -0.32264015 0.16861154 0.26802638 -0.14152324
000170 7d c6 39 be e9 35 8d bd b7 ea 88 3e 34 6e 33 be
       -0.18142124 -0.06895048 0.26741573 -0.17522508
000180 2b f5 af bd 4f d5 65 3e 04 14 1a 3d 42 b1 a5 3d
       -0.08591684 0.22444652 0.037616745 0.0809045
000190 81 b2 a1 3e 92 c9 ea bd c2 1a 5b be 91 d5 77 3e
       0.315815 -0.11464228 -0.21396926 0.24202563
0001a0 3c 8c 6f be 1d 3f 14 3d 85 e8 ba bd 0f 4e 80 be
       -0.23393339 0.036193002 -0.09126381 -0.25059554
0001b0 9f 9f 81 be ba e1 3f be a8 d7 71 be e9 e3 3f 3e
       -0.25317094 -0.18738452 -0.23617423 0.18739285
0001c0 91 1a dd 3d 3a b4 43 3e 9b df 28 be 85 9a 47 3e
       0.10796083 0.1911172 -0.16491549 0.19492538
0001d0 e7 5d 69 3e 28 b2 93 bd 66 40 2c 3d 19 3d e8 3d
       0.22789727 -0.07211715 0.042053603 0.113397785
0001e0 7f 62 97 3d 72 21 6c bd 60 ff 07 be d8 a3 9e bd
       0.073918335 -0.057649083 -0.13281012 -0.077460945
0001f0 da 4f 4c 3e 9b 5d 3a 3e 59 05 38 3e c3 ae 28 3e
       0.19952336 0.1819977 0.1797079 0.16472916
000200 4a 66 f1 bc 06 6b c3 bd 17 f5 5c 3e ee 41 57 3e
       -0.02946772 -0.095418975 0.2157787 0.21021244
000210 1c a3 d3 3d e7 d8 e5 3b a1 f7 4c bd 79 ad 0b be
       0.10333845 0.007014382 -0.050040845 -0.13640393
000220 50 cb 3a 3e b7 da a8 bd 89 6f a8 3d d4 19 34 3e
       0.1824162 -0.082448415 0.08224399 0.17587978
000230 94 47 68 be 80 5b 77 3e 11 bb 15 be 50 90 e7 bc
       -0.22683555 0.24155998 -0.14622141 -0.028267056
000240 37 08 9c 3e 13 31 be bd f6 7a f0 3d 9f 71 8c 3e
       0.30475017 -0.09286704 0.11742203 0.27430436
000250 84 d9 35 3e e0 8a a1 3d 92 9f b8 bd c4 61 73 3e
       0.17758757 0.078878164 -0.090148106 0.23767763
000260 49 d8 07 be 41 0a b9 bd 32 6c a2 3e eb b0 85 3d
       -0.132661 -0.09035159 0.3172317 0.06527885
000270 ed 07 62 3e 6b 80 32 be 3f e4 81 be 80 af 5d 3e
       0.22073336 -0.174318 -0.2536945 0.21648979
000280 81 99 68 3e 78 d8 18 3e da 77 63 bd 28 4b 46 3e
       0.22714807 0.14926326 -0.05553422 0.19364607
000290 e8 7c 14 be 1d 59 50 3e 58 50 19 be 1f 1f af bd
       -0.14500773 0.20346494 -0.14972055 -0.08550858
0002a0 4e 38 4e 3e 5d 27 40 be 79 37 17 be 3e cc 42 be
       0.20138666 -0.18765016 -0.14767255 -0.19023225
0002b0 f3 ce 43 be 30 39 09 3e 86 2a 64 bd 0c c3 36 3e
       -0.19121914 0.13400722 -0.055704616 0.17847842
0002c0 f8 1f 67 be cb 8a 0f be 5f e2 08 be ce bb cb 3d
       -0.22570789 -0.14017789 -0.13367604 0.0994793
0002d0 0a 47 0a 3d 4b 49 2a be 03 a0 4f 3e 4d 02 02 be
       0.033759154 -0.16629522 0.20275883 -0.1269619
0002e0 c2 24 43 3e da da 8e b9 de 4e 12 3e bf 8d 71 bd
       0.1905699 -0.00027247408 0.14287898 -0.05897307
0002f0 03 85 a7 bb ba 77 49 3e 3f fc 55 be 06 fc b6 3d
       -0.005112292 0.19674578 -0.20897005 0.089347884
000300 e8 ce 83 be 4d 91 22 be 8f 51 98 3e d6 6a 11 3e
       -0.25743794 -0.1587574 0.29749724 0.14200911
000310 51 af f4 bd c0 5b 55 3e 76 37 ef bd 02 cf 98 3d
       -0.119475015 0.20835781 -0.116805 0.074613586
000320 b8 b2 b1 3e 3b 9d 31 be 43 c0 73 3e 63 e7 fe 3d
       0.34706664 -0.17345135 0.23803811 0.12446477
000330 7d e3 f1 3b aa be 83 3e be 11 e7 3c 83 4a 1e 3e
       0.007381855 0.25731403 0.028206702 0.15458111
000340 72 17 d4 bc b4 0f 32 3e 32 e1 dd 3c a3 11 41 be
       -0.025890086 0.17388803 0.02708492 -0.18854384
000350 8e 1a 15 be 64 25 86 bd 81 f5 c5 3d e5 84 ba 3d
       -0.14560911 -0.065501004 0.09665967 0.09107379
000360 5a 60 33 bd a8 b1 44 3e 67 51 71 3e c9 bf a7 3e
       -0.04379306 0.19208395 0.23566209 0.32763508
000370 a8 36 85 3e 8e e9 82 3e 52 26 14 3e ad 25 92 be
       0.26018262 0.25568813 0.14467743 -0.2854437
000380 4b bc df 3c 58 0a 5a be 72 0f 10 be 79 d1 69 3e
       0.027311465 -0.21293008 -0.14068392 0.22833814
000390 6e c8 8c bd 35 a5 c1 be c0 1e 39 bd d2 69 5d 3d
       -0.068741664 -0.37821355 -0.04519534 0.054055996
0003a0 a8 ec 53 3e 40 c3 46 3e c0 bc 39 3e f7 37 cf 39
       0.20695746 0.1941042 0.18138409 0.00039523814
0003b0 32 93 b3 be aa 6e 8f 3e 1c 95 a4 be ee 2c b8 bd
       -0.3507324 0.28014117 -0.3214501 -0.08992945
0003c0 2a 23 f4 bc 9f 53 0f be 26 04 7e be 63 87 aa 3e
       -0.029801924 -0.13996743 -0.2480627 0.33306417
0003d0 fe 3e 03 3d cd 2a bd bd e6 2b 53 3e a9 67 47 be
       0.032042496 -0.09236679 0.20622215 -0.19473137
0003e0 ca ae 28 bc 6b b6 75 be 93 5e 3a 3d 50 cd 36 3e
       -0.010295579 -0.23995368 0.04550035 0.17851758
0003f0 10 e5 14 be 98 25 75 be 52 0c 95 3e 5d 6b 9b bd
       -0.14540505 -0.23940122 0.29110962 -0.07588837

fc2.bias f4 [10]
000000 88 09 ef bd ce b8 70 3e e1 55 57 be da 49 32 3d
       -0.1167174 0.23507997 -0.21028854 0.04352746
000010 28 4d 04 3d cf 5d ab bd c9 0c 37 be 37 86 1a 3d
       0.032300144 -0.08367502 -0.17875971 0.037725653
000020 93 96 3b 3e 64 9a f7 3d
       0.18319158 0.120899945

momentum_buffer f4 [10, 1, 5, 5]
000000 c0 ad 74 3a 04 9f bc bb 9d 6f 14 bc 09 5c 35 bc
       0.0009333752 -0.005756261 -0.009059814 -0.011069306
000010 ae 2b 89 bb 14 a0 e5 3a 3f d1 d6 bb 48 ca dd bb
       -0.004186115 0.001751902 -0.006555706 -0.0067684986
000020 e5 46 be bb b0 aa d8 ba 01 b3 00 3c 36 86 a3 3b
       -0.005806791 -0.0016530361 0.007855178 0.0049903644
000030 e1 a8 52 bb ea e4 db bb 3f 49 0b bc e8 97 90 3c
       -0.0032144117 -0.0067106383 -0.00850135 0.01765056
000040 89 ad 42 3c d4 93 f0 39 21 8c 00 bb ba 3b a1 ba
       0.011882194 0.00045886508 -0.0019614773 -0.0012301125
000050 19 a1 99 3c 6a 78 49 3c 88 e8 b2 3b d2 e1 4a 3b
       0.018753575 0.012296775 0.005459849 0.0030957353
000060 3a b0 6c 3b 1c cf cb 3b c0 09 4b b9 4e 90 43 bb
       0.0036115781 0.0062197577 -0.00019363221 -0.002984065
000070 4d 59 da bb 63 ae 15 bc 54 f0 30 3b 58 f1 a6 39
       -0.0066634775 -0.009135815 0.0026998715 0.00031841802
000080 f6 52 ae ba 77 82 53 ba 3a 69 4a bb 58 69 2f 3b
       -0.0013299871 -0.0008068452 -0.0030885474 0.002676567
000090 a5 a7 a5 3b 52 bc 09 3c 58 2b 19 3c 25 4a 98 3b
       0.005055385 0.0084067155 0.009348713 0.0046475106
0000a0 e9 4d bb 3b 78 52 d6 3b 78 e6 3e 3c 72 e5 fd 3b
       0.0057160747 0.0065405928 0.011651628 0.0077482993
0000b0 8c 0c 20 3b e8 92 28 3c 76 93 30 3c d8 1f 4b 3c
       0.002442154 0.010288931 0.010777345 0.012397729
0000c0 50 48 03 3c 34 5e b6 3a fa dc 14 bc ce 26 e6 bb
       0.008012846 0.0013913573 -0.009085888 -0.007023669
0000d0 9a da e5 3b 0c 63 a5 3b e0 72 1e ba cb d9 92 bb
       0.0070145847 0.0050472077 -0.00060443394 -0.0044815294
0000e0 85 30 3f bb f5 3f 12 3c 64 1a 47 3c 9d dc 4c 3c
       -0.0029173207 0.008926381 0.012152288 0.01250377
0000f0 be 70 55 3a 14 71 16 bb f0 13 db 3a bd 0a 61 3c
       0.0008142105 -0.0022955583 0.0016714316 0.01373547
000100 44 e9 9f 3c c4 b2 25 bb f0 e4 0b bc 8d 94 ad bb
       0.01952041 -0.0025283555 -0.00853847 -0.0052972496
000110 b2 d7 f4 bb 08 54 b0 3a 78 06 89 bc d6 68 b6 bc
       -0.007472002 0.0013452778 -0.016726717 -0.022266787
000120 1b 84 24 bc c8 ec 9b ba f0 21 29 3c ba d8 15 bc
       -0.010041262 -0.0011896128 0.010323033 -0.00914591
000130 e9 87 82 bc f2 5d 55 bc 2a c9 34 bb c8 ec 7e 3b
       -0.015933948 -0.013022887 -0.0027585723 0.0038898457
000140 97 9d 38 bb de 1e 49 bc 18 07 b1 bb 3a f2 d9 3b
       -0.0028170103 -0.012275426 -0.005402457 0.00665119
000150 be f7 a8 3b 2a db 7c bc 2e 43 64 bc 8e e9 3a 3b
       0.0051564863 -0.015433112 -0.0139320325 0.0028520557
000160 53 b9 38 3b 80 ed 21 b8 18 7e d4 bc f8 26 a9 bc
       0.0028186634 -3.860658e-05 -0.025939032 -0.020648465
000170 2f c7 f5 bb 28 57 83 bb 3e fa 33 bb fb e8 c3 bc
       -0.007500551 -0.0040081926 -0.0027462388 -0.023914805
000180 3f 0a a5 bc c9 52 50 bc d4 5e 2b bb 1a 16 cc 3a
       -0.020146487 -0.01271505 -0.0026149051 0.0015570552
000190 e6 dd ea 3b 40 0a 42 3a 76 6c 81 3b 9a 30 0a 3c
       0.0071675656 0.000740204 0.003949697 0.008434439
0001a0 b2 b5 8c 3c a8 ad d3 3b c2 3a 86 3b 9d 03 26 3c
       0.017176483 0.0064599104 0.00409636 0.010132697
0001b0 a2 1a 9e 3c 63 14 71 3c a8 68 0a 3c ff c7 d7 3b
       0.019299809 0.014714333 0.008447804 0.0065851207
0001c0 92 2d 12 3c c8 18 90 3b 3c 57 ef bb 27 0a 15 3c
       0.008921998 0.0043974854 -0.0073041003 0.009096659
0001d0 8c de b9 ba 5f 2a 2c bc e1 af 84 bc 10 1d 02 bd
       -0.0014180704 -0.010508149 -0.016197147 -0.031765997
0001e0 f8 d8 6a bc f7 24 ea bc f2 d4 8e bc d6 83 93 bc
       -0.014333956 -0.02858208 -0.017435525 -0.0180072
0001f0 82 0e d5 bc 02 6c bf bc 40 0d 6c bb 41 db 92 3c
       -0.026007894 -0.023366932 -0.003601864 0.017926814
000200 9c 9f a3 3c d3 9a b5 3c 20 f5 a6 3a 6a 14 10 3d
       0.019973569 0.022168553 0.0012737848 0.03517572
000210 ea 5c 2b 3d 6e e1 d0 3c 29 cd ba 3c c8 bb fa 3c
       0.041836657 0.025498118 0.022802906 0.03060712
000220 91 77 44 3d 1c 82 52 3d 18 e4 e7 3c 1c 45 83 3c
       0.04796559 0.051393613 0.028307006 0.016024165
000230 9a d1 c4 3c 82 b7 45 3d 99 14 2d 3d 32 9a d0 3c
       0.024025727 0.04827071 0.04225597 0.025464151
000240 23 3e 41 3c 54 98 19 3b d7 30 cb 3c a0 cd d2 3c
       0.0117946 0.0023436742 0.024803562 0.025732815
000250 f4 06 01 3d 68 e5 b8 3c 0e 9a 22 bc 63 21 ed bc
       0.03150077 0.022570327 -0.009924425 -0.028946584
000260 4a f2 ee bc c0 94 4d b8 89 1d 94 3c 80 5d 7c b9
       -0.029168267 -4.9014343e-05 0.01808049 -0.00024067424
000270 02 7c ac bb aa fc 04 bc 5c 60 b2 bb a8 2c 2e 3c
       -0.0052638063 -0.00811688 -0.005443616 0.010630764
000280 61 c9 89 3c 74 b4 25 3b 48 e5 2c bc bd 0b 96 bc
       0.016819658 0.002528456 -0.010552712 -0.018316144
000290 e8 aa 43 bb 36 da cb 3a 40 22 66 bc 7c 35 d2 bb
       -0.0029856507 0.0015552703 -0.014046252 -0.0064150672
0002a0 c4 9a 4c bb 57 6f 29 bc 48 5a 26 bc a9 5f a5 bc
       -0.0031220177 -0.010341487 -0.010153361 -0.020187216
0002b0 73 63 1b bb 51 0c 1a 3c f8 88 51 3b e6 09 f3 38
       -0.00237104 0.0094023505 0.003197251 0.00011588987
0002c0 0d c2 9d 37 f8 00 0d 38 6f 57 44 38 53 47 04 b8
       1.880622e-05 3.3617922e-05 4.681147e-05 -3.153768e-05
0002d0 2e cb 79 38 6b f3 d2 36 66 df 86 38 f9 b6 e9 36
       5.9555452e-05 6.2868253e-06 6.431229e-05 6.965242e-06
0002e0 1e 92 9f b5 24 e7 78 37 7f 18 4f 37 7a f7 5d 38
       -1.1888949e-06 1.48357685e-05 1.2343865e-05 5.2920986e-05
0002f0 33 c0 ca 37 b5 14 cd ad 32 76 34 36 c0 19 48 37
       2.4169776e-05 -2.3314998e-11 2.689089e-06 1.1926924e-05
000300 12 95 5f 37 04 78 03 37 00 00 00 00 ce 91 94 38
       1.3326544e-05 7.836152e-06 0.0 7.084348e-05
000310 77 ef 87 37 ff 26 80 38 25 fe 01 36 1c 7d a6 37
       1.6204764e-05 6.110779e-05 1.937043e-06 1.9847e-05
000320 38 99 8d 3a 97 45 89 bc 3f 8c bb bc ca e6 ae bb
       0.0010803109 -0.016756816 -0.022894023 -0.005337571
000330 63 4d b5 3c be 98 56 bc ba 9a e5 bc 0e f0 99 bc
       0.022131627 -0.01309794 -0.028027881 -0.018791225
000340 60 32 d6 b9 e3 15 ab 3c b8 3d 0d bd 24 66 3b bd
       -0.00040854793 0.02088446 -0.034482688 -0.045751706
000350 32 f8 ec bc 80 7a 47 bc 52 0f c4 3b 42 61 e1 bc
       -0.028926942 -0.012175202 0.0059832716 -0.027512196
000360 26 60 26 bd b6 50 06 bd b3 d7 67 bb 0d 3a f1 bb
       -0.040619038 -0.032791816 -0.003537637 -0.0073616565
000370 1b 2c f5 bc 6b 57 16 bd 6a 0e 96 bc d0 6c 07 3a
       -0.029928258 -0.036704462 -0.01831742 0.00051660556
000380 b1 33 af 3b ce 42 2e 3d e0 dc c6 3c cc de c6 bb
       0.0053467383 0.04254418 0.024275243 -0.00606904
000390 b4 03 ee bc 8f 2c 3c bd 50 b2 c6 3c 33 cb a6 bb
       -0.0290545 -0.045940932 0.024254948 -0.005090141
0003a0 3b 7b 1c bd a4 38 5a bd 23 61 64 bd 0b e1 c2 3c
       -0.03820346 -0.053276673 -0.0557567 0.02378895
0003b0 64 80 8e 3a 60 af 0d bc 31 ec 73 bc 58 f9 0e bd
       0.0010872004 -0.00864777 -0.014887855 -0.03490576
0003c0 91 9b 53 3c 2a 85 a4 3b 66 f8 9c 3b b1 50 a0 bb
       0.012915508 0.005020757 0.0047903536 -0.0048924317
0003d0 d0 03 45 bc a5 94 e9 3b 7f dc 37 3c 4e 17 da 3b
       -0.012024835 0.0071283155 0.011222004 0.00665561
0003e0 b8 01 cc 3b 8e 6e b1 bb
       0.006225791 -0.0054147905

momentum_buffer f4 [10]
000000 db 34 68 bc 4a af fa bb a5 79 28 3d b6 29 f7 bb
       -0.014172758 -0.0076502906 0.041131634 -0.007542814
000010 21 13 5a 3c 4c 1e 53 3d b9 0c e0 3c 0d df 04 39
       0.013310225 0.051542565 0.027349817 0.00012671594
000020 26 49 8c bb 2b 50 9f 3d
       -0.004281181 0.07778963

momentum_buffer f4 [20, 10, 5, 5]
000000 ad db 4a 3a fa 4b 23 3a e1 82 c4 3b 9f cd b2 3b
       0.0007738423 0.0006229278 0.0059970473 0.005456641
000010 2e 4f a5 3b 0c 3f 0d 3b eb 88 89 3b aa e4 26 3c
       0.0050448393 0.0021552471 0.00419723 0.010186354
000020 7e 6f cb 3b 2a ba fa 3b 17 d8 38 b9 e3 c4 8a 3b
       0.0062083593 0.007651587 -0.00017628107 0.0042348965
000030 79 5b bc 3b 69 fc c3 3b 14 57 94 3b 10 97 41 bb
       0.005748209 0.0059810174 0.004526982 -0.0029539503
000040 ed ed 65 39 9b 63 8c 3b 30 72 6b 3b 98 91 82 3a
       0.00021927776 0.004284335 0.0035926215 0.0009961603
000050 20 6d c4 3b c5 05 9d ba 70 1e 95 3b 20 73 fe b8
       0.005994454 -0.0011979869 0.0045507476 -0.000121331075
000060 f8 5c d9 bb d7 8b 8e ba 64 ac 87 ba 84 41 21 bb
       -0.006633397 -0.0010875416 -0.0010351059 -0.00246057
000070 d6 ac c9 3a 42 44 6d 3b d6 01 33 bb 07 0a a9 b9
       0.0015386592 0.0036204015 -0.0027314327 -0.00032241663
000080 64 15 1b 3b b0 64 a6 b8 a2 19 64 3b 38 72 a3 bb
       0.0023663873 -7.934251e-05 0.0034805317 -0.004987981
000090 f5 46 2e b9 7f c6 d8 3a 40 e1 a5 ba 2d b6 10 bb
       -0.00016620367 0.0016538649 -0.0012655631 -0.0022081241
0000a0 f9 94 a5 3b ac 85 d7 3a 18 56 48 3c 6a 69 22 b9
       0.0050531593 0.0016443036 0.012227558 -0.00015488794
0000b0 f3 60 b7 bb 0d 0d c8 3b 3b 44 4a 3a b4 f7 39 3c
       -0.005596274 0.0061050714 0.00077158556 0.011350561
0000c0 02 7e 25 3c d1 0c 5b 3b 1e 57 68 bc 51 67 53 3b
       0.010100843 0.0033424387 -0.014180927 0.0032257626
0000d0 bf ce f9 3c 6d 23 5e 3c c1 63 6c 3b b2 2b 93 bb
       0.030494092 0.013558251 0.00360702 -0.004491293
0000e0 9c 4e 35 3c 35 0b 92 3c b9 05 6b 3c 5c 51 12 3c
       0.011066105 0.01782761 0.014344626 0.00893053
0000f0 e1 5b 2e 3c aa ee a4 3b 7a e8 e1 3a 32 45 82 3c
       0.010642023 0.005033334 0.0017235421 0.015902136
000100 b2 43 64 3c 4f 9a 8b 3c 01 c0 91 3c 7c 95 4c bc
       0.013932155 0.017041354 0.01779175 -0.012486812
000110 46 a8 f8 bb 79 fd 8c 3c f6 8c 52 3c 84 f1 48 3c
       -0.007588419 0.017210709 0.0128509905 0.012264613
000120 5c 8c 76 3b 17 9b af 3c 58 c3 16 3d d4 22 b8 3b
       0.0037620282 0.021436257 0.036807388 0.005619386
000130 8d a1 c8 3b 96 ba ad 3c d1 9a 85 3c 19 bb c9 3c
       0.006122774 0.021207135 0.016309174 0.024625348
000140 06 83 60 3a f2 18 65 bb 5e 75 5d 3b da 19 b1 3a
       0.0008564446 -0.0034957496 0.003379188 0.0013511733
000150 a0 1d 03 3c ec fb 1e bb 38 46 22 3b 92 89 01 bc
       0.008002669 -0.0024259044 0.0024761092 -0.0079063345
000160 cb 0e 97 ba c1 07 13 bc b7 60 bf 3a 5c 52 57 3c
       -0.0011524794 -0.008974017 0.0014600967 0.013142195
000170 f2 c8 d6 3b 85 ae 75 bb 0c d5 f4 bb 04 e9 74 3c
       0.0065547163 -0.0037488055 -0.007471686 0.014948133
000180 b2 d0 81 3c a8 3f 5e bb 4c 08 54 bc d5 34 ec 3b
       0.015846584 -0.0033912454 -0.012941431 0.0072084465
000190 4d 8b 71 3a d5 8a a9 bb aa 90 d2 bb 27 4f 79 3b
       0.0009214178 -0.005174021 -0.0064259367 0.0038041563
0001a0 a6 1c 6f bb 96 a5 06 bc 74 b3 45 bc 90 47 40 bc
       -0.0036485582 -0.00821819 -0.012066711 -0.011735812
0001b0 b2 d0 1d bc e6 53 e8 bb 0f 3b 81 bb 8b ec 21 3c
       -0.009632276 -0.0070900796 -0.003943808 0.009883056
0001c0 e6 60 9a ba 2c 8c 6c bb b2 93 3f 3c a2 a4 aa 3c
       -0.0011778146 -0.003609429 0.011692928 0.020830456
0001d0 24 6e f7 3c 55 d9 20 3c bd 4e 6b bc 68 70 a1 3b
       0.030203886 0.009817441 -0.014362034 0.00492673
0001e0 a4 f6 4b 3c 9a c8 c2 3c 53 cd 8c 3c 7b 17 8b 3c
       0.01244894 0.023777295 0.01718775 0.01697897
0001f0 a9 cc 59 3c 0c eb 7b 3b f4 c8 33 bc 20 8e bc b9
       0.013293424 0.003843966 -0.010973204 -0.00035964046
000200 a4 60 f1 3c c3 94 e3 3c 0c 9a d3 3a 4c b4 95 3a
       0.029465027 0.027780896 0.0016143932 0.001142153
000210 a8 10 44 bb 6a a3 b4 bb 70 35 61 3b 13 e4 31 bc
       -0.0029917154 -0.0055126445 0.0034364127 -0.0108576
000220 64 97 01 3c a8 c5 53 3a f0 ce 2c bc a9 b9 86 3b
       0.0079096295 0.00080784643 -0.010547385 0.004111488
000230 91 57 86 3c 47 1c b7 3c 9e 7b 63 3c 2a bf 21 bc
       0.016399177 0.02235235 0.013884453 -0.009872237
000240 60 11 aa bc dc c0 08 3d 3c 77 1a 3d fc 55 8f 3d
       -0.020760238 0.03338705 0.037711367 0.06998822
000250 b3 11 2f 3d ca 2b da bb d9 8b 24 3c 25 94 f2 3b
       0.04274149 -0.006658052 0.010043108 0.007402914
000260 48 d9 b1 3c ed 55 16 3d 41 b8 c8 3c 4c 1a 0d 3b
       0.021710053 0.03670304 0.024501922 0.0021530567
000270 0f ee 9b bc 9d 79 f2 bb 7c d6 fc bb e6 61 a3 ba
       -0.019034414 -0.0073997513 -0.007715998 -0.0012465089
000280 58 bb 7c bb 69 5a 70 bb f2 56 7b bc dc 54 2e bc
       -0.0038563814 -0.0036674982 -0.015340554 -0.010640349
000290 b8 cc 70 3b 2e 97 0d 3c 99 e5 b2 3c 96 84 d3 bb
       0.0036743116 0.008642001 0.021837996 -0.0064550145
0002a0 ac 5d fb bb a3 72 98 3b 15 2a f5 3c e6 ad 18 3d
       -0.0076710787 0.0046523376 0.029927293 0.037275217
0002b0 e7 59 cb 3c f0 ee bc 3a 30 99 c2 bb 69 d3 34 95
       0.024823142 0.0014414471 -0.0059386715 -3.6517484e-26
0002c0 36 6c 06 36 a6 ab 9d 36 30 bb a5 28 9b df 94 b4
       2.0030543e-06 4.698947e-06 1.839986e-14 -2.7729843e-07
0002d0 6e fa 3f 20 f0 7b e0 9f 92 95 6f 17 ac c5 3a b4
       1.626119e-19 -9.507273e-20 7.741385e-25 -1.7394512e-07
0002e0 db b4 b7 32 f6 e5 a8 a0 ce 84 15 a8 71 b2 03 b2
       2.1386247e-08 -2.8612482e-19 -8.299959e-15 -7.6657765e-09
0002f0 08 48 6b ad 5c 4b 5d ac 83 d1 10 b3 e5 1d 3f b4
       -1.3374198e-11 -3.1447822e-12 -3.3718162e-08 -1.7799137e-07
000300 8c 58 85 29 ac 10 06 ae 49 fe 46 a8 82 59 19 0d
       5.921747e-14 -3.048288e-11 -1.1046347e-14 4.7254506e-31
000310 67 7f 01 80 6d 9b 7c 99 a2 c9 7e 27 fd 6b 0c 35
       -1.37539e-40 -1.3059483e-23 3.5358886e-15 5.231121e-07
000320 23 79 cf 3b 1b 7f 80 3c af c0 dd 3c da 07 c3 3c
       0.0063315793 0.015685609 0.027069418 0.023807455
000330 1a ff 03 3d 38 d3 1a bc a4 61 6b 3b 10 bf 93 3b
       0.032225706 -0.009449773 0.0035916353 0.0045088604
000340 c0 43 ca b8 10 6d 3e bb 74 08 00 bb 23 89 3c 3b
       -9.64473e-05 -0.0029056706 -0.0019536288 0.0028768263
000350 81 28 94 3b 40 7b aa ba 18 57 13 3c d7 ec 06 3d
       0.00452143 -0.0013006702 0.008992933 0.03294071
000360 a5 8f e2 3c 50 3a 46 3c b7 60 43 bc d0 c0 be 3b
       0.027656386 0.012098864 -0.011924914 0.005821325
000370 9b fe cd 3c 27 bd 17 3d 77 d1 47 3b 06 4d ef 3b
       0.02514582 0.037045624 0.003048984 0.007302883
000380 38 0b d0 3c b7 d2 3a 3b 7e ee 89 3c 99 26 02 3d
       0.025395975 0.0028506943 0.016837355 0.03177509
000390 16 d7 1a 3d c0 c6 52 3d d3 92 04 3c b9 4d f7 bb
       0.03780278 0.051459074 0.008091646 -0.007547107
0003a0 1d bd 55 3c ba 6d b5 3c ea 67 9b 3c a3 d2 14 bc
       0.013045576 0.022147048 0.018970449 -0.009083423
0003b0 34 de 9a bc f0 9a 87 bc 4a 9d 22 3a b0 f8 d9 ba
       -0.018904783 -0.016553372 0.00062032475 -0.0016629901
0003c0 2d dc 0e bc 5d df c2 bb a3 08 e4 bb 9d 98 e1 3b
       -0.008719486 -0.005947037 -0.0069590374 0.006884648
0003d0 95 b7 de 3a 5b 3a c3 3b 9f a9 0b 3c 88 07 97 bb
       0.0016991968 0.0059578842 0.008524328 -0.004609052
0003e0 e8 50 99 bc b4 0e f9 bc ac 28 02 bb 1c 44 cd 3b
       -0.018715337 -0.030402519 -0.0019860668 0.006264223
0003f0 88 24 6e ba fe 34 81 bb 26 1e 80 3b 61 ef b1 3b
       -0.0009084423 -0.0039430847 0.003909844 0.0054301475

momentum_buffer f4 [20]
000000 da ce 4b 3c 2d 23 7d 3c 1e 2a 2c bc b7 6a 37 3c
       0.012439454 0.015450281 -0.010508088 0.011194876
000010 c3 4a 0e 3c 30 df 84 b9 93 a0 66 bc 94 46 0c bc
       0.008684817 -0.0002534329 -0.01407637 -0.008561749
000020 57 cc 76 3c 4c f5 f0 bc 46 0c c2 3c 65 35 71 3c
       0.015063367 -0.029413842 0.023687493 0.014722203
000030 28 c7 19 bc 8e 12 d7 3b b1 0a bc bc 9c 13 83 3c
       -0.009385861 0.006563491 -0.022954317 0.016000561
000040 34 e8 04 39 3b 3c 40 bc ed f8 29 3c b2 61 b6 3a
       0.00012675003 -0.01173311 0.01037429 0.0013914614
