checkpoints/task-000.pth (torch, 179983 bytes, 16 tensors)

conv1.weight f4 [10, 1, 5, 5]
000000 af d3 2b bf bd 11 a6 3f 16 60 7f 3e ea 03 1c be
       -0.6711988 1.2974163 0.24938998 -0.15235868
000010 74 ac fa be 91 e3 72 bd b3 8c bc 3e 6b 2a 38 3e
       -0.48959696 -0.059299055 0.36826095 0.17984931
000020 b8 b3 9a 3e 7b 89 93 bf fd a6 a6 3e f0 ee 83 3e
       0.3021524 -1.1526331 0.32549277 0.25768232
000030 36 94 19 3e 92 ac f5 bd d9 8d 76 bf 9d 41 57 3e
       0.14997944 -0.11995806 -0.9631019 0.21021123
000040 24 af 9f 3e 27 3f 22 be b7 cc f5 be ca 28 1d bf
       0.3118831 -0.15844403 -0.48007748 -0.61390364
000050 71 dd 3f be 56 5b 06 be 53 d8 24 bf 05 b1 19 bf
       -0.18736817 -0.1312078 -0.64392585 -0.60035735
000060 ee c9 5d bf bf fa d5 be 01 95 45 bf 44 c5 d8 3c
       -0.86636245 -0.41792867 -0.77180487 0.026461251
000070 f7 6d a3 3d 18 4a b2 bd 2a 63 71 be 18 92 e8 be
       0.079799585 -0.087055385 -0.23572984 -0.4542396
000080 08 dd 2a be ea 59 8a 3e 63 c3 14 3e bb 3a d2 3e
       -0.16685879 0.27021724 0.14527659 0.41060433
000090 37 ce 0d 3f 58 0c b1 3f 20 74 3d be 1a a7 cf bf
       0.55392784 1.3831892 -0.1850133 -1.622287
0000a0 71 8d 35 3f c3 d9 1f 3f e6 f3 c0 bb 62 c4 d8 be
       0.7091895 0.62441653 -0.00588845 -0.42337328
0000b0 8f e2 a4 bf 0f 63 25 bf 31 e9 4d bf 7a 0e 8a bf
       -1.288164 -0.64604276 -0.80433947 -1.0785668
0000c0 bd 54 6f bf f5 4a 74 be 52 36 29 be 3a 7c 44 bf
       -0.93488675 -0.23856719 -0.16524628 -0.76752055
0000d0 36 21 19 bf e0 65 ba be b7 2b e7 3c e4 44 ec 3e
       -0.598163 -0.3640585 0.028219087 0.4614631
0000e0 4b 78 35 3e e1 55 00 bf 4e 25 d5 be 44 84 83 be
       0.1772167 -0.5013104 -0.41630024 -0.25686848
0000f0 04 d1 4d 3e 22 47 0d 3e 7c 1d c4 be f7 ec d4 be
       0.20099264 0.13796666 -0.38303745 -0.4158704
000100 6d bf c8 bd fe bb 63 3e 5f 99 f2 3d f2 64 e4 be
       -0.098021366 0.22239682 0.118456595 -0.44608265
000110 16 8c 1a bf af 2d 49 3e 59 08 0c 3f c4 d6 b9 bc
       -0.60370004 0.19646333 0.5470024 -0.022685416
000120 d9 bb 87 bf d7 bf e6 be da 2c 12 3f 33 84 79 bf
       -1.0604202 -0.45068237 0.5709969 -0.97467345
000130 5d da 23 bf 71 a9 57 bc 5f 04 2d 3f 3e 1e 88 3e
       -0.6400507 -0.013162957 0.67584795 0.26585573
000140 a6 43 0d bf 67 75 11 bf 05 36 cf bc 23 77 84 3f
       -0.5518135 -0.56819767 -0.025294313 1.0348858
000150 c6 b6 7b be ae 0e 50 bf 86 93 66 bf 12 1d 83 bc
       -0.24581441 -0.812724 -0.9006885 -0.016005073
000160 9d 7c 53 3f 30 52 f7 be 3c cf 49 bf ca 01 17 bf
       0.8261202 -0.48304892 -0.7883184 -0.58987105
000170 84 48 10 bf b2 04 0a 3f 45 13 32 bd 5a 8e cc 3e
       -0.5636065 0.53913414 -0.043475408 0.39952356
000180 89 87 0b 3e f0 8b 90 3d 4f c4 3d 3f 8a c3 6e 3f
       0.13625921 0.07057941 0.7412767 0.9326712
000190 2a ab 1e be d4 88 4f 3e 2d 99 09 bf 24 66 95 3d
       -0.15494981 0.2026704 -0.5374935 0.072948724
0001a0 09 50 56 3f b5 61 84 bf 39 2e 68 bf 28 78 c3 bf
       0.83715874 -1.0342318 -0.9069553 -1.5271044
0001b0 27 75 c0 bf 98 9e 79 3e f0 6e 2d be f9 a8 f4 3e
       -1.5035752 0.24376905 -0.1693685 0.47785166
0001c0 71 2a 04 bf f6 52 41 bf 4b 81 93 bf a6 ce 6e 3d
       -0.5162726 -0.75517213 -1.1523832 0.058302544
0001d0 9e ac ca 3e 49 b3 08 bd 51 b0 2e bf c1 a1 ab be
       0.3958482 -0.033374105 -0.6823779 -0.33521846
0001e0 bb a2 4f 3e eb f0 00 bf 9f 61 a1 3f c2 2c 60 3f
       0.2027692 -0.5036761 1.2607917 0.87568295
0001f0 18 f9 81 3f 4b 9a 1a bf 6b 65 01 be 24 f8 a7 3e
       1.0154142 -0.6039168 -0.12636344 0.32806504
000200 70 f3 1c 3f 90 87 50 3f 8f 9a 47 bf 05 ad 0f bf
       0.61308956 0.8145685 -0.7797021 -0.5612338
000210 6d 3a 73 be 6e ae 4a 3d 39 06 e6 3e c0 03 2f bf
       -0.23752756 0.049482755 0.44926623 -0.683651
000220 72 39 03 bf be 60 28 bf b6 84 89 be a5 83 25 be
       -0.5125953 -0.65772617 -0.26859063 -0.161635
000230 aa 51 d4 be ea 85 d6 be 00 70 53 bf dc 07 76 bf
       -0.41468555 -0.41899043 -0.82592773 -0.9610574
000240 5d 79 73 bf cd e0 1b bd cc 99 19 3d 98 2e 5a bd
       -0.9510706 -0.038056184 0.037500188 -0.05326709
000250 90 ff 51 3e 99 62 2d 3e 0f 3d e0 3d 86 f2 fe bd
       0.20507646 0.16932143 0.10949146 -0.124486014
000260 1a 59 e6 be a8 5c 2d 3e 73 a1 ee 3e 05 bc 6c 3e
       -0.44989854 0.16929877 0.4660755 0.23118599
000270 ea 6c a4 3f b9 bd 03 3f 7a 18 b9 be c8 9e 4a 3e
       1.2845738 0.5146137 -0.36151487 0.19787133
000280 24 49 b6 be d3 87 98 3c e2 d8 00 be e0 67 fd 3e
       -0.35602677 0.018619454 -0.12582734 0.49493313
000290 fc 53 ca be 67 ed ae bf 1b 59 25 3f ff a5 7c 3f
       -0.395172 -1.36662 0.6458909 0.9869079
0002a0 a8 d3 07 3c 20 7a 99 bf 72 88 ba bf 1f 33 bf bf
       0.008290209 -1.1990395 -1.457289 -1.4937476
0002b0 62 d4 fe bf 64 7e ea bf 0b 10 29 3e b4 72 c6 3e
       -1.9908564 -1.8319821 0.16510026 0.38759387
0002c0 96 4d 9d be dd bd 68 3e fb 92 2e be 80 b9 2a 3e
       -0.30723256 0.22728677 -0.17048256 0.16672325
0002d0 50 80 a5 3e a1 48 f4 bc 2e 33 53 bf 54 d9 9c bf
       0.32324457 -0.029819788 -0.8249997 -1.2253823
0002e0 2e 2c 22 3e 44 47 08 3f d7 c4 8c 3f 32 e3 f6 be
       0.15837166 0.5323374 1.0997571 -0.4822021
0002f0 63 74 14 bf 52 19 11 3f 55 c1 18 bf d1 ff 9a 3f
       -0.5799009 0.5667926 -0.5967 1.2109319
000300 79 b4 65 3d be 3f 18 be 6d 7d 25 bd 2a ce 45 bf
       0.056080315 -0.14868066 -0.04040282 -0.77267706
000310 f6 29 39 3e 34 9a ec 3e b9 c5 2d 3f 75 f8 2c 3e
       0.18082413 0.46211398 0.67879826 0.16891654
000320 33 08 c2 3d 58 48 0b bd a5 c4 6e 3c 96 35 1a bf
       0.0947422 -0.03400454 0.014573251 -0.60238016
000330 ea 85 81 bf 53 56 2b 3e b5 04 15 be 19 bb 78 bf
       -1.0118992 0.16732149 -0.14552577 -0.9716049
000340 7e 53 f0 be 21 b4 1e be 84 89 3e 3e 3e 02 96 bf
       -0.469387 -0.15498401 0.18607146 -1.1719434
000350 90 bf 08 bf 64 e2 07 3e 2b d3 58 be b8 35 c9 be
       -0.534173 0.13269955 -0.21174304 -0.39298797
000360 9f 17 64 bf db 6b b7 3e ea 9a 03 bd ab e4 7f 3f
       -0.8909854 0.35824475 -0.03213016 0.99958295
000370 b0 06 af bf ce b6 fb be 35 c1 07 be 94 d2 59 bd
       -1.3673916 -0.49162906 -0.13257296 -0.05317934
000380 05 82 38 3f de 24 98 bd aa 71 91 3c 7b 8e 07 bd
       0.72073394 -0.07428907 0.017754395 -0.033094864
000390 c4 94 13 bd de 11 82 3d 4e 4c fc bc 39 8d 42 be
       -0.036030546 0.06351064 -0.030798104 -0.18999185
0003a0 a7 23 1f be 7b bc 3b be 53 fd 9c 3d f6 68 2b 3e
       -0.15540944 -0.18333618 0.07665505 0.16739258
0003b0 fc 38 0e be f4 ad 3d 3e 1d 3f 37 bd 97 a6 5a 3d
       -0.13888925 0.18523389 -0.044737924 0.05338153
0003c0 c3 7b be bd 0e 49 39 bc 92 bf 25 3d 42 4d b1 bd
       -0.093009494 -0.0113089215 0.0404659 -0.08657314
0003d0 6d 7a b3 3c 6d 61 e5 3d 91 7d 20 be 21 b7 bf 3c
       0.021908963 0.11200223 -0.156729 0.023402752
0003e0 00 76 e1 bc b9 2e 87 bd
       -0.027522087 -0.066007085

conv1.bias f4 [10]
000000 8e 27 4c bf 5e 7c 37 bf 66 a4 09 bf 28 7d 30 c0
       -0.79747856 -0.71674144 -0.5376648 -2.757639
000010 f7 53 6d bf af 1e 31 bd 36 6a 7f be 41 dd 06 c0
       -0.92706245 -0.043242153 -0.2494286 -2.1072543
000020 f9 05 b9 be 3d 88 4e be
       -0.3613737 -0.20169158

conv2.weight f4 [20, 10, 5, 5]
000000 6b bc d9 3d fd d5 0a 3f 62 07 e8 3e b8 61 28 3e
       0.10631641 0.5423277 0.45318133 0.16443527
000010 15 c7 9b bd f2 f5 46 3e e0 40 58 be cf 5f 11 bf
       -0.07606331 0.19429758 -0.21118498 -0.5678682
000020 07 8e 64 be 37 82 2c bd fd 5c 01 bf 36 2a d7 be
       -0.22319804 -0.04211637 -0.50532514 -0.42024392
000030 66 62 73 bd a1 fb 6f be 1c 42 d7 be 92 62 d0 be
       -0.059420012 -0.23435833 -0.42042625 -0.40700203
000040 6a d1 63 3e 01 da a8 3e 04 c9 ee bd a7 d8 eb bd
       0.22247854 0.32978824 -0.116594344 -0.115159325
000050 d5 34 83 be 29 0f 70 be 93 3f 2d be b7 cc 5e 3d
       -0.25626245 -0.23443283 -0.16918783 0.05439445
000060 3c 3f 9c bc c4 f2 25 3e 26 4d 9f bd 93 16 62 3e
       -0.019073121 0.16205889 -0.07778387 0.22078924
000070 88 a6 38 3e 2f 75 c5 3d 3a 63 8f bd 33 b8 1f bf
       0.18032277 0.096414916 -0.07001348 -0.6239044
000080 33 00 f6 be 12 41 0e be f1 7c f6 bd c4 70 27 3d
       -0.48047027 -0.1389201 -0.120355494 0.040879026
000090 59 ae 8d be f0 de a9 bd d3 f5 13 be 22 1f 40 be
       -0.2767208 -0.08294475 -0.14449243 -0.18761876
0000a0 ca 07 31 3e 6a 81 0f 3f 9e 8b 43 bc fc 2a c3 bd
       0.17288128 0.56056845 -0.011935143 -0.09529683
0000b0 cd b5 d2 3d 11 ff bd 3d 61 bc 52 bd f9 31 7c 3a
       0.10288582 0.09277166 -0.051449183 0.00096204836
0000c0 8b 6d e8 bd d8 6e 9a 3d d5 23 05 be d9 9b 0a be
       -0.11349019 0.07540673 -0.1300195 -0.13536014
0000d0 9e 6f a9 bd e1 84 3f be 07 e9 b3 bd ca 30 b0 bd
       -0.082732424 -0.18703033 -0.08784681 -0.08603056
0000e0 39 27 3c be 9c d9 c0 3d 3e 09 ba bb 46 dc 5e bc
       -0.18374337 0.09416506 -0.0056773713 -0.013602322
0000f0 99 9e 8a 3e 86 98 dc 3d 6c ca eb 3d eb fc 94 bd
       0.27074125 0.10771279 0.11513218 -0.07274803
000100 c3 db 12 bc 5d 8d 4f 3d d4 ac 84 bc 9f 70 c6 bc
       -0.008963528 0.050671924 -0.016195692 -0.024223624
000110 62 dd 60 bd 94 c9 96 3e 26 4a eb bc 8e 65 e1 bc
       -0.054898627 0.29450667 -0.02872188 -0.027514245
000120 66 6d 50 bd a3 43 46 bd 1b 7b b3 3d d2 0d 8b 3e
       -0.05088558 -0.048404347 0.08763715 0.27158982
000130 26 3f f8 3e ab 9b 74 3e fa d0 81 3e 36 31 23 3e
       0.48485678 0.23887508 0.2535475 0.15936741
000140 0a 42 be be 63 ea f7 be 77 25 c5 bd dd 7e 57 3e
       -0.3715976 -0.4842101 -0.096262865 0.21044488
000150 e8 49 a0 be 16 4f 03 bf b5 24 94 be 84 c9 f1 bd
       -0.31306386 -0.5129255 -0.28934255 -0.11806014
000160 da bb 82 be 1d e5 69 be b8 4f 02 be bf 78 5f be
       -0.25533944 -0.22841306 -0.12725723 -0.21823405
000170 84 85 da be 12 a5 03 be 4a 1e c2 bc ac fb 16 be
       -0.4267999 -0.12855938 -0.023696084 -0.14744443
000180 47 1b e3 3c 5c 1b ff 3b 92 44 6d be 41 f5 a3 be
       0.027722968 0.007785244 -0.23170689 -0.3202305
000190 14 ba 93 be a0 f4 2a bf 16 48 9c be 26 a1 58 bd
       -0.28852904 -0.6677952 -0.30523747 -0.052888058
0001a0 59 28 04 be 80 86 2b bf d7 57 ff be e6 9d f4 3d
       -0.12906016 -0.67002106 -0.49871704 0.11944179
0001b0 cc 14 a4 bd cd 79 7c be c2 f1 e8 be 5d cb 37 3f
       -0.08011779 -0.24655838 -0.45496947 0.7179468
0001c0 9a d4 74 3e 70 b2 7f be 8c 84 0e 3e 05 9d 40 3e
       0.23909226 -0.24970412 0.1391775 0.18809898
0001d0 91 8d 42 3e d9 66 28 3e 29 c5 05 3d 98 77 f8 3e
       0.18999316 0.16445483 0.03265873 0.48528743
0001e0 07 fb fc be 8b 7b 0f bf 48 64 80 be 79 88 51 be
       -0.4941027 -0.56047887 -0.2507651 -0.20462216
0001f0 ed 7c 59 be de a0 13 bf d7 bc e2 bd 40 5f e2 3d
       -0.21239062 -0.5766734 -0.110711746 0.11053324
000200 f8 6f 65 bd f1 c6 9d 3e ff 7e 10 bf a8 35 3f 3d
       -0.056014985 0.30815843 -0.5644378 0.04668203
000210 66 3e ac 3d 0c 96 e5 3d ba cb 82 3e 15 2e 34 bf
       0.08410339 0.1121026 0.25546056 -0.70382816
000220 56 b7 93 3e 19 17 20 3f 10 67 0f be 5f ad b7 bd
       0.28850812 0.62535244 -0.14004159 -0.08968615
000230 f3 9b e4 bd 38 a4 9e be 25 e0 0e bf d9 47 0b bf
       -0.111625575 -0.30984664 -0.5581077 -0.54406506
000240 f8 6e 41 be e7 8d 40 be a0 24 ad 3d b5 73 2c 3e
       -0.18889987 -0.18804131 0.08454251 0.16841014
000250 35 d9 05 3e d8 03 99 3e 84 4e 50 bf 3f f2 b2 be
       0.13071139 0.29885745 -0.81369805 -0.34950444
000260 82 ac 83 bd 42 1f 79 be b6 73 10 3f 17 f2 e9 be
       -0.06429388 -0.2432833 0.5642656 -0.45692512
000270 96 93 8c be 4f de 1f be 7c 6e 8f 3e 7f 8d e9 ba
       -0.2745635 -0.15612148 0.2801398 -0.0017818658
000280 1a 22 0c bf f0 f2 84 be 8f ae 10 bd be 0a 09 3e
       -0.54739535 -0.25966597 -0.035322722 0.13383004
000290 39 48 7f be 04 d2 1d be 1f 95 40 bd fd 78 21 be
       -0.24929895 -0.15412146 -0.047017213 -0.1576881
0002a0 bc 69 d0 3d a1 6c a5 bd cc 35 0f 3e 45 e0 83 3e
       0.10176417 -0.0807736 0.13985366 0.25757042
0002b0 eb c0 35 bc 45 3f 2b 3d d2 74 73 3d 4d b9 ad 3d
       -0.0110933585 0.041808385 0.05943758 0.08482609
0002c0 c3 64 a1 be de 46 27 bd 70 f2 44 bd 45 76 c4 be
       -0.31522188 -0.04083907 -0.04808277 -0.38371482
0002d0 22 19 a3 3c 13 85 2e be 41 15 04 3f 19 a9 99 be
       0.019909445 -0.17042951 0.5159493 -0.30011824
0002e0 dd de b2 be 77 93 12 3d 49 e9 49 3e 92 9d 89 be
       -0.34935656 0.035785165 0.19717897 -0.2687803
0002f0 7f 20 ca bc 51 ee f7 bd b1 b6 8c 3e 0b 36 03 3e
       -0.024673698 -0.12106002 0.27483132 0.12813585
000300 05 54 82 be da 31 08 be 27 33 0d bd 8a 4f ed 3c
       -0.25454727 -0.13300267 -0.03447261 0.028968591
000310 88 fa 5c be 68 3d 2d 3e ef 9f c3 3c a8 ad e5 3d
       -0.21579945 0.16917956 0.023879973 0.11214763
000320 a2 ab 37 bf 20 3b 3f 3e 36 ee ec 3e 4e 1b f3 3e
       -0.71746266 0.18674898 0.4627549 0.4748177
000330 d7 6e 01 3e 05 b7 c3 be 20 e9 70 be 8c 6e 2a be
       0.12639938 -0.3822557 -0.2352643 -0.16643733
000340 97 04 c6 be ed a7 0f bf da 4b 85 be ce d2 9f be
       -0.38675377 -0.5611561 -0.26034433 -0.3121552
000350 8d b2 af be 95 09 a2 3d 26 47 39 be 77 b6 33 3e
       -0.3431591 0.07911984 -0.18093547 0.17550074
000360 c7 c1 97 3d 62 85 9e 3e 6d b2 fe 3e 1b d1 9a 3e
       0.07410007 0.30961138 0.49745503 0.3023766
000370 02 f1 5f 3d 2d b1 97 be a0 2b cf be e4 a4 ad bd
       0.054673202 -0.29627362 -0.4046297 -0.08478716
000380 d1 67 3a 3e fc dc 33 bd 32 5c eb 3b d0 fc 4d 3d
       0.18203665 -0.04391192 0.0071826214 0.05028993
000390 01 0f 13 bd f7 6a f2 bc 26 67 ae bb eb 75 8f 3c
       -0.03590298 -0.02959202 -0.005322355 0.017512282
0003a0 ff cf 69 bd 65 ca 7a 3d 08 2c b8 3c 02 87 16 3d
       -0.057083126 0.061228175 0.022481933 0.036749847
0003b0 d2 10 d4 3c ed e5 58 bd 93 6e 42 bd 8b e4 42 3d
       0.025886927 -0.05295365 -0.047468733 0.047581237
0003c0 82 b1 5e bd 24 3f 2b 3d f0 10 ac bc b4 24 63 3d
       -0.054368503 0.041808262 -0.02100417 0.055454925
0003d0 ca 04 62 3b 88 40 6c bd a7 81 e7 3b d7 68 75 3d
       0.0034487718 -0.05767873 0.0070650163 0.059914436
0003e0 3b c7 06 bd 18 c8 f4 bc 3e 91 a3 3d 74 4a ed be
       -0.032904845 -0.029880568 0.07986687 -0.46345866
0003f0 14 16 ab be 8b 57 3a 3e f9 54 6d 3e 0b cb b6 be
       -0.33415282 0.18197457 0.23176946 -0.35701784

conv2.bias f4 [20]
000000 86 f3 44 bf d0 af 55 3e a6 fc 11 bf 37 da fe bd
       -0.7693409 0.20867848 -0.57026136 -0.12443965
000010 ce 44 6a bd e0 6b 47 be 95 d1 36 bf 2d 05 24 bd
       -0.057194524 -0.19474745 -0.71413547 -0.040044
000020 ee 53 c6 be 9e 3c 3c be 83 e6 9a 3e f1 7f ab be
       -0.38735908 -0.18382499 0.3025399 -0.3349605
000030 7a 1f 41 bf b8 42 a2 bd 31 02 e0 3d 9f 10 70 3e
       -0.75438654 -0.07922882 0.10937918 0.2344384
000040 ff f4 ed be b6 23 bb be f5 7b 9a 39 14 a9 67 be
       -0.4647598 -0.36550683 0.00029465524 -0.22623092

fc1.weight f4 [50, 320]
000000 94 86 20 3e c2 58 6b 3d 59 9c 6e 3e 4f f7 34 3e
       0.15676337 0.057457693 0.2330183 0.17672466
000010 a7 87 93 3d 32 49 10 be 94 9c ae bd 36 45 02 bd
       0.07203608 -0.14090422 -0.08525959 -0.031804286
000020 a2 c1 26 3d 3e 73 ce be ed 4a 81 bd 97 2e f9 3d
       0.040712006 -0.40322298 -0.06313119 0.121670894
000030 27 29 a5 be 89 24 06 be fd aa 91 3c 05 9d 15 3e
       -0.3225796 -0.13099875 0.017781729 0.1461068
000040 82 4f 1d be eb 6c 77 be 3d e4 e9 3d 55 a6 35 be
       -0.15362361 -0.24162643 0.11420486 -0.17739232
000050 d9 e3 e8 bd a6 68 d2 bd 8a a0 87 3d 56 cc 3d 3e
       -0.113715835 -0.10273866 0.06622417 0.18534979
000060 fa 45 f9 bd 87 9b cd 3d 6c 18 14 be 89 07 a9 bd
       -0.1217155 0.1003943 -0.14462441 -0.0825339
000070 83 ed 05 be 4c ef 4c be 8a 02 82 3e 3d 9a ac bd
       -0.13078885 -0.2001316 0.25392562 -0.08427856
000080 06 c1 10 bc 93 fd a9 3e 22 fc ce 3c b4 43 5e 3d
       -0.008835083 0.33201274 0.02526671 0.054263785
000090 fd 22 a5 3d 7f 36 71 3d 32 ea 9e 3d 0d fc 80 3d
       0.08063314 0.058889862 0.07759513 0.06298075
0000a0 e0 ba ad be 38 9c 6f 3d e5 8e 2a 3e 5b fd 40 3d
       -0.33931637 0.05849859 0.16656072 0.04711662
0000b0 a3 d6 1c be ac 9b 98 be ea 9f 3a bd ea 62 39 3e
       -0.15316252 -0.29806268 -0.045562662 0.18104139
0000c0 6b 64 93 3d 20 be 16 3e f3 ea 0a be ca 97 a9 bd
       0.071968876 0.14720964 -0.13566189 -0.082809046
0000d0 a5 c0 87 be fa 90 6e be 22 7d 3c 3b e3 45 cc bb
       -0.26514164 -0.23297492 0.0028761108 -0.006233917
0000e0 1e 47 85 3e 38 d7 fb 3d 04 86 57 bd cb fc ed bd
       0.2603082 0.12296909 -0.05261804 -0.11620482
0000f0 8e 71 4b 3e 9d 31 77 3e 97 5f 20 be 2f 9a 8b 3c
       0.19867536 0.2414002 -0.15661465 0.017041294
000100 87 0f 78 be e6 ba d0 be 35 ac e4 be 66 6f da 3d
       -0.24224673 -0.40767592 -0.44662634 0.10665779
000110 ec a3 aa bd d0 73 f0 bd aa 1a 77 bc e9 bf 27 be
       -0.08332047 -0.117408395 -0.015082041 -0.16381802
000120 55 c2 99 b8 72 41 84 3e 10 64 a6 bc b9 c0 18 be
       -7.331806e-05 0.2583118 -0.020311385 -0.14917268
000130 34 f4 3b be 9f 6a 02 3d df cb 38 3e 76 50 60 3e
       -0.18354875 0.031839963 0.1804652 0.21905693
000140 d3 0f 5e 3d 83 44 9a 3d aa 68 08 3e d2 fb ad bd
       0.05421431 0.07532599 0.13321176 -0.084952965
000150 74 07 c9 3c 6a 1f 5c bd 45 9a b9 bd 68 eb a7 3d
       0.024539687 -0.053740896 -0.09062628 0.08199197
000160 91 b7 86 3e f9 8a a5 3c e3 a0 bd bd 3e 31 9d bd
       0.26311925 0.020207869 -0.09259202 -0.07675408
000170 7e bf 66 be 49 7f 64 be a4 20 ea 3d b4 c9 a0 3d
       -0.22533986 -0.2231418 0.11432007 0.07850972
000180 a3 82 47 3e e6 96 04 be a2 89 a9 bc 9e 8d 65 bd
       0.19483428 -0.12948188 -0.020695511 -0.05604326
000190 78 7d 07 bd 68 30 a0 bd 7e 82 01 be 5b d8 81 3e
       -0.03307864 -0.07821733 -0.12647435 0.2536038
0001a0 20 71 89 3e 4f d5 29 bc 80 41 30 be b9 e1 6c 3e
       0.2684412 -0.010365798 -0.17212486 0.23132981
0001b0 cc eb 01 be 92 4c 73 be 22 89 35 be f0 5f 50 bc
       -0.12687606 -0.23759678 -0.17728093 -0.012718186
0001c0 0a c8 d9 3d 1e ff ee 3d 47 43 35 3d ad 38 de bd
       0.106338575 0.116697535 0.044253614 -0.10850654
0001d0 a7 89 a8 3e cf 2d 4b be f9 35 3f 3b 32 b8 7f 3c
       0.3291752 -0.19841693 0.0029176457 0.01560788
0001e0 eb 11 af be 28 9d c3 be c0 ed 09 be 1e 60 9b 3e
       -0.34193358 -0.38205838 -0.134696 0.3034677
0001f0 5c d2 0f bd a9 b3 cd bc d8 ae 49 3e de 3d 7b 3e
       -0.035112724 -0.025110083 0.19695604 0.24535319
000200 ca cd 42 bd ad 5b 91 bc e0 51 7c bd 28 5e b0 3c
       -0.047559537 -0.01774391 -0.06160152 0.021529272
000210 33 12 09 3c 3b dc c2 3d 97 11 17 be 80 91 42 be
       0.008366155 0.09514662 -0.14752804 -0.19000816
000220 e3 25 74 be 7c 7a 70 bd 3e 7c 1e 3c 36 45 03 3e
       -0.23842578 -0.05871056 0.009673176 0.1281937
000230 af 0e 3b bd fe 19 f3 bd 87 1b e9 bd 1f 9a 72 3e
       -0.0456683 -0.11870192 -0.113822035 0.23691605
000240 d8 cb dc bb 43 99 78 3d 47 43 ed 3d fa 8d 5d 3d
       -0.0067381673 0.060693037 0.11585098 0.054090478
000250 6c c9 a2 3e 2c bb cd bd 8b c1 a2 3e 4d 11 82 be
       0.31794298 -0.10045466 0.31788287 -0.25403824
000260 10 da 12 3d d0 dd d7 bd 78 b8 69 be 76 bc 56 bd
       0.03585249 -0.10540354 -0.22824275 -0.052425824
000270 0b 66 85 be 22 31 c1 be e5 61 3e bd 67 0d 60 3e
       -0.26054415 -0.37732798 -0.04648008 0.21880113
000280 13 79 9b be ae 4d 8e be ab d2 ec bd d9 2f ad bd
       -0.3036581 -0.2779364 -0.11563619 -0.08456392
000290 0c b1 f3 3b 2e 91 4e 3d 16 0b 11 be 31 9c 06 be
       0.007436877 0.050431423 -0.14164385 -0.1314552
0002a0 43 df 9d bd e5 4e 40 bd d2 63 87 be 9d ac 88 3d
       -0.077085994 -0.04695024 -0.26443344 0.06673548
0002b0 7a b2 ba 3b f5 44 ef bd e4 b7 0d be 17 25 38 3e
       0.0056975456 -0.116830744 -0.1383968 0.17982899
0002c0 31 71 d3 3d 6a a9 4f 3d b1 4a 4c be 0d f1 9a bd
       0.10324324 0.050698675 -0.19950368 -0.07565508
0002d0 15 4e d6 be 0b 44 19 be 7e 90 05 be 34 44 89 3e
       -0.41856447 -0.14967363 -0.130434 0.26809847
0002e0 26 fe 99 bd 52 a5 9e bc 01 66 34 3e 4d b6 19 bd
       -0.07519178 -0.01936594 0.17617036 -0.03752737
0002f0 f4 c1 b2 3e bc 1d 97 3e c7 80 c6 bd cf 27 5f be
       0.349136 0.29514873 -0.09692531 -0.2179253
000300 93 83 57 3e 09 56 ad bd 0a f1 45 be a0 77 3e be
       0.21046285 -0.084636755 -0.1933023 -0.18600321
000310 78 14 0e 3b ff 4d b1 3d 91 a9 56 3e 7d 25 9a bc
       0.002167968 0.08657455 0.20963122 -0.018816704
000320 da 9c d8 3c 29 0f 46 be 1b 97 3a bc 38 70 bb bc
       0.02644198 -0.1934172 -0.011388565 -0.022880659
000330 62 0d fd be c3 6d 86 be 3d 0d d7 3c db 19 93 3d
       -0.49424273 -0.26255617 0.02625143 0.07182666
000340 a4 55 96 3d fa 29 91 3d c6 07 99 3d fa 7a 6b be
       0.073405534 0.070880845 0.07472186 -0.2299613
000350 87 4a 88 be 25 3b 71 bd 95 60 a9 3d 44 36 fb 3d
       -0.2661936 -0.058894295 0.08270375 0.1226621
000360 2f f5 e7 be dc 29 87 be 26 bd 17 3b 04 af 74 3e
       -0.45304248 -0.26399124 0.0023153513 0.23894888
000370 c5 9b f8 bc 07 10 30 bd 46 fe ea bd 35 e7 b4 bd
       -0.030347714 -0.042984035 -0.1147428 -0.08833162
000380 90 1b 4e 3e 1d 1d b7 be e7 0e 92 be c7 2c 3a 3e
       0.20127702 -0.357644 -0.28526995 0.18181144
000390 5f b7 21 bf 39 65 02 3d 1f 59 36 be b4 12 63 3d
       -0.6317043 0.031834815 -0.17807434 0.05543776
0003a0 91 bc f2 3d 9f 22 76 3d 88 c9 a9 be d3 ec b7 be
       0.118523724 0.06009161 -0.3316157 -0.3592287
0003b0 d9 de 2b bd a9 fb 07 3d 3d c3 43 3d f5 68 12 3e
       -0.04196057 0.033198986 0.047793616 0.1429785
0003c0 76 6d 3c be dd 72 49 bb 16 51 55 be 7e 98 62 be
       -0.18401131 -0.003073863 -0.20831713 -0.22128484
0003d0 87 b6 eb be 62 6e a7 be 82 b3 6e 3e c5 d6 87 bd
       -0.46037695 -0.32701403 0.23310664 -0.06632761
0003e0 61 d7 f0 3e be 0b a5 bb 6f 07 14 3e 52 62 31 be
       0.4703932 -0.0050368 0.1445596 -0.17322662
0003f0 89 9d 2f 3e 78 5e 54 bd 45 3b 05 3e 43 8a 28 bd
       0.17149939 -0.051847905 0.13010891 -0.04114748

fc1.bias f4 [50]
000000 a9 2e 7c bd ae 78 60 be ac 40 82 3e ea aa 46 be
       -0.061567936 -0.21921036 0.25439966 -0.19401136
000010 27 10 22 3e ab 35 a5 3d 5b df 38 3f 05 1d 9e 3d
       0.15826474 0.08066877 0.72215813 0.07720379
000020 01 9e 64 3d 86 12 08 3e ea 44 b0 3d 4e 38 3c 3e
       0.055814747 0.13288316 0.08606894 0.18380854
000030 c0 15 db 3e cf 8b 40 3f 17 34 42 be 9d 6f 26 3f
       0.4279003 0.7521333 -0.18965183 0.6501406
000040 ac 16 82 3e 0f 2d c6 bd dc f4 80 be 97 3e f8 3e
       0.25407922 -0.09676563 -0.25186813 0.48485252
000050 1d 99 94 3d 66 d1 6a 3d 5e 5e 5a 3f 0c 1a 97 be
       0.072557665 0.057328604 0.8530024 -0.2951206
000060 8d 5e c8 bd 16 fd d5 bd ee 83 c3 3e eb 5e 72 3f
       -0.09783659 -0.10448663 0.38186592 0.94676083
000070 24 ef c2 3d 16 14 53 be 21 a5 1f 3e f8 64 5c 3f
       0.09518269 -0.20613131 0.15590335 0.86091566
000080 14 f1 f5 bc 6c 4e 05 be d5 4a 14 3e e2 9f 4b 3f
       -0.030022182 -0.13018197 0.14481671 0.79540837
000090 46 6b 32 3f a2 f7 b3 be fd 19 bd 3e 21 93 ea 3d
       0.69694936 -0.35149866 0.3693389 0.11453844
0000a0 df a2 5c 3f a1 ec 02 3f e4 de cd 3d 9c 0b 0d be
       0.8618602 0.5114232 0.10052279 -0.1377396
0000b0 9c 89 7b 3d 2c dd 88 be 74 d4 94 3d 88 61 f9 3d
       0.06141053 -0.2673124 0.07267085 0.12176806
0000c0 17 64 33 3f 2a 2a ba be
       0.700746 -0.36360294

fc2.weight f4 [10, 50]
000000 75 9d 28 be 89 b3 50 3d e6 9f f4 3e bb 6e a8 be
       -0.16466315 0.050952468 0.47778243 -0.3289698
000010 a0 a0 b3 3e 26 55 25 bd 8f ec 8f 3d 31 e1 dd 3c
       0.35083485 -0.040364407 0.07027542 0.027084919
000020 01 f5 c0 3e fb 91 d3 3e e4 be 85 bd e6 33 ac 3e
       0.37686923 0.41322312 -0.0653055 0.33633345
000030 92 66 34 bc bd d3 dc 3d d1 96 f8 bd f6 ec 04 bf
       -0.011010783 0.10782573 -0.12138141 -0.51924074
000040 64 bf f9 3c d9 e8 f5 3e 8b 0f a3 3b 6a 53 c1 3e
       0.03048677 0.4802921 0.004976218 0.37758952
000050 6b c4 c8 3e 46 cd be bd d6 f5 c3 be 49 64 b4 be
       0.39212355 -0.093164966 -0.38273495 -0.35232762
000060 e6 22 f0 bd c2 57 ad 3e 67 76 a2 3e 78 aa 01 bf
       -0.11725406 0.33856016 0.3173096 -0.5065074
000070 a8 7f fc be 70 bd 42 be ba 85 a0 be 72 bf 7e 3e
       -0.49316144 -0.19017577 -0.31352025 0.24877718
000080 8c 6d 80 3e 83 13 06 bf 19 b6 ec be a0 60 df be
       0.25083578 -0.5237352 -0.4623268 -0.43628407
000090 46 57 90 be 47 fc 47 bd d1 61 c3 bd fd 8c 2e be
       -0.28191584 -0.048824575 -0.095401414 -0.1704597
0000a0 47 f8 23 be 32 1a 43 be 8e a8 c3 be c8 87 02 bf
       -0.16012679 -0.19052961 -0.38214535 -0.50988436
0000b0 cc 58 a7 3e c7 85 69 be b7 84 3a be 16 ad e6 be
       0.32684934 -0.22804938 -0.18214689 -0.4505393
0000c0 ee 01 b8 be 73 54 12 be ef 27 e0 be 3f 47 45 3d
       -0.35938972 -0.14290027 -0.43780467 0.04816365
0000d0 8c 90 0f be dd f6 fb bd 3f 8a ab be 8a fd 32 3d
       -0.14019984 -0.12302945 -0.3350391 0.043698825
0000e0 ce f7 0c 3f 3b 05 bf be a3 3d c7 be cb f5 7c be
       0.5506562 -0.37308678 -0.38914213 -0.24703138
0000f0 5c f0 0b bf 88 de d1 be ed 54 b9 3e 8b af 00 3f
       -0.54663634 -0.4099009 0.36197606 0.5026786
000100 3f ac ee be 5f 35 b3 3e fa 31 ee bd 6e 80 09 bf
       -0.46615788 0.35001656 -0.11630626 -0.53711593
000110 d8 ec 88 be ae 67 8a be 10 21 5e be c2 87 80 be
       -0.26743197 -0.27032226 -0.216923 -0.25103575
000120 3e 93 a8 3e a5 3c aa be 74 d0 b3 be 3c 1f 1e bf
       0.32924837 -0.33249393 -0.35119975 -0.6176641
000130 51 ea 8d bd 9a 09 03 3f 8e d0 3b be 90 6f 8e be
       -0.06929458 0.51186526 -0.18341276 -0.2781949
000140 f4 ee 8e be a7 1d b0 3e 95 f4 34 bf 1e ad ad be
       -0.27916682 0.34397623 -0.706857 -0.3392114
000150 92 69 27 3e 10 fa e7 3e 21 63 cd 3e f2 ef f9 be
       0.16348866 0.4530797 0.40114692 -0.48815876
000160 04 88 70 3e b9 5e a1 be 93 8b 84 3e 23 97 7f 3e
       0.23489386 -0.3151758 0.25887737 0.24959998
000170 70 fa a4 bc b4 2f e7 be 98 c4 db be a8 ee 44 be
       -0.02013895 -0.45153582 -0.42923427 -0.19231665
000180 b8 e2 81 bd 98 dd 40 3e e6 7f d0 3e b7 7d 97 be
       -0.06342071 0.18834531 0.4072258 -0.295881
000190 11 e0 b4 3e 4d a4 a5 3e 20 33 83 3e 57 ab d9 3d
       0.353272 0.32351914 0.25624943 0.106283836
0001a0 b7 e5 59 be d2 c0 c7 3e 00 3f 24 3e ee a7 a4 3d
       -0.21279036 0.39014298 0.16039658 0.080398425
0001b0 99 da 21 3c 4c e3 8d 3e 93 71 b1 be 50 a4 7f be
       0.009878778 0.27712476 -0.34656963 -0.24965024
0001c0 48 75 b8 3e 86 5f 83 bd 6e e1 5d bd 2e 24 1e 3d
       0.36026978 -0.06414704 -0.054170065 0.038608722
0001d0 5b 54 a2 bc 6c 7c 7b be 42 95 d6 bd e6 e0 e7 bd
       -0.019815614 -0.24559182 -0.104776874 -0.11322193
0001e0 ea 32 bb 3e ab c1 9c 3e 06 f5 4d 3e 10 cb be bd
       0.36562282 0.30616507 0.20113 -0.09316075
0001f0 3e f4 10 3e ce e9 4e be dc 5c d7 3e 43 6a 91 3d
       0.14155671 -0.20206377 0.42063034 0.07100346
000200 5f 15 39 bd b6 1a b0 3d 9c f0 e3 3d 81 06 ce bd
       -0.045186397 0.08598845 0.11129877 -0.10059834
000210 7a 8c 6e bd 98 b3 f0 3d dd ff 99 3d e1 9f e2 bd
       -0.058239438 0.11753005 0.07519505 -0.11065651
000220 9d 2f ca 3e fb 05 61 3e 46 88 a0 be 37 95 07 be
       0.3948945 0.21974938 -0.31353968 -0.13240515
000230 f6 9c 1f be d5 a6 da 3e ad a1 8f 3e 43 8d 8f be
       -0.1558722 0.42705408 0.28053036 -0.28037462
000240 5d 86 86 be 96 eb be 3e 2f 29 8f bd ab 31 04 3f
       -0.26274386 0.37289113 -0.06990277 0.5163829
000250 2e c7 9b be ca af 4f bc e7 63 80 3e aa 0d cc bd
       -0.304254 -0.012676189 0.2507622 -0.09963544
000260 49 5f 11 be 32 85 9c 3e 46 e0 c0 be e4 3f d1 bc
       -0.14196505 0.3057037 -0.37671107 -0.02554316
000270 47 34 ac be 3f b1 43 be 5e 53 2a 3e 93 42 4b be
       -0.33633634 -0.19110583 0.16633365 -0.19849615
000280 6a d9 bf be 37 d5 00 be d8 1d 37 bc d8 af f1 be
       -0.3747056 -0.12581335 -0.011176549 -0.4720447
000290 9a bb b0 3d ad e9 c7 3e 17 e3 9d be 82 b0 98 bc
       0.08629532 0.39045468 -0.30837318 -0.018638853
0002a0 7f 48 8c bd ea e2 ce be 66 35 5e 3e 22 7c 5b be
       -0.06849765 -0.40407497 0.21700057 -0.21434072
0002b0 98 f0 6a bc 85 40 95 3e ff 3f 94 3c 9a d2 68 be
       -0.014339589 0.29150787 0.018096922 -0.22736588
0002c0 0f e1 a5 be d0 78 fb bd 00 b7 ce 3e 7b e7 07 3f
       -0.3239827 -0.122789025 0.40373993 0.53087586
0002d0 94 6d d3 bd 8b 7d b2 be d7 f3 8a 3e 23 5a a6 3e
       -0.10323635 -0.34861407 0.2713916 0.32490644
0002e0 a9 b6 0d 3f a4 bc 05 be 95 24 14 be 23 c4 7f 3e
       0.5535684 -0.13060242 -0.1446708 0.24977164
0002f0 62 40 93 bd 7c 74 8f be af 2d 3d be c2 b0 4a 3d
       -0.071900144 -0.28018558 -0.18474458 0.049484976
000300 d9 2f 03 3f 0f 7c 97 bd 34 41 0a 3e 9b 56 29 3e
       0.51244885 -0.07396709 0.13501436 0.16536944
000310 85 62 27 bd 8e 5f df 3e db 13 14 bf d0 ad 56 bd
       -0.04086544 0.4362759 -0.578428 -0.052411854
000320 47 42 db bd 51 ef b6 bd 9c 7f b9 ba e0 78 9c be
       -0.10706001 -0.08932365 -0.001415241 -0.3056097
000330 42 a3 51 be 75 fd f5 bd 0a ec ea bc 41 c5 87 3e
       -0.20472434 -0.12011234 -0.028677005 0.2651768
000340 c0 76 b8 3d b1 fc ab 3d a9 de 06 3f 0f 4b 80 be
       0.09007025 0.083978064 0.526835 -0.25057265
000350 07 a9 a4 3c f3 60 f1 3c c8 43 6a bd 11 50 70 bd
       0.02010013 0.029465174 -0.057193547 -0.058670107
000360 e3 2e c2 3e ce db e3 be ef 16 68 3d 67 40 27 be
       0.37926397 -0.44503635 0.056662496 -0.16333161
000370 48 87 b7 bd ca 27 f2 3e 7e 3e 08 3e 74 fb 14 3e
       -0.0896135 0.47295982 0.13305089 0.14549047
000380 af bc 35 be 69 10 94 3c be 90 49 bd 49 30 bc 3e
       -0.17747758 0.018074231 -0.049210303 0.3675559
000390 9e 3f 85 3e dd 68 9f be f8 59 14 3f 91 63 59 bd
       0.260251 -0.31134692 0.5794978 -0.05307347
0003a0 7d 5b cf bc d3 fe 43 bd 68 8b 59 be ce 12 23 3e
       -0.02531218 -0.04785044 -0.21244586 0.15925142
0003b0 f7 1b 9a 3e 4c 6b 59 be e5 a7 5b be 60 56 27 3f
       0.3009946 -0.21232337 -0.21450765 0.6536617
0003c0 f3 36 9b bd 71 6b 9a be d1 25 39 bd f1 bb f0 3e
       -0.0757884 -0.30160096 -0.04520208 0.47018388
0003d0 6b bb 46 be 61 1f 9e be 34 a9 9d 3d d8 56 e5 be
       -0.19407432 -0.30883315 0.076982886 -0.4479282
0003e0 62 39 e1 3e 59 4a 61 be bc cc 49 bc 70 d4 8f be
       0.43989092 -0.22001018 -0.012316879 -0.28091764
0003f0 7c 44 81 be 11 d3 4d be 7a bd 10 3e 28 94 a9 be
       -0.25247562 -0.20100047 0.1413478 -0.33120847

fc2.bias f4 [10]
000000 05 72 98 3e 04 91 2b 3f df 27 8e be 02 e1 c6 3e
       0.2977449 0.6701815 -0.27764794 0.38843542
000010 65 d9 52 3d c6 1d d2 be ed 28 86 bf 1b 84 07 bf
       0.051476855 -0.4103834 -1.048124 -0.5293595
000020 3c 5f db 3e 44 4b 37 bd
       0.42846096 -0.044749513

momentum_buffer f4 [10, 1, 5, 5]
000000 a7 d5 24 3d f9 fe 0c 3d 21 bc 9e 3c b1 4e ba bc
       0.040242817 0.03442285 0.019376816 -0.022742601
000010 99 d3 c5 bc 18 8b 29 3d 36 59 ac 3c f4 bc e2 bc
       -0.02414875 0.041392416 0.021038633 -0.02767799
000020 12 44 68 bd 5a c8 8b bc ed 46 fa 3c b4 ef 91 bc
       -0.056705542 -0.017063309 0.030551398 -0.017814495
000030 40 1c 8c bd ec 9c 18 bd fc bc a9 ba 41 16 17 bc
       -0.06841326 -0.037259027 -0.0012949998 -0.009221614
000040 be b8 6a bd 27 52 52 bd 6a 28 0f bc 24 4a 40 3a
       -0.05730509 -0.051347878 -0.008737663 0.00073352666
000050 6a bf 51 bd 6c 9b 91 bd d6 e8 c9 bc c0 02 01 3b
       -0.051207937 -0.071097225 -0.024647158 0.0019685477
000060 63 2d 8b 3c 3c a7 6a 3c 7a 12 1b 3d 32 1b 42 3d
       0.016989416 0.014322098 0.037859417 0.047389217
000070 30 73 fa 3c b0 6a 64 3b 28 73 08 3d fe 5a f4 3c
       0.030572504 0.003485363 0.033312947 0.029828545
000080 68 f2 b2 3c 0e 04 69 3c 00 af 7e bc 34 79 ae 3c
       0.021844104 0.014222158 -0.015544653 0.021298029
000090 fb 83 cd 3c 80 4f be 3c 78 33 dd ba 60 72 00 3a
       0.025087347 0.023231268 -0.0016876301 0.00048998557
0000a0 07 bf a1 3c 1c c3 18 3d 0b 29 b6 3c c4 74 e2 3b
       0.01974441 0.037295446 0.022236368 0.006910892
0000b0 41 72 00 3c d9 9f ad 3c 12 7e 8e 3c e7 67 15 ba
       0.00783974 0.021194385 0.0173941 -0.00056993816
0000c0 90 7c e3 3a 80 7d 8d 3b 11 f9 bb bb e7 dc 30 bb
       0.0017355848 0.0043179393 -0.005736478 -0.0026987137
0000d0 97 39 8f ba 8c 8f 97 b6 89 91 96 b9 b8 06 cc 3b
       -0.0010927197 -4.5168617e-06 -0.00028718662 0.006226387
0000e0 9f 19 82 bb 50 bf cb b8 84 4d 97 b5 b5 c1 dc b9
       -0.0039703394 -9.715429e-05 -1.1272937e-06 -0.00042105993
0000f0 70 1b b5 ba 74 b3 9d bb 06 cc 7d ba 72 3d fa b6
       -0.0013817381 -0.0048126522 -0.0009681586 -7.457734e-06
000100 0e 4e a5 ba 78 de b7 3a 97 0e a7 bb bc 2f f4 ba
       -0.0012611763 0.0014028093 -0.005098175 -0.0018629949
000110 05 1e 81 b9 80 88 15 bb c8 1f 94 3a 34 03 0b bb
       -0.00024627164 -0.0022816956 0.0011300975 -0.0021211626
000120 79 58 36 bb 77 b3 11 bb 0e 68 a1 bb 0d 8d bd bb
       -0.002782373 -0.0022232214 -0.0049257344 -0.005784637
000130 05 b0 4f 3b 76 f2 b6 3c 42 43 80 3c b4 fa 08 bc
       0.003169061 0.022332411 0.015657071 -0.0083605535
000140 12 cf 02 b9 34 17 20 ba 74 7f 98 bb 00 60 92 b7
       -0.00012474906 -0.0006106973 -0.0046538655 -1.744926e-05
000150 70 0f 05 3b bc e5 43 ba 79 7e d3 3a 80 6d 03 bc
       0.002030339 -0.0007472893 0.0016135714 -0.008021712
000160 40 ca 3e ba a8 79 0b 3c cc ca 8d bb 38 7c 4b 3b
       -0.00072780624 0.008512892 -0.004327154 0.0031049382
000170 8e 94 b1 bb c0 45 e6 3a 80 30 c7 ba 58 ea 3a bc
       -0.0054193204 0.0017568395 -0.0015196949 -0.011408411
000180 08 05 f4 3a f2 fc 8c bc d4 0c 59 3c 44 e7 2e 3c
       0.0018617222 -0.017210457 0.013247687 0.010675255
000190 86 3f 60 bb 18 7f 01 39 02 5a 71 bb 4e 30 3e bc
       -0.003421755 0.00012349745 -0.003682733 -0.011608196
0001a0 08 2a 92 bc 46 28 00 bc d4 04 2d 3a 31 73 7c 39
       -0.017842308 -0.007822102 0.0006600146 0.00024075505
0001b0 dc e7 e6 b9 00 2e 00 3a c3 af b3 bc 6a 5a 47 bc
       -0.00044041767 0.0004889667 -0.021934396 -0.0121675525
0001c0 e5 3a b8 bb 18 d8 1c 3b d1 1d 02 3c e2 79 c7 bc
       -0.005622255 0.0023932513 0.007941679 -0.02435011
0001d0 2f 48 03 bd 18 2e d3 bc 26 c2 b9 bc c6 ff 18 bd
       -0.03205126 -0.025778815 -0.022675585 -0.0373533
0001e0 0c 3b 58 bd 2c e1 53 bd 5d e7 07 bd b6 cc ec bc
       -0.052790686 -0.051728413 -0.03317963 -0.028906208
0001f0 30 b7 dc bc d2 27 13 3c 40 54 15 3b da dc 7e bc
       -0.02694282 0.008981662 0.0022785813 -0.015555585
000200 44 d3 ee bc 3a 70 d9 bc f8 bb 8c 3b 91 db d9 ba
       -0.029153474 -0.026542772 0.0042948686 -0.0016621222
000210 46 1b ae bb 22 25 3b bc 01 2a d2 bc f8 03 2e 3c
       -0.00531331 -0.011422427 -0.025654795 0.010621063
000220 6a d7 43 39 cd 6b 3c bb 60 72 76 3a 36 45 2f bc
       0.00018676897 -0.0028750778 0.00094011985 -0.0106976535
000230 b1 de 16 3c 22 82 20 3a cd d7 3e 39 e1 6e fb 3b
       0.009208367 0.0006122907 0.00018200204 0.00767313
000240 51 c0 27 bb db fe ac 3c cb 74 5f 3c 1c c7 88 3c
       -0.0025596807 0.021117618 0.013638685 0.016696505
000250 6b fc eb 3c 7d 03 52 3d d8 3e 38 3d f8 79 ae 3c
       0.028806886 0.051272858 0.044981807 0.021298394
000260 ee da 8d bc 1a 20 47 bd 19 be ff bc c4 a9 5c 3d
       -0.017316308 -0.0486146 -0.031218575 0.05387284
000270 d5 9b 83 3c 74 f7 81 bc 34 86 09 bd 5c 54 86 bb
       0.016065517 -0.015865065 -0.03357525 -0.004099412
000280 34 39 73 3c 31 03 ae bb c4 87 01 3c 26 82 17 3c
       0.014845181 -0.005310439 0.007905904 0.009247338
000290 62 8c 35 3d cf 4c 8a bc 2b 58 46 bc ee 25 64 bb
       0.044323333 -0.016882328 -0.012105982 -0.0034812647
0002a0 01 3a 90 3c 7c 8f 34 3d e5 84 25 bb cd a9 11 ba
       0.017605783 0.04408215 -0.0025256213 -0.00055566133
0002b0 ae 92 c7 39 8f 8d fc 3a 3b 01 3d 3c ce d6 d0 bc
       0.00038065523 0.0019268262 0.011535938 -0.025493052
0002c0 a6 4a a4 bc 1c b7 60 3c 1f 98 2a 3c 14 fc cc 3b
       -0.020055126 0.013715532 0.010412245 0.006255636
0002d0 18 90 09 bd df c2 87 bc c4 65 78 3c ce 04 a7 3a
       -0.033584684 -0.016572414 0.015160982 0.0012742521
0002e0 86 1a 53 bb a0 3e 8a bd 13 7f 9b bd 1b 61 20 bd
       -0.0032211854 -0.06750226 -0.07592597 -0.039155107
0002f0 ea 4a 07 bd ec cf 1b bd 17 e6 4b bd f0 1e a2 bd
       -0.033030428 -0.038040087 -0.049779978 -0.07916057
000300 a1 e1 a4 bd 30 73 8b bd da 38 69 bd a6 35 3e bd
       -0.08050848 -0.0680908 -0.056938984 -0.046437882
000310 79 19 5a bd 08 48 9d bd c6 9b 99 bd 20 78 2a bd
       -0.05324695 -0.076797545 -0.075004146 -0.041618466
000320 d0 6c 89 3c 07 ac 35 3c da 28 a9 3b ff c2 46 3b
       0.016775519 0.011088378 0.0051623406 0.003032863
000330 9f 4e b3 3b 9a d9 1c 3c 5d 2e 42 3b 08 15 4c 3a
       0.005472019 0.009573365 0.0029629685 0.00077851163
000340 92 94 81 ba 50 c7 14 bc 97 68 e5 3b 91 de 0d 3a
       -0.0009886196 -0.009080723 0.0070009935 0.0005411888
000350 f5 53 5c bb ee bc 34 bc 60 1b 95 39 2a 41 1d b9
       -0.0033619378 -0.0110313725 0.0002843989 -0.00014996962
000360 29 34 43 3a a8 c9 15 3a 48 c7 64 3c 78 f6 3c 3d
       0.0007446432 0.0005713948 0.013963528 0.04613349
000370 cd 00 36 3b 45 3f 62 3c c1 db 29 3d 09 d3 51 3d
       0.0027771473 0.01380903 0.04146934 0.05122665
000380 d1 68 92 3d 9a e5 5d 99 01 00 00 80 cc 6f e6 90
       0.071488984 -1.14718e-23 -1e-45 -9.0891254e-29
000390 8b ce f2 9a 86 ca 76 39 ba fa dd b3 f9 e1 ae 95
       -1.0042254e-22 0.00023535834 -1.0336721e-07 -7.063456e-26
0003a0 f2 e5 b7 a6 25 60 83 b3 7a b0 76 39 94 00 8d b4
       -1.2760503e-15 -6.1176515e-08 0.00023526131 -2.6263717e-07
0003b0 f4 94 5a b4 62 cc 42 b4 b0 4d 8b b4 37 a0 78 39
       -2.0357021e-07 -1.8142012e-07 -2.5947293e-07 0.00023710808
0003c0 42 74 e1 9a f7 00 0a 1a 02 de 0b 1a 22 eb ab 19
       -9.3245644e-23 2.853851e-23 2.8923863e-23 1.7775955e-23
0003d0 7d b2 2f 39 82 76 0b 9b b7 05 f0 96 3d 40 4f 93
       0.00016755793 -1.1536102e-22 -3.8777698e-25 -2.6158745e-27
0003e0 fc b4 40 93 e1 b8 fc 27
       -2.432304e-27 7.0144497e-15

momentum_buffer f4 [10]
000000 90 40 4a 3d 42 a6 d8 3c 8a db 4b 3c 80 83 30 3b
       0.049377978 0.026446465 0.012442479 0.002693385
000010 67 05 9d bd 4a bd 20 3d f2 90 8c 3d 88 50 ad bd
       -0.07667046 0.03924302 0.068635836 -0.08462626
000020 bb 5a 9c 3d ef 9f 78 39
       0.07634493 0.00023710703

momentum_buffer f4 [20, 10, 5, 5]
000000 54 4b 14 bb 15 77 30 bb 8c db 08 bb 78 4b 1b ba
       -0.0022627907 -0.0026926447 -0.0020882813 -0.00059240265
000010 c0 93 e0 ba 72 9a 88 bb ce 0a ac ba 23 17 0e 39
       -0.0017133877 -0.004168802 -0.0013125779 0.00013550794
000020 74 12 7c 39 44 57 a7 ba 2a 63 58 ba fe f6 c2 38
       0.00024039467 -0.0012767096 -0.00082545227 9.296647e-05
000030 8e 24 32 3b 70 b4 a5 b9 e6 f7 d0 b9 3f 61 b0 38
       0.0027182433 -0.0003160569 -0.0003985755 8.4104475e-05
000040 4b 21 a0 b9 c6 9d 74 3b ab c4 35 b9 36 f7 e0 b9
       -0.00030542383 0.0037325486 -0.0001733477 -0.00042908796
000050 0f 89 83 39 74 5f de b9 6e 27 a5 3a c5 2e 58 ba
       0.00025088384 -0.00042414258 0.0012600252 -0.00082467153
000060 20 d6 85 37 09 ee 22 bb 06 31 c0 ba 96 45 11 b6
       1.5954545e-05 -0.0024861118 -0.0014663048 -2.1647188e-06
000070 2b 3d 92 39 e5 29 4f b8 4e 2c 6a ba b2 cc 17 b5
       0.00027892864 -4.9391663e-05 -0.00089329935 -5.6549754e-07
000080 d0 a1 06 3a 6a 93 e5 b9 3e 4d 8a 38 7f 0d 30 37
       0.0005135806 -0.00043788116 6.59474e-05 1.049356e-05
000090 bf 57 42 ba 12 a9 89 3a b8 3e 9b b8 95 19 21 b8
       -0.0007413588 0.0010502657 -7.402658e-05 -3.8409216e-05
0000a0 0d 8c e7 3a 67 ef 59 3b bd a8 da 3a 1a e9 82 b8
       0.001766564 0.0033254267 0.0016682368 -6.2423016e-05
0000b0 16 bc 0c b9 2b 34 b8 39 d6 0c f2 39 79 6a a8 b9
       -0.00013421508 0.00035134083 0.000461674 -0.00032122785
0000c0 39 42 b1 37 bd a3 40 3a 1c ec 29 38 22 65 ee b8
       2.1130882e-05 0.00073486177 4.0512634e-05 -0.00011367562
0000d0 13 3a 25 b8 bc e9 cf 36 0c fa ef b8 a7 5f af 37
       -3.939315e-05 6.196291e-06 -0.00011442983 2.0906167e-05
0000e0 d3 47 0c b9 1e c3 3e 39 a6 ae 01 3a 34 84 55 b5
       -0.00013378197 0.00018192499 0.0004946984 -7.9541064e-07
0000f0 57 e9 82 b7 3b fb cf b9 05 67 bc 37 9a 92 b0 3a
       -1.5605865e-05 -0.00039669298 2.2459319e-05 0.0013471425
000100 e6 bc 62 39 f3 3e f5 35 4c 9d 89 ba 9f 4e ce ba
       0.0002162341 1.8272243e-06 -0.0010499149 -0.0015739984
000110 24 fe f4 b9 2c 60 95 b9 06 87 f0 34 33 a4 eb 36
       -0.00046728656 -0.00028491148 4.4801726e-07 7.022661e-06
000120 01 f7 69 b9 6d d2 84 ba 02 41 91 b9 e6 8c 10 38
       -0.00022312628 -0.0010133513 -0.0002770499 3.4463497e-05
000130 15 7b 0a 39 7c 55 fb 37 4f 5f 51 b9 04 3f ad 3a
       0.00013206557 2.9961338e-05 -0.00019967298 0.0013217633
000140 3f 69 55 37 29 7b 93 35 0c 85 26 39 35 47 51 b9
       1.2720294e-05 1.0988198e-06 0.00015880557 -0.0001995832
000150 bd 48 a1 39 9b 13 22 37 cf f1 d3 34 66 d3 cf b8
       0.00030762507 9.660517e-06 3.9477752e-07 -9.909905e-05
000160 b6 f4 e8 b8 e4 ef 2b 3a 1d 53 59 33 99 e3 75 ae
       -0.00011108203 0.0006558879 5.059984e-08 -5.5908698e-11
000170 0d a2 9a b8 a4 47 d5 b6 39 c7 04 39 04 0b 1b b5
       -7.3734765e-05 -6.3562347e-06 0.00012662717 -5.775803e-07
000180 ae 44 9a 35 1c b4 4c b9 10 e1 9d b5 94 5a 8e 39
       1.1493883e-06 -0.00019522052 -1.1762913e-06 0.00027151837
000190 c1 8f df b6 71 93 c3 38 07 f0 e2 b7 62 3c bb 37
       -6.662653e-06 9.325788e-05 -2.705307e-05 2.2320255e-05
0001a0 c4 20 36 3a b0 75 ca 36 2b 7b 89 38 09 90 5a 3a
       0.00069476315 6.0337698e-06 6.555611e-05 0.0008337503
0001b0 69 3c 64 39 8a 71 06 39 ec 82 78 b9 51 cf 58 bb
       0.00021766279 0.00012821532 -0.00023699895 -0.0033082555
0001c0 0c 99 3a bb b8 15 06 bb a8 ca 84 ba f6 67 4f ba
       -0.002847257 -0.0020459723 -0.0010131197 -0.0007911915
0001d0 54 09 b3 ba 36 cc 7e ba 84 60 2b 3a 09 39 e0 3a
       -0.0013659396 -0.0009719761 0.0006537514 0.0017106842
0001e0 11 07 6b b5 4c 41 50 37 8a 44 b3 39 e1 a4 1f b9
       -8.7554605e-07 1.2412969e-05 0.00034192606 -0.00015224844
0001f0 b2 cb 6e 38 32 38 5f 38 52 8d 1f ba 64 c0 5c bb
       5.6933328e-05 5.321968e-05 -0.0006086427 -0.003368401
000200 76 72 18 bb 8e a4 a8 39 5f a6 75 39 58 4f d0 38
       -0.0023261583 0.0003216606 0.00023426999 9.932992e-05
000210 a3 3b f4 ba 70 fa 0e ba 62 82 0a 3b 39 88 72 39
       -0.0018633496 -0.0005454188 0.0021134843 0.00023129665
000220 11 a8 ab 3a 36 4a 83 ba 82 89 c4 ba 8c 35 98 3a
       0.0013096352 -0.0010016623 -0.0014994594 0.0011612638
000230 33 b9 e3 b7 02 c5 8c 39 fa 36 12 3a 56 47 4f 39
       -2.7146749e-05 0.00026849663 0.000557765 0.00019767633
000240 74 8d eb 38 37 1c 78 39 b2 02 30 ba cc 1f 4d 3a
       0.00011232021 0.00023661634 -0.0006714269 0.00078248675
000250 fd 1a ed 39 25 ad 19 3a ba 00 9d 39 d4 27 23 ba
       0.0004522427 0.00058622874 0.00029945915 -0.00062238914
000260 a3 d6 d6 ba 44 45 da b9 f2 2e 06 bb 4b 86 87 3a
       -0.0016390871 -0.00041631807 -0.002047476 0.0010339705
000270 2a c2 d0 b9 98 c1 f2 39 d0 16 55 ba a8 e9 c6 b9
       -0.00039817515 0.00046302075 -0.00081287045 -0.0003793959
000280 05 19 f7 39 f2 a4 b1 39 88 c5 48 b8 bc d6 e8 38
       0.00047130152 0.00033882965 -4.786768e-05 0.000111026195
000290 0e 35 99 ba c4 c9 d1 39 4f 17 22 3a 90 86 24 3a
       -0.0011688785 0.00040013914 0.0006183283 0.0006276155
0002a0 ca 86 aa b8 39 87 2b b8 60 81 9d 38 ea d6 1e 3a
       -8.131338e-05 -4.0895513e-05 7.510441e-05 0.00060592464
0002b0 71 85 35 3a 32 d2 b1 b9 d4 1d cd 39 39 c5 3b 38
       0.00069244864 -0.00033916679 0.0003912287 4.4767952e-05
0002c0 a6 b2 d8 b2 6b 66 2a 34 ac b9 3e ba 75 ad 9a 39
       -2.522695e-08 1.5869743e-07 -0.0007275592 0.00029502405
0002d0 6f ce 26 39 3f 4a 4b 38 51 18 9f 39 b2 1b a8 38
       0.00015907896 4.846812e-05 0.0003034496 8.016023e-05
0002e0 fd df 6b b8 1a 67 fe 38 46 ab 0a ba b2 40 b9 37
       -5.623697e-05 0.00012130868 -0.0005289804 2.2083845e-05
0002f0 a4 58 dd 39 40 5f 0b b6 9c 48 f0 b9 60 04 c6 b9
       0.00042218447 -2.0768057e-06 -0.00045830465 -0.00037768763
000300 a5 60 5d ba 4a 78 07 ba d6 29 3c 3a 81 a0 86 b8
       -0.0008444882 -0.0005167766 0.0007177865 -6.419514e-05
000310 f5 65 9c b9 8f f3 ee b8 4c e8 3f 38 0e a4 93 38
       -0.00029830603 -0.00011394091 4.5754292e-05 7.040064e-05
000320 8f 6e 4f 39 e0 02 5d 3a e7 c4 64 ba b5 44 95 b8
       0.00019782245 0.00084309094 -0.00087268505 -7.117671e-05
000330 a3 aa 83 37 86 c4 49 36 4c e5 26 39 9d 97 78 37
       1.5695876e-05 3.0065726e-06 0.00015916413 1.4817252e-05
000340 8a e8 3e 39 6f 3e 0d 38 48 8a 2c 39 35 a1 9f b9
       0.0001820644 3.3675165e-05 0.00016454712 -0.00030446952
000350 c2 99 50 ba a0 ea e6 39 4e 6d 73 3b b2 5e 20 3a
       -0.0007957482 0.00044043828 0.0037144008 0.00061176263
000360 f9 10 35 ba ff a7 02 ba 5e 0c 5e 3b a8 06 7b 3b
       -0.0006907131 -0.000498414 0.0033881883 0.0038303528
000370 0e bc c1 38 26 42 8d 3a dd 04 82 3a 84 8a 96 3b
       9.237985e-05 0.001077716 0.0009919662 0.004594149
000380 a7 5b 53 3b d0 8f 98 17 bd 5a 13 a5 8d 1c c3 95
       0.0032250674 9.859073e-25 -1.2780961e-16 -7.880492e-26
000390 01 00 00 00 4e 90 a2 8e 06 eb 4b 99 e3 f7 89 8e
       1e-45 -4.0075044e-30 -1.0542317e-23 -3.4011814e-30
0003a0 01 00 00 00 e0 d1 29 0d 01 00 00 00 01 00 00 00
       1e-45 5.2329774e-31 1e-45 1e-45
0003b0 01 00 00 00 01 00 00 00 01 00 00 80 01 00 00 00
       1e-45 1e-45 -1e-45 1e-45
0003c0 01 00 00 00 01 00 00 80 01 00 00 80 18 b1 32 9a
       1e-45 -1e-45 -1e-45 -3.6952592e-23
0003d0 01 00 00 80 92 9f cf 33 0b 00 00 80 25 2a 1a 17
       -1e-45 9.668214e-08 -1.5e-44 4.981328e-25
0003e0 80 a4 a9 17 2c 50 c5 aa 39 f7 10 39 7e 8d 92 b5
       1.0962895e-24 -3.504986e-13 0.00013825008 -1.0919027e-06
0003f0 1b 42 d4 b8 6c 32 ee ba 65 13 4f bc aa 4c c4 38
       -0.00010121261 -0.0018172986 -0.012638901 9.360288e-05

momentum_buffer f4 [20]
000000 49 46 8c b9 22 9e 29 bc 9d fb d2 3b 58 b4 5f bd
       -0.00026755247 -0.010352643 0.006438686 -0.05461535
000010 56 1f 8d bd a6 fd 2a bc 71 f1 2d 3c 61 6b 84 3c
       -0.068907425 -0.010436451 0.010616646 0.016164484
000020 77 e1 ae bb 8c 85 99 bb d8 b3 e2 bb e8 b6 63 bd
       -0.005336936 -0.0046851095 -0.0069184117 -0.055594355
000030 e2 73 03 3d d0 57 36 3c 8e 79 52 bc 4e af 05 3c
       0.032092936 0.011129335 -0.012846364 0.008159472
000040 39 3a 41 3c c4 eb 6c bd b8 01 96 bb f7 14 63 3b
       0.0117936665 -0.05784203 -0.0045778416 0.0034649947
