checkpoints/task-007.pth (torch, 179983 bytes, 16 tensors)

conv1.weight f4 [10, 1, 5, 5]
0.27753955 0.2928461 -0.012745683 -0.16354294 0.018738603 0.24678962 -0.038780365 0.022201765
-0.17256488 -0.006330531 0.335797 -0.06434496 -0.19295089 -0.12549467 0.061545573 -0.12884592
-0.19834906 -0.1403217 -0.10753645 -0.18151027 -0.16808134 -0.05138007 -0.03619412 -0.22663133
-0.033952966 -0.22559978 -0.026472552 0.0044825156 -0.022555303 0.30808192 0.011247259 -0.051065043
-0.19378221 -0.13270845 0.03819596 0.09276363 -0.15519872 -0.22892569 -0.17546678 -0.20350173
-0.08203777 0.2729377 0.06236577 -0.07970522 -0.21095502 -0.10176752 0.14569382 0.24850078
-0.028791431 0.039554738 -0.27706277 -0.364341 -0.25058416 0.056433037 0.1223114 -0.31754193
-0.3193229 -0.27584776 0.09532314 0.46165758 -0.1320577 -0.08868245 -0.21665324 0.17135467
0.51241446 -0.22016466 -0.26469758 -0.108730175 0.4100703 0.19280905 -0.12553987 -0.18682322
0.11967075 0.4308903 0.37271595 0.21167146 -0.1616175 0.19962598 0.11262749 -0.019644776
0.07540375 -0.16703548 0.17548609 0.34423432 -0.069756165 -0.111898415 0.09939497 0.37977058
0.15396935 0.09828884 0.072214924 0.22148821 0.24107604 0.049639273 -0.05678325 -0.04747562
0.1298026 -0.059212293 -0.17596048 -0.18850027 -0.103330575 -0.00920351 0.1923416 -0.26119903
-0.2560249 -0.011813871 0.002323727 -0.043608293 -0.11083986 -0.2517988 -0.18792091 0.22764322
0.29168096 0.20496598 0.20867684 0.22083822 0.12755033 0.24193609 0.35133868 0.15959403
0.10623606 0.27905303 0.18779588 0.32531074 0.1266476 0.35293266 0.26084933 0.1617133
-0.13328752 -0.19481687 0.4012043 0.44072127 -0.028345138 -0.2723792 -0.5049052 0.37108123
0.53558475 0.2134119 -0.16162264 -0.4110046 0.037897553 0.47172487 0.46187088 0.26864776
0.25356182 -0.07987446 0.08437949 0.24794957 0.22694065 0.3511998 0.046491038 -0.009657941
0.14034805 -0.009643861 -0.308468 0.15320379 0.27306473 0.29684204 0.19003288 0.11751374
0.09425478 -0.021108028 0.43912643 0.5716575 0.2263456 -0.03326931 -0.039270736 0.32858813
0.25223386 0.38685548 0.010070868 -0.33740008 -0.1619355 0.10942578 0.17685494 0.107008636
-0.0669731 -0.112256646 0.019174872 0.00549427 0.049550902 -0.1889469 0.11082278 0.08385024
-0.092408806 -0.16865851 -0.10799989 -0.084130876 -0.063818164 -0.13783662 -0.17281573 -0.1191722
0.16632465 -0.19286552 -0.0905216 0.11831198 -0.11363471 0.10620409 -0.18637568 -0.103121854
-0.22748101 -0.06817214 0.10512763 0.1541025 0.3482225 -0.2656158 -0.23911156 -0.10360667
0.37610513 0.32746667 0.13941115 0.04823071 0.4302198 0.3874702 0.048067056 0.34398824
0.37273023 0.33372283 0.47737634 0.25288826 0.14715865 0.018654414 0.13305268 0.042108335
0.15552354 -0.009133647 0.43687615 0.5239604 0.57471913 0.42021185 0.30784807 0.09853755
0.15452877 0.36975193 0.41751516 -0.30141664 -0.16351756 -0.37345916 -0.11912891 -0.13937113
-0.37810215 -0.25150225 -0.25032362 -0.4297948 -0.04637825 -0.28849748 -0.26710755 -0.27976507
-0.35068545 -0.20036252
00000000: aa19 8e3e edef 953e 45d3 50bc cd77 27be
00000010: b381 993c 6bb6 7c3e 29d8 1ebd 7ae0 b53c
00000020: d9b4 30be 5870 cfbb 96ed ab3e 4ac7 83bd
00000030: eb94 45be ad81 00be 3617 7c3d 2ff0 03be
00000040: 041c 4bbe 7eb0 0fbe 123c dcbd d4dd 39be
00000050: 841d 2cbe e973 52bd 4940 14bd 0b12 68be
00000060: 4412 0bbd a103 67be f7dc d8bc 11e2 923b
00000070: e6c5 b8bc eabc 9d3e 6c46 383c 9429 51bd
00000080: d86e 46be b9e4 07be 5e73 1c3d dcfa bd3d
00000090: 6aec 1ebe 7f6b 6abe 90ad 33be c262 50be
000000a0: 6b03 a8bd 7dbe 8b3e 4073 7f3d 7e3c a3bd
000000b0: 9804 58be 7d6b d0bd c330 153e fd76 7e3e
000000c0: 02dc ebbc 2604 223d 2cdb 8dbe e78a babe
000000d0: 914c 80be 5426 673d 667e fa3d db94 a2be
000000e0: 4b7e a3be eb3b 8dbe c738 c33d 625e ec3e
000000f0: 223a 07be 259f b5bd 59da 5dbe 9977 2f3e
00000100: 982d 033f d872 61be 7186 87be edad debd
00000110: bcf4 d13e bc6f 453e 868d 00be 964e 3fbe
00000120: f015 f53d a79d dc3e a0d4 be3e 67c0 583e
00000130: 0f7f 25be c16a 4c3e 3ea9 e63d 15ee a0bc
00000140: 486d 9a3d 590b 2bbe a0b2 333e 7b3f b03e
00000150: 52dc 8ebd ff2a e5bd 978f cb3d 4a71 c23e
00000160: 24aa 1d3e a94b c93d 6be5 933d cecd 623e
00000170: a3dc 763e 8d52 4b3d 8e95 68bd cc75 42bd
00000180: f9ea 043e 9788 72bd fc2e 34be 3706 41be
00000190: fb9e d3bd 52ca 16bc 32f5 443e e1bb 85be
000001a0: b215 83be f78e 41bc ab49 183b 9c9e 32bd
000001b0: 0200 e3bd c6eb 80be 576e 40be 4e1b 693e
000001c0: 3557 953e 9ae2 513e 62af 553e 6a23 623e
000001d0: 8e9c 023e 18be 773e aae2 b33e 9e6c 233e
000001e0: 4b92 d93d 0ae0 8e3e 904d 403e 218f a63e
000001f0: e9af 013e 97b3 b43e 0b8e 853e 2c98 253e
00000200: 867c 08be 137e 47be a66a cd3e 38a6 e13e
00000210: 1034 e8bc 4975 8bbe 7841 01bf 5cfe bd3e
00000220: 151c 093f a688 5a3e 6880 25be 326f d2be
00000230: 773a 1b3d ec85 f13e 577a ec3e 338c 893e
00000240: dbd2 813e 3995 a3bd 27cf ac3d 7ee6 7d3e
00000250: 2163 683e 76d0 b33e 636d 3e3d 573c 1ebc
00000260: 66b7 0f3e 4901 1ebc 85ef 9dbe 74e1 1c3e
00000270: 24cf 8b3e aefb 973e fb97 423e 0bab f03d
00000280: a608 c13d beea acbc 2ed5 e03e 2558 123f
00000290: 24c7 673e 6645 08bd 5ada 20bd b43c a83e
000002a0: cc24 813e ec11 c63e 4800 253c b4bf acbe
000002b0: 6bd2 25be a01a e03d 7619 353e 5827 db3d
000002c0: 3129 89bd d0e6 e5bd 9f14 9d3c 4709 b43b
000002d0: e3f5 4a3d 4c7b 41be 0ef7 e23d adb9 ab3d
000002e0: d440 bdbd d1b4 2cbe 0c2f ddbd cf4c acbd
000002f0: 19b3 82bd 0b25 0dbe 9bf6 30be 8e10 f4bd
00000300: 0251 2a3e 8a7e 45be 6363 b9bd 8d4d f23d
00000310: 51b9 e8bd 8881 d93d 44d9 3ebe 8d31 d3bd
00000320: c8f0 68be d69d 8bbd 284d d73d 0ccd 1d3e
00000330: 384a b23e cbfe 87be a9d9 74be bc2f d4bd
00000340: da90 c03e b6a9 a73e ccc1 0e3e 918d 453d
00000350: c545 dc3e 7e62 c63e f6e1 443d 3a1f b03e
00000360: 7fd6 be3e b8dd aa3e ac6a f43e 927a 813e
00000370: c2b0 163e 24d1 983c f63e 083e ca79 2c3d
00000380: 9041 1f3e 4ba5 15bc 3bae df3e 4522 063f
00000390: cb20 133f 0226 d73e 439e 9d3e 0ece c93d
000003a0: ca3c 1e3e 2050 bd3e 8cc4 d53e 4853 9abe
000003b0: 2671 27be 0a36 bfbe dcf9 f3bd 4eb7 0ebe
000003c0: 9b96 c1be e7c4 80be 6b2a 80be 100e dcbe
000003d0: 1ff7 3dbd f1b5 93be 52c2 88be 5e3d 8fbe
000003e0: 0b8d b3be d52b 4dbe

conv1.bias f4 [10]
0.035744276 0.14332639 -0.11285593 -0.039310645 -0.00083814544 -0.019739687 -0.010624595 -0.14701185
-0.025454408 0.14841235
00000000: 9768 123d 27c4 123e 0321 e7bd 3304 21bd
00000010: fdb6 5bba 20b5 a1bc c812 2ebc 468a 16be
00000020: c385 d0bc 68f9 173e

conv2.weight f4 [20, 10, 5, 5]
-0.0038944443 0.0034475632 0.05160759 0.0813209 0.049606923 -0.061757375 -0.02678635 -0.0073844544
0.027153024 -0.012300923 0.057195384 0.0024163951 0.029677993 0.03397133 -0.0010816837 -0.040821634
0.03104613 0.039118886 0.015190318 0.00034863848 -0.016898103 -0.07723791 -0.034234416 0.049017962
0.040268324 0.058488317 -0.028080715 -0.06140208 -0.034812316 0.06763107 0.017269438 -0.033239037
0.008110187 0.00039912417 0.08384305 0.07149553 0.029080087 0.04782403 0.025661893 0.0393175
0.024193147 -0.026942482 -0.0132776555 0.0014305317 0.011555141 0.043306354 0.016130498 -0.051435493
-0.062805586 0.012904209 0.10635053 0.04422368 0.087892495 0.051702347 -0.019965023 0.08334358
-0.01140231 -0.045772158 -0.020254068 -0.040855344 -0.04066893 -0.059697527 -0.0975649 -0.01071159
0.020985924 -0.07828676 0.009361294 -0.04617251 0.061294153 0.048583306 -0.025141535 0.052319087
0.044037886 -0.044877563 -0.053301204 -0.08723166 -0.034924358 0.0568019 -0.022647373 -0.013411397
-0.04442522 -0.008417194 -0.030516027 -0.06960894 -0.026978325 -0.023358125 -0.049200557 -0.065464474
-0.016620314 -0.058256518 0.012690315 -0.10188918 0.039289467 -0.012849621 0.016026765 0.0190126
0.12747748 0.058672097 0.07413804 -0.027215483 -0.020856358 0.025947548 0.075846605 -0.06521709
-0.015450342 0.008088405 0.072389625 -0.010457131 -0.03482294 -0.092842534 -0.08582202 -0.036016494
-0.023224112 0.023354236 0.055053875 0.0631339 0.016270088 -0.02534222 0.021014623 -0.0018301964
0.12635297 0.1535457 0.09133697 0.03834665 -0.09950815 -0.08191195 0.010177058 -0.033092275
-0.036012504 -0.04276795 -0.10153123 0.04331073 0.08478114 -0.011389878 -0.036358207 -0.10731305
-0.08894266 -0.075790554 -0.00023240874 0.008008446 0.015095239 -0.044294424 -0.15570219 -0.10915109
0.042045385 0.107821 0.10919405 -0.020229727 0.02435393 -0.0050987364 -0.077136315 0.016216688
0.035052713 -0.0018127576 -0.111030646 -0.020106323 0.08939528 -0.035280146 -0.097641364 -0.049285594
-0.09900476 -0.099894114 0.019241096 -0.0135187665 0.062891304 -0.094305776 -0.052163277 -0.10760126
0.021457842 0.10904161 0.07587805 0.08116243 0.11926537 0.07573731 -0.0050736675 -0.022296684
-0.061495874 -0.029305575 0.059378102 0.0275566 0.024089731 0.05502463 0.05164057 -0.052951198
0.011175468 -0.062396295 -0.056271866 -0.06148985 0.056199666 -0.012713295 0.028956372 0.026425658
-0.036140252 0.033267744 -0.039678432 0.027161987 0.004826757 -0.03211426 -0.044806127 0.010614992
-0.04748586 -0.019224474 0.036364887 0.056737084 -0.023050265 0.02469171 0.07673502 0.081347294
-0.029798377 -0.0924311 -0.08174581 -0.1931929 -0.08000961 -0.03065387 -0.0668509 0.017700339
-0.03356809 0.00977814 0.055792715 0.028802833 0.14067324 0.12824939 0.11901661 0.10572146
-0.0009248239 -0.034194067 -0.08293759 0.05792424 0.0017995918 0.1156575 -0.00037066216 0.046788882
0.09271802 0.010051213 0.018387621 0.056947883 0.07654986 0.10445039 -0.032610334 -0.050235614
0.045258295 -0.050802328 -0.078589365 -0.05386629 0.02409237 -0.08023115 -0.07981825 -0.043069426
0.014461963 0.023748947 0.015781883 0.016281262 -0.038003393 -0.006705766 -0.02593171 -0.056220636
00000000: ef39 7fbb 83f0 613b 7b62 533d 928b a63d
00000010: a130 4b3d 4df5 7cbd 0c6f dbbc 4bf9 f1bb
00000020: 0570 de3c cf89 49bc b545 6a3d 625c 1e3b
00000030: 431f f33c 8525 0b3d 48c7 8dba 9634 27bd
00000040: 7454 fe3c 203b 203d d0e0 783c 77c9 b639
00000050: e46d 8abc e92e 9ebd 6339 0cbd 0fc7 483d
00000060: 66f0 243d 7291 6f3d 8709 e6bc bf80 7bbd
00000070: 5c97 0ebd 2982 8a3d a378 8d3c a825 08bd
00000080: 97e0 043c 8a41 d139 e8b5 ab3d 406c 923d
00000090: 5d39 ee3c 21e3 433d e438 d23c 630b 213d
000000a0: b530 c63c 7bb6 dcbc 868a 59bc ae80 bb3a
000000b0: c651 3d3c 0162 313d 1b24 843c 06ae 52bd
000000c0: 37a0 80bd 2d6c 533c 4fce d93d e423 353d
000000d0: fb00 b43d d7c5 533d b08d a3bc 0ab0 aa3d
000000e0: c1d0 3abc 967b 3bbd dceb a5bc ef57 27bd
000000f0: 7794 26bd 6585 74bd 1bd0 c7bd aa7f 2fbc
00000100: acea ab3c cf54 a0bd 1d60 193c 631f 3dbd
00000110: 940f 7b3d 4aff 463d 9ff5 cdbc 8a4c 563d
00000120: 1261 343d 89d1 37bd 5d52 5abd 83a6 b2bd
00000130: d80c 0fbd 1ca9 683d fc86 b9bc 7abb 5bbc
00000140: 38f7 35bd 45e8 09bc bffc f9bc 228f 8ebd
00000150: a601 ddbc 8a59 bfbc 8686 49bd 3d12 86bd
00000160: 5327 88bc 639e 6ebd 0aeb 4f3c 46ab d0bd
00000170: feed 203d 3787 52bc 904a 833c 50c0 9b3c
00000180: 7589 023e 2752 703d afd5 973d 01f3 debc
00000190: f4da aabc f48f d43c 7755 9b3d 8a90 85bd
000001a0: 6e23 7dbc 3b85 043c 0341 943d 6354 2bbc
000001b0: 80a2 0ebd 3a24 bebd 75c3 afbd 0886 13bd
000001c0: 7e40 bebc 6251 bf3c 2c80 613d 594c 813d
000001d0: d948 853c 7d9a cfbc dc26 ac3c 33e3 efba
000001e0: ac62 013e 153b 1d3e e10e bb3d 6011 1d3d
000001f0: eeca cbbd 74c1 a7bd adbd 263c c48b 07bd
00000200: d981 13bd 722d 2fbd 9bef cfbd 9866 313d
00000210: bca1 ad3d 9c9c 3abc 58ec 14bd f2c6 dbbd
00000220: 9227 b6bd 1438 9bbd bfb2 73b9 db35 033c
00000230: 0552 773c 126e 35bd 6570 1fbe 9b8a dfbd
00000240: c837 2c3d 42d1 dc3d 21a1 df3d d0b8 a5bc
00000250: e581 c73c 4d13 a7bb a5f9 9dbd dcd8 843c
00000260: 6f93 0f3d 0d9a edba 0964 e3bd 04b6 a4bc
00000270: df14 b73d ea81 10bd 32f8 c7bd b1df 49bd
00000280: 02c3 cabd 4995 ccbd 819f 9d3c d17d 5dbc
00000290: 28cd 803d 6323 c1bd 29a9 55bd 0d5e dcbd
000002a0: 5bc8 af3c 3551 df3d f365 9b3d 7d38 a63d
000002b0: 6741 f43d 2a1c 9b3d 0241 a6bb 89a7 b6bc
000002c0: 19e3 7bbd 3f12 f0bc 7436 733d 61be e13c
000002d0: d457 c53c 8261 613d 1085 533d 5be3 58bd
000002e0: 4f19 373c 4293 7fbd 547d 66bd c8dc 7bbd
000002f0: 9f31 663d 6d4b 50bc ea35 ed3c 9f7a d83c
00000300: cd07 14bd c243 083d da85 22bd d182 de3c
00000310: c629 9e3b 3e8a 03bd a186 37bd 81ea 2d3c
00000320: 8880 42bd a57c 9dbc 59f3 143d 2565 683d
00000330: e9d3 bcbc 4546 ca3c 4027 9d3d 6999 a63d
00000340: ba1b f4bc 844c bdbd 596a a7bd 5cd4 45be
00000350: 14dc a3bd d31d fbbc 20e9 88bd 4d00 913c
00000360: b27e 09bd 7e34 203c e786 643d ebf3 eb3c
00000370: a50c 103e cf53 033e fbbe f33d 7e84 d83d
00000380: e26f 72ba 140f 0cbd 2fdb a9bd f841 6d3d
00000390: 48e0 eb3a d7dd ec3d 6f55 c2b9 b3a5 3f3d
000003a0: f2e2 bd3d d8ad 243c a3a1 963c 2f42 693d
000003b0: 2cc6 9c3d 16ea d53d 6a92 05bd dcc3 4dbd
000003c0: c360 393d 1a16 50bd 76f3 a0bd e6a2 5cbd
000003d0: 5d5d c53c 3b50 a4bd c077 a3bd 9169 30bd
000003e0: dff1 6c3c 278d c23c 0249 813c 4860 853c
000003f0: 72a9 1bbd 0bbc dbbb bd6e d4bc 9c47 66bd

conv2.bias f4 [20]
0.0011849594 -0.017129283 -0.1270275 -0.04645735 0.114140905 0.029017612 0.046200894 0.0019509918
-0.074605525 0.06961787 -0.045575496 -0.042277128 0.036221705 -0.053516544 -0.053181667 -0.038982585
-0.04561351 -0.04667312 -0.07282568 -0.066459745
00000000: a450 9b3a b652 8cbc 7f13 02be 104a 3ebd
00000010: b5c2 e93d 58b6 ed3c 263d 3d3d 6cb8 ff3a
00000020: c8ca 98bd d093 8e3d 5fad 3abd c82a 2dbd
00000030: 365d 143d 2a34 5bbd 05d5 59bd 34ac 1fbd
00000040: 3bd5 3abd 502c 3fbd a125 95bd 0c1c 88bd

fc1.weight f4 [50, 320]
-0.04362191 -0.03782293 -0.03827757 0.03271696 0.05761915 -0.031541303 0.05409356 0.03491367
0.009248532 -0.027066676 -0.073967665 -0.019861342 -0.0566952 -0.09899725 -0.06377012 -0.09923073
-0.025261542 -0.01684472 -0.09945118 -0.051735405 -0.015417784 -0.020012936 -0.032286704 0.08209364
-0.026390752 0.027361056 0.15885302 0.09557695 -0.018988276 0.0126146795 -0.07576819 -0.017485704
-0.065215565 -0.025796985 -0.0695002 0.002120674 0.0020826382 0.025635809 0.035687488 0.010775622
0.086824246 0.059560392 0.005333287 0.008072886 -0.09897861 -0.12196299 -0.0766293 -0.018062113
-0.06511682 -0.06951853 -0.10271842 -0.041282274 0.112104096 -0.018937832 -0.02547932 -0.055485655
0.043615926 0.019817613 0.057615347 0.10350775 0.0408451 -0.013699783 0.033205796 -0.059269965
0.018039206 -0.061422218 -0.031163698 -0.01172277 0.030133925 0.03469353 0.046618976 -0.0036852192
0.029493593 0.00016019445 -0.044831585 -0.031378638 -0.048197955 0.029652715 0.020041762 -0.021730952
-0.0043955245 -0.05887444 -0.049584743 -0.07677205 -0.06826654 -0.06670856 -0.11503042 -0.14969575
-0.020253904 0.014926722 0.1004057 -0.008524097 0.0023812426 -0.019805856 0.07507805 0.14715204
-0.013521685 -0.011355959 0.04041351 0.071235135 0.06018101 -0.0150024 0.011257496 0.04121074
0.0017865844 0.009265888 0.02137682 -0.040402945 -0.08097542 -0.012587659 -0.090948455 -0.041700806
0.02923657 0.10840772 0.022093143 0.026650215 0.008595891 -0.07701506 -0.027989594 -0.059039887
-0.050846327 -0.027947592 -0.07801888 -0.034688964 -0.031284112 0.042996403 0.014685463 0.08270354
-0.013397065 -0.00023434186 0.064569876 0.031640254 0.015732422 -0.039396964 0.013355201 0.0007293657
-0.02721365 0.03959475 0.023096288 0.009884073 0.011476319 0.025581464 -0.007826477 0.04867363
-0.0006828323 0.026598215 0.09162595 0.10631688 -0.05786811 0.004161736 -0.009518048 -0.015904164
0.055684075 -0.07590396 0.046100233 -0.016421271 -0.060999844 -0.0005482113 -0.055050924 0.0026953402
-0.0062259245 -0.0045515676 0.060025845 0.0841756 -0.069518395 -0.042459898 -0.060939208 -0.038221024
0.022531116 -0.010101982 -0.063344605 -0.06380509 0.065987445 -0.0075222827 0.044281647 0.019138489
-0.01798128 -0.020876741 -0.10957015 -0.07203923 0.040014997 0.095999 0.052695397 -0.00241333
0.013342574 -0.0052222125 0.10294581 0.03491174 -0.12096976 -0.07829937 -0.020741621 -0.056922045
0.017246988 0.026435675 0.046973474 0.021438655 0.063196786 0.056373827 0.007942352 0.020450693
0.05926578 -0.0118957255 -0.0028800666 0.004405776 -0.039572213 -0.0796592 -0.057743523 -0.09192443
0.057072293 0.08135621 0.112189196 0.00481631 -0.0181975 -0.09890877 -0.048493594 0.020154504
-0.021297041 -0.02061058 0.026703134 -0.055759445 0.05759272 0.008258557 -0.03915288 -0.018409872
-0.039963916 -0.110510066 -0.16143718 -0.072294936 -0.050529122 -0.003734986 -0.046702355 -0.032765806
-0.029439153 0.08750615 0.06883928 0.046626564 -0.04969541 0.035272438 -0.004245637 0.044215653
-0.088833034 -0.141885 -0.049530637 -0.099709384 0.025767218 0.00783539 -0.078747 -0.005597035
0.11128105 0.10237589 0.023424724 0.08481557 -0.040647317 0.021426031 0.021040807 -0.0033669113
00000000: e3ac 32bd 37ec 1abd f1c8 1cbd 3802 063d
00000010: 0f02 6c3d 7431 01bd 3591 5d3d a301 0f3d
00000020: 2887 173c efba ddbc 5c7c 97bd 41b4 a2bc
00000030: 3a39 68bd 12bf cabd e999 82bd 7b39 cbbd
00000040: 4bf1 cebc f0fd 89bc 0fad cbbd 81e8 53bd
00000050: e09a 7cbc 2bf2 a3bc 103f 04bd b620 a83d
00000060: 6b31 d8bc 4b24 e03c 5eaa 223e d9bd c33d
00000070: 4d8d 9bbc cdad 4e3c 5a2c 9bbd 2e3e 8fbc
00000080: bd8f 85bd 3354 d3bc 1f56 8ebd 01fb 0a3b
00000090: df7c 083b 3002 d23c 0b2d 123d 3c8c 303c
000000a0: e9d0 b13d 99f5 733d dbc2 ae3b 2344 043c
000000b0: 4cb5 cabd bbc7 f9bd d3ef 9cbd fff6 93bc
000000c0: f85b 85bd bb5f 8ebd 095e d2bd 9a17 29bd
000000d0: d596 e53d 8323 9bbc 02ba d0bc ed44 63bd
000000e0: 9da6 323d 8c58 a23c 12fe 6b3d dffb d33d
000000f0: 314d 273d 0e75 60bc cd02 083d 10c5 72bd
00000100: f5c6 933c dd95 7bbd 034b ffbc dc10 40bc
00000110: 6cdb f63c ce1a 0e3d 8af3 3e3d b883 71bb
00000120: 8c9c f13c dff9 2739 53a1 37bd e386 00bd
00000130: 386b 45bd 40ea f23c 9f2e a43c 1c05 b2bc
00000140: 5508 90bb 5326 71bd 5f19 4bbd aa3a 9dbd
00000150: 54cf 8bbd 7f9e 88bd 1295 ebbd d849 19be
00000160: 84eb a5bc 368f 743c 81a1 cd3d a7a8 0bbc
00000170: 9f0e 1c3b e43f a2bc 85c2 993d 06af 163e
00000180: 0f8a 5dbc 580e 3abc a388 253d bae3 913d
00000190: 5d80 763d a0cc 75bc 5c71 383c 98cc 283d
000001a0: d32b ea3a f3cf 173c 711e af3c 8f7d 25bd
000001b0: 71d6 a5bd 783c 4ebc 2f43 babd 77ce 2abd
000001c0: 8881 ef3c de04 de3d aefc b43c 8d51 da3c
000001d0: c8d5 0c3c 12ba 9dbd 6f4a e5bc cfd3 71bd
000001e0: 3d44 50bd 59f2 e4bc 5dc8 9fbd 0416 0ebd
000001f0: c523 00bd ff1c 303d 4c9b 703c 7960 a93d
00000200: 5d7f 5bbc aab9 75b9 363d 843d 3699 013d
00000210: 48e1 803c b65e 21bd c6cf 5a3c e732 3f3a
00000220: 29ef debc 1b2e 223d 6d34 bd3c cff0 213c
00000230: 2c07 3c3c 3890 d13c a03a 00bc 005e 473d
00000240: 1a00 33ba 80e4 d93c 63a6 bb3d aabc d93d
00000250: 1c07 6dbd 2c5f 883b 96f1 1bbc 7349 82bc
00000260: fc14 643d 8973 9bbd 99d3 3c3d e785 86bc
00000270: f9da 79bd d6b5 0fba 147d 61bd 4ea4 303b
00000280: d702 ccbb 5125 95bb a9dd 753d 4264 ac3d
00000290: a95f 8ebd 6eea 2dbd 649b 79bd a68d 1cbd
000002a0: 2d93 b83c c982 25bc d1ba 81bd 3eac 82bd
000002b0: 6d24 873d 7b7d f6bb ac60 353d 52c8 9c3c
000002c0: 7a4d 93bc b305 abbc 5166 e0bd 4e89 93bd
000002d0: c4e6 233d 209b c43d 21d7 573d f528 1ebb
000002e0: d09a 5a3c 181f abbb 41d5 d23d 9dff 0e3d
000002f0: febe f7bd 6c5b a0bd 55ea a9bc 1727 69bd
00000300: 8e49 8d3c a18f d83c 4267 403d 1ea0 af3c
00000310: 516d 813d 3ee8 663d a420 023c 3688 a73c
00000320: adc0 723d 4ae6 42bc 80bf 3cbb 545e 903b
00000330: 7916 22bd 5d24 a3bd 7984 6cbd e042 bcbd
00000340: a3c4 693d 169e a63d 73c3 e53d 23d2 9d3b
00000350: ec12 95bc ae90 cabd 38a1 46bd 0f1b a53c
00000360: 2277 aebc 85d7 a8bc 88c0 da3c 0464 64bd
00000370: 58e6 6b3d e64e 073c c55e 20bd 4dd0 96bc
00000380: 34b1 23bd 1a53 e2bd ca4f 25be 5e0f 94bd
00000390: a0f7 4ebd abc6 74bb f84a 3fbd 7035 06bd
000003a0: 612a f1bc 6d36 b33d 9cfb 8c3d 7ffb 3e3d
000003b0: 6a8d 4bbd d579 103d fc1e 8bbb 791b 353d
000003c0: 18ee b5bd 4d4a 11be a3e0 4abd 6f34 ccbd
000003d0: c615 d33c 0260 003c 1b46 a1bd 5567 b7bb
000003e0: 52e7 e33d 73aa d13d 35e5 bf3c c9b3 ad3d
000003f0: cd7d 26bd a585 af3c c55d ac3c 66a7 5cbb

fc1.bias f4 [50]
0.06051007 -0.02667426 0.018927447 0.014073449 0.08117532 -0.0023035891 0.012072378 0.122374445
0.037337266 -0.002835856 0.047523327 0.039220694 0.066122286 -0.017935876 -0.033287082 0.06328571
0.03162989 -0.05566537 -0.018724827 0.07341494 -0.033162504 0.014780755 0.028929202 0.051413182
0.06368532 0.09871789 0.053825267 0.055431813 -0.0071700304 0.029942231 0.02329469 0.031332005
0.082087845 -0.023093404 0.05139431 -0.059188467 0.0148556195 0.10178394 0.05818534 0.11469013
0.08194034 0.0014925167 0.06668242 0.051730197 0.082441315 0.09001852 -0.011758321 0.039048783
-0.010159478 0.041357834
00000000: 68d9 773d fa83 dabc bc0d 9b3c 5394 663c
00000010: 3f3f a63d d0f7 16bb 39cb 453c 749f fa3d
00000020: f6ee 183d c5d9 39bb d2a7 423d e1a5 203d
00000030: 1f6b 873d 42ee 92bc 0958 08bd f09b 813d
00000040: 588e 013d 5f01 64bd cf64 99bc 925a 963d
00000050: 68d5 07bd fb2a 723c effc ec3c a196 523d
00000060: 736d 823d 9b2c ca3d e277 5c3d 780c 633d
00000070: 93f2 eabb 6949 f53c 81d4 be3c fd55 003d
00000080: ac1d a83d 612e bdbc d782 523d 9b6f 72bd
00000090: fc64 733c 1974 d03d c053 6e3d a9e2 ea3d
000000a0: 56d0 a73d 8da0 c33a cb90 883d 0be3 533d
000000b0: fed6 a83d a15b b83d f9a5 40bc 9ef1 1f3d
000000c0: f073 26bc d566 293d

fc2.weight f4 [10, 50]
0.06788372 0.1623742 -0.27226633 0.27493873 0.0007188075 -0.1543156 -0.12935007 -0.29283214
0.09683054 -0.24506365 -0.2825946 -0.21263057 -0.024411451 -0.2362249 -0.20713544 0.20840456
0.29303607 -0.07328478 -0.29317957 -0.09374778 -0.16597359 -0.03347037 0.2106955 0.18715835
0.29484242 -0.1580777 -0.14492469 0.19545408 0.09687027 0.12525772 0.23888779 -0.28637165
-0.23325105 0.13086861 0.11372374 0.27082518 0.14528221 -0.30538598 0.08076841 -0.24742244
0.29974794 -0.110614434 0.18069197 -0.09771518 -0.03280418 0.24271989 -0.119901136 0.02156326
-0.021979466 0.10559288 -0.12349265 -0.30937892 0.26884118 -0.15979323 0.28682438 -0.20939237
-0.095441304 0.20926382 0.17205553 -0.23976867 0.27285084 0.20288643 0.3403454 0.1575217
0.027827332 -0.1893765 0.18631302 0.030166311 -0.07456557 0.34574017 -0.22461669 -0.27243367
-0.09893263 -0.2847258 -0.11494966 0.16001123 0.19662829 -0.29820412 -0.084639065 -0.35476688
-0.26379213 0.218344 0.20241453 -0.25941193 -0.22739652 -0.08137727 -0.095920004 0.30599552
-0.30684048 0.11423696 0.29262006 -0.16814838 -0.19510086 -0.08128244 0.3212179 -0.1866028
-0.07039883 0.22571978 0.073433496 0.04339513 0.2996774 -0.14696893 -0.19523494 0.24204011
-0.24557668 0.075120874 -0.08558137 -0.25947553 -0.24661908 -0.18123664 -0.24299595 0.22643544
0.13195679 0.14814454 -0.14989747 0.21208078 0.22671393 -0.098995015 0.013335156 0.09111814
0.086800955 -0.064838186 -0.14653519 -0.045102905 0.2089624 0.19222216 0.1930657 0.16575348
-0.03747449 -0.068261266 0.2101952 0.21532662 0.10691878 -0.0023031936 -0.04424828 -0.1137375
0.16974492 -0.08047178 0.09829642 0.17830057 -0.22670904 0.25175267 -0.17325217 -0.012659131
0.30606726 -0.09530492 0.17434472 0.2239126 0.19399714 0.082444884 -0.08299025 0.2436769
-0.16576113 -0.096481435 0.3173453 0.06958076 0.24528317 -0.15645072 -0.25381362 0.21205747
0.28274137 0.14368196 -0.08274256 0.20359974 -0.18110137 0.16226402 -0.16331574 -0.06983759
0.20819391 -0.19137172 -0.14379075 -0.16520542 -0.19201225 0.14637014 -0.0638355 0.19527182
-0.2349355 -0.15883167 -0.15188628 0.08877193 0.022708 -0.17530659 0.22479217 -0.12770969
0.2319125 -0.0062711383 0.1822598 -0.07058826 0.0036532748 0.22969432 -0.22135144 0.11388219
-0.23432894 -0.14270355 0.28082916 0.12435042 -0.114337794 0.23192056 -0.12519097 0.11140093
0.33323976 -0.20059708 0.23706676 0.14378268 -0.0014419658 0.27897757 0.045157347 0.155191
-0.041446872 0.1803246 0.010644045 -0.17178735 -0.16344449 -0.08719074 0.09422473 0.106109105
-0.055902407 0.1957992 0.23263462 0.30789277 0.27118012 0.2585914 0.16427001 -0.3168836
0.03474973 -0.2246972 -0.13599755 0.23413365 -0.05238479 -0.41342893 -0.02790899 0.06805822
0.18861696 0.2037219 0.1878211 -0.008238048 -0.37583548 0.28917775 -0.34321943 -0.14198989
-0.046186205 -0.16545579 -0.25177193 0.30329075 0.030953225 -0.11378156 0.23747751 -0.1799117
-0.035301533 -0.25730821 0.08412073 0.20147882 -0.17479487 -0.22890323 0.29279235 -0.07855344
00000000: 9f06 8b3d 6c45 263e 7e66 8bbe c5c4 8c3e
00000010: 5b6e 3c3a e904 1ebe 5874 04be 18ee 95be
00000020: 174f c63d f7f1 7abe 3db0 90be d4bb 59be
00000030: 86fa c7bc f1e4 71be 501b 54be 0168 553e
00000040: d308 963e 5516 96bd a21b 96be d6fe bfbd
00000050: fbf4 29be 3a18 09bd 90c0 573e 70a6 3f3e
00000060: 96f5 963e 1fdf 21be 2367 14be 1d25 483e
00000070: ec63 c63d 8f43 003e 009f 743e 4e9f 92be
00000080: 5dd9 6ebe 6c02 063e fee7 e83d 99a9 8a3e
00000090: dcc4 143e 8d5b 9cbe e869 a53d 4f5c 7dbe
000000a0: 9078 993e d289 e2bd 5107 393e e51e c8bd
000000b0: ad5d 06bd 908b 783e ba8e f5bd 6fa5 b03c
000000c0: 480e b4bc 1441 d83d b7e9 fcbd ea66 9ebe
000000d0: 8da5 893e d6a0 23be a5da 923e f46a 56be
000000e0: bb76 c3bd 4149 563e 532f 303e eb85 75be
000000f0: 1bb3 8b3e 76c1 4f3e c141 ae3e 5e4d 213e
00000100: 25f6 e33c eaeb 41be d7c8 3e3e 571f f73c
00000110: d5b5 98bd db04 b13e eb01 66be 6d7c 8bbe
00000120: 319d cabd 94c7 91be ba6a ebbd fcd9 233e
00000130: ed58 493e 36ae 98be 3f57 adbd 01a4 b5be
00000140: c30f 87be 9295 5f3e c145 4f3e a4d1 84be
00000150: a2da 68be 20a9 a6bd b571 c4bd 72ab 9c3e
00000160: 321a 9dbe 11f5 e93d 4cd2 953e 172f 2cbe
00000170: 85c8 47be 6877 a6bd ac76 a43e ce14 3fbe
00000180: 432d 90bd 1623 673e 4d64 963d 18bf 313d
00000190: 516f 993e 067f 16be abeb 47be 5dd9 773e
000001a0: 7478 7bbe f9d8 993d 4945 afbd fad9 84be
000001b0: b689 7cbe 1996 39be eed3 78be b1de 673e
000001c0: ae1f 073e 34b3 173e b97e 19be b42b 593e
000001d0: b227 683e e6bd cabd b37b 5a3c 269c ba3d
000001e0: b3c4 b13d e2c9 84bd 520d 16be d3bd 38bd
000001f0: 3dfa 553e e3d5 443e 04b3 453e 48bb 293e
00000200: da7e 19bd 90cc 8bbd 693d 573e 957e 5c3e
00000210: 3cf8 da3d 2df1 16bb af3d 35bd 35ef e8bd
00000220: 9dd1 2d3e 63ce a4bd a24f c93d 6d94 363e
00000230: 6a26 68be bae5 803e 0469 31be 3e68 4fbc
00000240: d9b4 9c3e 3a2f c3bd 6c87 323e 5849 653e
00000250: 30a7 463e ddd8 a83d cbf6 a9bd 7086 793e
00000260: 49bd 29be 0f98 c5bd 157b a23e 5c80 8e3d
00000270: 832b 7b3e 9e34 20be dcf3 81be 9825 593e
00000280: 7ac3 903e 5d21 133e ee74 a9bd 737c 503e
00000290: a372 39be 8a28 263e 3e3c 27be 0307 8fbd
000002a0: c930 553e f3f6 43be e23d 13be 9c2b 29be
000002b0: dc9e 44be 0ee2 153e 30bc 82bd 56f5 473e
000002c0: ef92 70be c5a4 22be 1488 1bbe 0fce b53d
000002d0: 2106 ba3c 9283 33be eb2f 663e 54c6 02be
000002e0: 787a 6d3e 1f7e cdbb 50a2 3a3e 9490 90bd
000002f0: c86b 6f3b fd34 6b3e f4a9 62be 113b e93d
00000300: edf3 6fbe e120 12be d7c8 8f3e 6fab fe3d
00000310: ef29 eabd 957c 6d3e 1032 00be 2c26 e43d
00000320: 679e aa3e 5269 4dbe a1c1 723e c43b 133e
00000330: 5800 bdba 26d6 8e3e e9f6 383d 64ea 1e3e
00000340: 32c4 29bd 03a7 383e 5c64 2e3c 06e9 2fbe
00000350: fe5d 27be 0f91 b2bd e5f8 c03d bb4f d93d
00000360: ecf9 64bd 967f 483e c537 6e3e 1fa4 9d3e
00000370: 1fd8 8a3e 1866 843e 6636 283e 913e a2be
00000380: bc55 0e3d 0617 66be f142 0bbe bbc0 6f3e
00000390: 6f91 56bd f5ac d3be 65a1 e4bc 1c62 8b3d
000003a0: ce24 413e 799c 503e 2d54 403e e1f8 06bc
000003b0: 826d c0be 1b0f 943e 75ba afbe cc65 11be
000003c0: bf2d 3dbd 3e6d 29be 40e8 80be ed48 9b3e
000003d0: 9e91 fd3c 4e06 e9bd 4e2d 733e c63a 38be
000003e0: 5798 10bd e7bd 83be 7d47 ac3d 7750 4e3e
000003f0: 6dfd 32be 9c65 6abe e1e8 953e a0e0 a0bd

fc2.bias f4 [10]
-0.10977066 0.28419372 -0.22751264 0.04354025 0.04999104 -0.10480078 -0.2130353 0.0500153
0.19763617 0.0930254
00000000: 71cf e0bd d781 913e 13f9 68be 4357 323d
00000010: 68c3 4c3d cba1 d6bd ed25 5abe d8dc 4c3d
00000020: 2361 4a3e 1a84 be3d

momentum_buffer f4 [10, 1, 5, 5]
0.002086115 -0.0021798143 -0.0031052053 0.0035028397 0.004477096 -0.004442761 -0.0057132524 -0.0018173438
0.003327616 0.0040913783 -0.006289683 -0.013041701 -0.006668276 -0.00049966504 0.0006317202 -0.0060725226
-0.01458179 -0.0053540827 -0.001233641 -0.0012646025 -0.0052819224 -0.011147181 -0.0031044234 0.00017941835
0.00015746709 0.003233734 0.0058416724 0.0021996615 0.0025618172 0.008091563 0.0035155797 0.003986351
0.003192638 0.011319331 0.013599251 0.0016454796 0.0028713609 0.0100329835 0.013525295 0.010418508
0.0048622023 0.010513424 0.016807592 0.012298286 0.006430796 0.011188177 0.016282886 0.013220186
0.005028363 0.008283631 0.007843047 0.007272913 0.007190863 0.019839894 0.030213518 -0.00023291423
-0.00049978006 0.005130705 0.01752175 0.029437149 0.0037873688 0.0068117017 0.0045603593 0.015788976
0.024881992 -0.0034832375 0.00023412751 0.004835717 0.010593191 0.014655044 -0.010767632 -0.0042563295
0.0011444909 -0.0010268791 -0.0049532587 0.0138762975 0.010646901 0.0037547983 -0.007547437 -0.0027604015
0.001953557 0.0023671787 -0.00565128 -0.0013602076 0.004334808 -0.003910514 -0.004826498 -0.0044514663
0.0005239569 0.0071102763 -0.0071279877 -0.0090421885 -0.010837413 -0.0047355634 0.0076280963 -0.009104906
-0.008396594 -0.0073317136 -0.0047533363 0.0077327015 -0.0045138593 -0.0031453536 0.0054957764 0.0061359378
-0.0022433437 0.003934658 0.010174951 0.00912257 0.0046121906 -0.006630849 0.011488093 0.014321678
0.008389335 0.0023517096 -0.009709062 0.0059911194 0.0074235084 0.0030826412 -1.09035755e-05 -0.004711291
0.0005564148 -0.001077467 -0.0031657992 -0.008675745 -0.0020019757 0.02745412 0.0029595653 0.013556192
0.016734079 0.0069854613 0.017884525 0.011027442 0.018720232 0.008026378 0.007917017 0.028226797
0.017159067 0.020936318 0.018167602 0.014125989 0.031228922 0.020321352 0.02262377 0.038310446
0.027636938 0.02036308 0.013781261 0.024850775 0.037014324 0.023639318 0.0037295497 -0.012137696
-0.003528396 0.0031504713 -0.0035689347 -0.012407276 -0.017446134 -0.008014895 -0.00036054128 -0.0069086794
-0.01944821 -0.024870435 -0.014381183 -0.012543616 -0.014327215 -0.010784565 -0.011184165 -0.0037637078
-0.015429554 -0.016664041 0.013947381 0.0048607853 -0.006822571 -0.016738554 -0.01095148 -7.983333e-07
-5.127849e-07 3.935869e-08 4.7829934e-07 3.5232307e-07 -4.279507e-07 3.9281534e-08 3.9379168e-07 5.274576e-07
3.6497354e-08 1.0929324e-07 7.410649e-10 2.0021949e-07 1.16794226e-07 -4.9062087e-30 -1.5503677e-07 1.4512641e-08
1.7433804e-07 4.3479695e-08 0.0 9.409722e-08 1.2671129e-06 1.105837e-06 1.0426033e-07 -2.0503815e-20
0.0022731817 -0.005096536 -0.0031827744 -0.010167881 0.0022779722 -0.006437479 -0.017747084 -0.024897896
-0.021204341 0.0041713575 -0.029233519 -0.03901729 -0.035630576 -0.02872173 -0.009297959 -0.047415406
-0.04274445 -0.03464459 -0.03507007 -0.017384404 -0.04658593 -0.024921667 -0.035611738 -0.05250783
-0.042890698 -0.003275087 -0.014593757 -0.05481071 -0.057121865 -0.06445508 0.005333245 -0.02172439
-0.046840366 -0.055123042 -0.06604497 0.0022785445 -0.021824162 -0.032605857 -0.03940766 -0.04724525
0.0026830276 -0.007743762 -0.0037033823 -0.0133417845 -0.017544683 -0.007497802 -0.0079710055 -0.007305216
-0.009091945 -0.013787524
00000000: 34b7 083b 37db 0ebb b380 4bbb e68f 653b
00000010: 9ab4 923b 9594 91bb 3c36 bbbb f033 eeba
00000020: 2214 5a3b f810 863b af19 cebb dcac 55bc
00000030: 8e81 dabb f4fb 02ba 069a 253a 03fc c6bb
00000040: 76e8 6ebc 4d71 afbb 20b2 a1ba 05c1 a5ba
00000050: fa13 adbb aaa2 36bc 9573 4bbb 3f22 3c39
00000060: c01d 2539 0eed 533b 806b bf3b 3228 103b
00000070: 29e4 273b 7a92 043c a465 663b f09f 823b
00000080: 943b 513b b774 393c 65cf 5e3c 22ad d73a
00000090: 712d 3c3b 6261 243c 3399 5d3c 64b2 2a3c
000000a0: 1c53 9f3b 7f40 2c3c 13b0 893c c07e 493c
000000b0: 6db9 d23b 9e4e 373c b063 853c 7b99 583c
000000c0: f7c4 a43b 11b8 073c 2080 003c 9e51 ee3b
000000d0: 55a1 eb3b 4687 a23c 5782 f73c 703a 74b9
000000e0: ac03 03ba 791f a83b c689 8f3c 2d26 f13c
000000f0: 8135 783b b234 df3b 116f 953b e257 813c
00000100: 52d5 cb3c 0747 64bb 2080 7539 ef74 9e3b
00000110: 108f 2d3c b61b 703c b96a 30bc ae78 8bbb
00000120: be02 963a 5898 86ba f24e a2bb 6959 633c
00000130: 5770 2e3c 1013 763b 7e50 f7bb dae7 34bb
00000140: 3f07 003b ab22 1b3b 5f2e b9bb fe48 b2ba
00000150: 010b 8e3b c523 80bb 9a27 9ebb 9bdd 91bb
00000160: 275a 093a 52fd e83b e591 e9bb b025 14bc
00000170: 688f 31bc c92c 9bbb 1cf5 f93b be2c 15bc
00000180: de91 09bc df3e f0bb e0c1 9bbb 9a62 fd3b
00000190: ffe8 93bb 4722 4ebb ea15 b43b fa0f c93b
000001a0: 1005 13bb 4eee 803b d6b4 263c d576 153c
000001b0: dc21 973b 9847 d9bb 8e38 3c3c 79a5 6a3c
000001c0: 6c73 093c 241f 1a3b c212 1fbc 2751 c43b
000001d0: e740 f33b 2306 4a3b 80ee 36b7 2c61 9abb
000001e0: 5ddc 113a cb39 8dba 4c79 4fbb b624 0ebc
000001f0: 9433 03bb 76e7 e03c 44f5 413b ca1a 5e3c
00000200: e815 893c 4ce6 e43b 9182 923c 72ac 343c
00000210: 2c5b 993c 1281 033c 60b6 013c e23b e73c
00000220: 2c91 8c3c a482 ab3c 39d4 943c b170 673c
00000230: ccd3 ff3c f778 a63c 7c55 b93c 6aeb 1c3d
00000240: dc66 e23c 79d0 a63c ccca 613c da93 cb3c
00000250: 559c 173d 3ea7 c13c 766b 743b 30dd 46bc
00000260: a93c 67bb 2378 4e3b cae4 69bb e347 4bbc
00000270: 32eb 8ebc e850 03bc 0807 bdb9 3462 e2bb
00000280: da51 9fbc 15bd cbbc 0e9f 6bbc bd83 4dbc
00000290: b2bc 6abc beb1 30bc ca3d 37bc 8aa8 76bb
000002a0: 3dcc 7cbc 0783 88bc 8e83 643c 3947 9f3b
000002b0: e08f dfbb 4b1f 89bc d66d 33bc 0c4d 56b5
000002c0: 4fa6 09b5 560b 2933 7b64 0035 ea26 bd34
000002d0: 19c1 e5b4 81b6 2833 516a d334 9c96 0d35
000002e0: 44c1 1c33 98b4 ea33 ceb3 4b30 eafb 5634
000002f0: 4ed0 fa33 fc04 c78e 2f78 26b4 4553 7932
00000300: ad31 3b34 6ebe 3a33 0000 0000 7e12 ca33
00000310: ab11 aa35 456c 9435 b9e5 df33 2fa7 c19e
00000320: a9f9 143b d800 a7bb 1896 50bb 2f97 26bc
00000330: 084a 153b 7df1 d2bb 5562 91bc acf6 cbbc
00000340: bab4 adbc e2af 883b 227b efbc 98d0 1fbd
00000350: 5ef1 11bd d549 ebbc 7756 18bc a836 42bd
00000360: ce14 2fbd 7ce7 0dbd a2a5 0fbd bd69 8ebc
00000370: e3d0 3ebd 8628 ccbc 9ddd 11bd 7312 57bd
00000380: 28ae 2fbd d8a2 56bb a71a 6fbc 3281 60bd
00000390: 9ef8 69bd 0601 84bd 80c2 ae3b 59f7 b1bc
000003a0: afdb 3fbd b3c8 61bd 9642 87bd a253 153b
000003b0: 96c8 b2bc b88d 05bd ed69 21bd 3c84 41bd
000003c0: bcd5 2f3b 62bf fdbb 72b4 72bb 8097 5abc
000003d0: deb9 8fbc 1fb0 f5bb d298 02bc 9860 efbb
000003e0: 62f6 14bc 11e5 61bc

momentum_buffer f4 [10]
0.010176402 0.022096341 0.016198684 0.0056801 0.000490122 0.025214652 0.015041038 -2.5434744e-07
-0.018031985 -0.06176565
00000000: ecba 263c 6303 b53c 1ab3 843c 2220 ba3b
00000010: 887b 003a f58e ce3c b06e 763c 3f8d 88b4
00000020: d0b7 93bc fafd 7cbd

momentum_buffer f4 [20, 10, 5, 5]
-0.0058793076 9.573263e-05 -0.0018677037 -0.00583152 0.0007054868 -0.0026958412 0.003548822 0.0066135125
0.008818385 0.005545197 0.0071801706 0.01073355 0.007497625 0.011114253 0.005423868 0.009223485
0.007473426 -0.0016791043 0.005893333 0.0035704495 0.0057013347 0.0030038063 -0.003229857 0.0047384677
0.0031448335 0.0002652274 -0.006882744 -0.0036645331 0.0005158521 -0.00018130016 -0.003760165 -0.006744325
-0.008654866 -0.011171855 -0.006474141 -0.005670104 -0.0047068163 -0.0034065892 -0.0027455986 -0.005221333
-0.0028326076 -0.0035715678 0.00165143 0.000949238 -0.00094158034 -0.0010506362 -0.00088317285 0.002904018
0.0016992843 -0.0028877167 0.017254673 0.006440153 0.009288725 -0.011791239 -0.01006118 0.017902883
0.01177809 0.0025819954 -0.020453325 -0.01923983 0.0073618176 -0.0017940947 -0.01386068 -0.026384924
-0.023805426 -0.00323983 -0.004772332 -0.014654385 -0.021322016 -0.0101943165 -0.0077422676 -0.0038828223
-0.018640265 -0.02287668 -0.008307833 0.009293102 0.007728198 0.0063153594 0.0008339124 -0.014532298
0.02348325 0.018734569 0.02408523 0.005601871 -0.0065303994 0.023812259 0.011553441 0.011688074
0.00030633505 -0.019615766 0.010191496 0.00041820353 0.0034032026 -0.00876504 -0.022456262 0.01062589
0.000333787 0.00616828 -0.013078 -0.023230184 0.026602594 0.030275218 0.027044654 0.014220821
-0.0029449197 0.033805784 0.027560122 0.008600046 -0.0058897384 -0.022783749 0.015298666 0.004169168
-0.005894954 -0.023278218 -0.037824154 0.010872024 0.0020640302 0.003062757 -0.012452494 -0.024292607
0.016860945 0.011060216 0.008050693 -0.006574323 -0.023164634 0.012719057 0.027959947 0.02569717
0.019318711 -0.0017172657 0.026858702 0.029570067 0.01264393 0.015792273 -0.011098046 0.03549571
0.029334798 0.009532341 0.0008952385 -0.02664358 0.03615801 0.023941696 0.01337331 0.0042556156
-0.034178272 0.03366964 0.018889556 0.018059604 -0.002326832 -0.04250581 0.015971517 0.017409138
0.011744537 -0.010509257 -0.027940344 0.03023526 0.024513759 0.024562443 0.0034769194 -0.017336413
0.027006991 0.01648757 0.001388062 -0.023546487 -0.03709151 0.01386448 0.00617861 -0.005552335
-0.02738566 -0.03759103 0.012373744 0.009608426 0.0033923723 -0.02628052 -0.028851762 7.5935125e-32
-2.6342407e-19 1.3742352e-14 -1.6112404e-10 2.5087362e-08 2.4203542e-25 1.2906382e-22 8.996211e-22 5.297498e-06
-2.745736e-09 6.321608e-11 4.183588e-08 9.548171e-06 -7.1553167e-12 -3.952863e-10 -8.055952e-07 -3.972345e-09
8.116153e-09 -4.264966e-18 4.7222158e-21 -1.1228799e-06 1.9172769e-15 1.0993721e-18 2.0495419e-09 3.7030683e-09
0.031565506 0.028884329 0.026853258 0.004983651 -0.028695874 0.049308125 0.04498314 0.033933233
-0.004856573 -0.03407798 0.039408818 0.017577203 -0.000587627 -0.028001588 -0.054898113 0.01606372
0.0044930335 -0.009580543 -0.039549798 -0.048452016 0.014809664 0.009495227 -0.0024838867 -0.035460193
-0.04426143 -0.00464788 -0.014144322 -0.03094732 -0.045569085 -0.050723776 -0.008272355 -0.0016096802
-0.001531186 -0.016472867 -0.018916152 0.02237609 0.023655694 0.019724533 0.006835863 -0.0019403092
0.0144352205 0.007550177 -0.000526552 -0.00047127227 -0.004309297 0.0014643073 0.009100964 0.0051177973
0.003194023 -0.0034739207 -0.001431604 -0.0007374674 -0.0017980563 -0.0055624945 -0.001487472 -0.0011515929
00000000: 35a7 c0bb 10c4 c838 bdcd f4ba 5616 bfbb
00000010: 6bf0 383a b6ac 30bb 5a93 683b 2ab6 d83b
00000020: fd7a 103c 7cb4 b53b a347 eb3b c6db 2f3c
00000030: a3ae f53b 8e18 363c b4ba b13b 1a1e 173c
00000040: a4e3 f43b 6415 dcba dc1c c13b 34fe 693b
00000050: 43d2 ba3b 82db 443b 02ac 53bb 2645 9b3b
00000060: 8d19 4e3b 380e 8b39 a488 e1bb aa28 70bb
00000070: 403a 073a 641b 3eb9 1a6d 76bb 80ff dcbb
00000080: 24cd 0dbc 280a 37bc 0825 d4bb 48cc b9bb
00000090: a33b 9abb 1541 5fbb 80ef 33bb b717 abbb
000000a0: 45a3 39bb f710 6abb cc74 d83a 49d6 783a
000000b0: 63d4 76ba 80b5 89ba ba84 67ba 5651 3e3b
000000c0: 85ba de3a d93f 3dbb ac59 8d3c eb07 d33b
000000d0: bd2f 183c 0a30 41bc a6d7 24bc 11a9 923c
000000e0: e4f8 403c b236 293b bb8d a7bc d99c 9dbc
000000f0: 673b f13b d427 ebba e817 63bc 3225 d8bc
00000100: 9903 c3bc 5453 54bb 3961 9cbb f218 70bc
00000110: 82ab aebc 1006 27bc d9b2 fdbb f376 7ebb
00000120: 78b3 98bc e067 bbbc 941d 08bc 1842 183c
00000130: d33c fd3b 13f1 ce3b ea9a 5a3a e018 6ebc
00000140: f25f c03c 3d79 993c 634e c53c e68f b73b
00000150: f6fc d5bb ed11 c33c a54a 3d3c 567f 3f3c
00000160: 989b a039 3eb1 a0bc 3cfa 263c 5442 db39
00000170: 4408 5f3b 3e9b 0fbc 32f6 b7bc 3718 2e3c
00000180: 2200 af39 481f ca3b 1c45 56bc 3a4d bebc
00000190: afed d93c bc03 f83c c08c dd3c 72fe 683c
000001a0: 8eff 40bb ef77 0a3d c4c5 e13c 35e7 0c3c
000001b0: b5fe c0bb fca4 babc 42a7 7a3c 849d 883b
000001c0: 752a c1bb f6b1 bebc 80ed 1abd 9320 323c
000001d0: ae44 073b 89b8 483b 8c05 4cbc 4a01 c7bc
000001e0: f71f 8a3c e935 353c 0ee7 033c 6b6d d7bb
000001f0: c2c3 bdbc 9763 503c 420c e53c df82 d23c
00000200: 4642 9e3c e015 e1ba c806 dc3c ed3c f23c
00000210: 7c28 4f3c cc5e 813c 94d4 35bc f363 113d
00000220: 884f f03c 892d 1c3c 70ae 6a3a a343 dabc
00000230: 6c1a 143d 6021 c43c ba1b 5b3c b172 8b3b
00000240: 84fe 0bbd 2de9 093d 45be 9a3c bcf1 933c
00000250: c37d 18bb 921a 2ebd b3d6 823c 9c9d 8e3c
00000260: 296c 403c 052f 2cbc 26e3 e4bc f0af f73c
00000270: 14d1 c83c 2d37 c93c 07dd 633b 1805 8ebc
00000280: c43d dd3c f110 873c a2ef b53a 90e4 c0bc
00000290: 44ed 17bd d827 633c f075 ca3b 5df0 b5bb
000002a0: e457 e0bc 0df9 19bd 3ebb 4a3c a96c 1d3c
000002b0: 9052 5e3b 3f4a d7bc 885a ecbc 8c23 c50b
000002c0: 857f 9ba0 6a8f 7728 6328 31af b17f d732
000002d0: 0bd0 9516 5107 1c1b 68f2 871c 29c1 b136
000002e0: 80af 3cb1 7d03 8b2e 09af 3333 1531 2037
000002f0: 5dc1 fbac 9a4f d9af 1540 58b5 1e7d 88b1
00000300: 386f 0b32 7759 9da2 7866 b21d dcb5 96b5
00000310: 8427 0a27 1b3d a221 ecd7 0c31 1179 7e31
00000320: d54a 013d d49e ec3c 5dfb db3c e54d a33b
00000330: 9c13 ebbc 51f7 493d 3e40 383d 93fd 0a3d
00000340: e323 9fbb 5a95 0bbd 246b 213d 11fe 8f3c
00000350: fb0a 1aba 9663 e5bc d8dc 60bd 1098 833c
00000360: 4c3a 933b b6f7 1cbc f8fe 21bd 9f75 46bd
00000370: 3ca4 723c de91 1b3c b4c8 22bb b53e 11bd
00000380: 794b 35bd 3e4d 98bb 96bd 67bc 3c85 fdbc
00000390: a6a6 3abd bcc3 4fbd c688 07bc e8fb d2ba
000003a0: 14b2 c8ba 1bf2 86bc 0cf6 9abc 104e b73c
000003b0: 96c9 c13c 5895 a13c 60ff df3b f951 feba
000003c0: b481 6c3c 7a67 f73b 4e08 0aba 1815 f7b9
000003d0: 0135 8dbb 00ee bf3a 361c 153c 32b3 a73b
000003e0: d052 513b b8aa 63bb a9a4 bbba 9952 41ba
000003f0: c2ac ebba 9645 b6bb 47f7 c2ba 0cf1 96ba

momentum_buffer f4 [20]
-0.013081615 0.002980831 -0.0011517492 -0.017550468 -0.0028586145 -0.0055580074 0.0116716325 0.0031665317
0.0028894464 -0.003689849 0.0033586654 0.0056502298 -0.010574407 -0.00998159 0.01633171 -0.03375853
0.0008980482 0.009330227 0.0051554856 0.0029198385
00000000: 4554 56bc 0c5a 433b 4af6 96ba 00c6 8fbc
00000010: 9857 3bbb f21f b6bb 603a 3f3c 9685 4f3b
00000020: de5c 3d3b 65d1 71bb 0e1d 5c3b 9025 b93b
00000030: 4740 2dbc d389 23bc 14ca 853c 6246 0abd
00000040: ff6a 6b3a cfdd 183c 59ef a83b c35a 3f3b

momentum_buffer f4 [50, 320]
-0.0027734574 -0.0032794382 -0.00081183575 -0.0017881237 -0.005662653 -0.0070395004 -0.0050580353 -0.006644735
-4.1658117e-05 -6.801551e-05 -0.00017616771 -0.00022983592 -0.0017111662 -7.231873e-08 -2.9589284e-05 -0.00032051874
-0.0016420666 -0.006929652 -0.0051454296 -0.0022929448 -0.009554831 -0.014305701 -0.0047515593 -0.0016343173
-0.0066297627 -0.012624122 -0.007310503 -0.009427685 -9.575998e-05 -0.005920535 1.4248988e-05 -0.00022104064
-0.0010282407 -0.015996426 -0.0105111925 -0.014203088 -0.0073609706 -0.022177212 -0.0066298484 -0.012262629
-0.0021089225 -0.0057861772 -0.006311218 -0.00044718978 -0.0010131332 -0.011608229 -0.00011451757 -3.8092472e-05
-5.6707586e-06 -0.00094479864 -0.00073314557 -0.00039751636 4.253721e-08 -0.0008640781 -0.0003649113 -0.00023365486
-0.00017374233 -0.00016928601 -0.00074058917 -0.0012498348 -0.00075743324 -0.0005507006 -0.00076094776 -0.00078016066
-0.0046991706 1.9126922e-10 -2.0919819e-10 3.1780717e-05 -3.780496e-05 3.8369144e-10 -3.606043e-13 -4.1055473e-06
-8.5583605e-07 -5.973224e-15 -2.4057517e-10 -1.4676545e-05 -2.9150315e-12 -0.00012995013 -0.0042889663 -0.0045773215
-0.0014836644 -0.00017797662 -9.773152e-05 -5.607708e-07 -2.0782954e-05 -5.70794e-07 -1.0654416e-05 -2.7183009e-05
-0.024327947 -0.018123826 -0.012351643 -0.009684991 -0.0058381357 -0.00031226708 -0.004061531 -0.00078837224
-0.026478205 -0.024170704 -0.014638317 -0.019668927 -0.026360432 -0.0009141712 -0.0016551821 -0.0033831052
-0.0055123987 -0.00030060348 -0.0007324638 -0.005259819 -0.010669274 -9.6840464e-05 -7.180686e-05 -0.001162276
-0.0013985392 -0.001372715 -2.3556472e-06 8.57909e-08 -0.0024819253 5.361929e-07 -0.0012403068 1.6529587e-07
-0.00017266384 -8.4825486e-05 -1.8839527e-08 -0.0001452492 -0.008566021 -0.0099765835 -0.006974091 -0.0039052106
-0.0005646037 -0.00012151441 -8.260515e-05 -4.47822e-09 -0.0006054045 -0.00026274176 -2.9874895e-05 -0.00045523836
-8.420399e-06 -0.00013502644 4.5434437e-37 0.0 1.5083713e-05 -1.5173514e-23 0.0 6e-45
-0.00089182635 -0.00301097 -0.0004411283 -0.00010189195 -0.0043798448 -0.0023560738 -0.0007947898 -0.00019157154
-0.0018698641 -0.0005274978 -0.0013739931 -0.00038704436 -0.00069244433 -0.00029689274 -0.0019280979 -6.609771e-05
-2.6705177e-06 -1.0645156e-06 -2.0452594e-06 -5.8969994e-07 -1.195494e-07 -4.3501183e-05 -4.6473902e-05 -6.6018314e-05
-3.1322506e-05 -9.419612e-08 -0.00017334652 -0.00014196467 -0.00021766094 -0.0001425033 -0.0001405563 -9.8918696e-05
-0.0026850128 -0.0047244593 -0.005365495 -0.0040051118 -0.005289588 -0.0024654937 -0.0042902664 -0.00479979
-0.0034119282 -0.0039154636 -0.0048040645 -0.004823515 -0.0012111202 -8.5376196e-05 -9.847801e-06 -0.00014367371
-0.0015197549 -0.00063283334 -0.0011270145 -0.0021078247 -0.00075485907 -0.0005403482 -0.00059845037 -0.004412098
-0.0006005845 -1.9286566e-05 -0.00048856105 -0.0029304998 -4.240313e-05 -2.4289764e-06 -0.0026491908 -0.002451393
-7.509079e-05 -0.0017606833 -0.00030193833 -0.005063848 -0.007181804 -0.0028985902 -0.0034967747 -0.0027330604
-0.006434396 -0.0035073857 -0.0010475738 -0.00057326327 -0.019977918 -0.00014810893 -0.0004621524 7.003763e-05
-0.0037835569 -0.005097128 -0.0007748367 -0.00012420308 -2.3317378e-08 -2.4982722e-07 -0.0017516396 -0.0010178318
-0.007262937 -0.008479698 -0.01084211 -0.008386317 -0.00055310933 -0.0028913356 -0.0051085167 -0.0022363274
-0.003428546 -0.006180342 -0.0070520816 -0.011432357 -0.012495527 -0.00416482 -0.009051858 -0.009251482
-0.01855288 -0.012595403 -0.023745265 -0.012252683 -0.008087706 -0.00042526572 -0.00050711335 -0.0030675568
00000000: e5c2 35bb d8eb 56bb 60d1 54ba 7a5f eaba
00000010: c78d b9bb 9cab e6bb e0bd a5bb 14bc d9bb
00000020: 10ba 2eb8 8da3 8eb8 a9b9 38b9 1c00 71b9
00000030: 3649 e0ba a44d 9bb3 8136 f8b7 4c0b a8b9
00000040: 9d3a d7ba 2212 e3bb fe9a a8bb 3b45 16bb
00000050: de8b 1cbc 7562 6abc f8b2 9bbb 9736 d6ba
00000060: 7b3e d9bb 68d5 4ebc f28c efbb 9476 1abc
00000070: bfd2 c8b8 0c01 c2bb f00e 6f37 25c7 67b9
00000080: 08c6 86ba f00a 83bc 2337 2cbc 12b4 68bc
00000090: 4c34 f1bb fcac b5bc 333f d9bb 32e9 48bc
000000a0: d935 0abb f999 bdbb 55ce cebb cc74 eab9
000000b0: 1ccb 84ba 7130 3ebc 2729 f0b8 7bc5 1fb8
000000c0: 7247 beb6 5dac 77ba 9130 40ba be69 d0b9
000000d0: 28b2 3633 4d83 62ba 9151 bfb9 4001 75b9
000000e0: 9a2e 36b9 5e82 31b9 1924 42ba 7fd1 a3ba
000000f0: 7c8e 46ba e45c 10ba 577a 47ba b283 4cba
00000100: 80fb 99bb 804d 522f 0e04 66af 494c 0538
00000110: c490 1eb8 c5ef d22f 8e00 cbaa 62c2 89b6
00000120: 9bbc 65b5 4435 d7a7 f241 84af 483b 76b7
00000130: 8a20 4dac 3943 08b9 758a 8cbb 5bfd 95bb
00000140: 8477 c2ba 3c9f 3ab9 36f5 ccb8 e087 16b5
00000150: 0e57 aeb7 aa38 19b5 5ec0 32b7 1107 e4b7
00000160: 674b c7bc 6b78 94bc 8c5e 4abc ccad 1ebc
00000170: d54d bfbb c7b7 a3b9 9716 85bb c4aa 4eba
00000180: d2e8 d8bc a401 c6bc 8dd5 6fbc bb20 a1bc
00000190: d5f1 d7bc fea4 6fba b2f2 d8ba 16b7 5dbb
000001a0: 5aa1 b4bb 519a 9db9 d002 40ba 8f5a acbb
000001b0: 2ece 2ebc d416 cbb8 0497 96b8 8357 98ba
000001c0: 304f b7ba acec b3ba b615 1eb6 0c3c b833
000001d0: cca7 22bb e5ee 0f35 ca91 a2ba 2f7c 3134
000001e0: 190d 35b9 56e4 b1b8 8fd4 a1b2 094e 18b9
000001f0: 7f58 0cbc d374 23bc ea86 e4bb 90ee 7fbb
00000200: ea01 14ba 8dd5 feb8 4d3c adb8 d7de 99b1
00000210: 02b4 1eba 9ac0 89b9 d99b fab7 0fad eeb9
00000220: 5745 0db7 e295 0db9 fa9a 1a03 0000 0000
00000230: 0e10 7d37 cdbf 9299 0000 0000 0400 0000
00000240: 74c9 69ba b253 45bb 3d47 e7b9 d3ae d5b8
00000250: cd84 8fbb 5c68 1abb 7159 50ba 98e0 48b9
00000260: 3a16 f5ba c747 0aba 8f17 b4ba 37ec cab9
00000270: 2785 35ba 45a8 9bb9 3bb8 fcba f09d 8ab8
00000280: 2537 33b6 7ae0 8eb5 4a41 09b6 df4b 1eb5
00000290: 7d5d 00b4 0a75 36b8 f9ec 42b8 5073 8ab8
000002a0: 4960 03b8 dd48 cab3 5ac4 35b9 5adc 14b9
000002b0: ea3b 64b9 f06c 15b9 4b62 13b9 9272 cfb8
000002c0: 0af7 2fbb a3cf 9abb 09d1 afbb 503d 83bb
000002d0: 4854 adbb 1f94 21bb 5d95 8cbb 8f47 9dbb
000002e0: a89a 5fbb 4a4d 80bb 6a6b 9dbb 940e 9ebb
000002f0: 73be 9eba ff0b b3b8 fc37 25b7 1ea7 16b9
00000300: 8332 c7ba bae4 25ba 55b8 93ba 6e23 0abb
00000310: bce1 45ba 27a6 0dba 53e1 1cba 5c93 90bb
00000320: 8b70 1dba 96c9 a1b7 c712 00ba a10d 40bb
00000330: 04da 31b8 7f01 23b6 0c9e 2dbb 8da7 20bb
00000340: 107a 9db8 bac6 e6ba 7a4d 9eb9 a3ee a5bb
00000350: 5755 ebbb 46f6 3dbb 252a 65bb 251d 33bb
00000360: a0d7 d2bb 2bdc 65bb be4e 89ba 0c47 16ba
00000370: bba8 a3bc b04d 1bb9 0c4d f2b9 2be1 9238
00000380: 8df5 77bb cf05 a7bb 691e 4bba 833c 02b9
00000390: 754b c8b2 fe1f 86b4 4697 e5ba c568 85ba
000003a0: eefd edbb 6eee 0abc 1ba3 31bc c366 09bc
000003b0: 8afe 10ba 907c 3dbb 5865 a7bb 598f 12bb
000003c0: 75b1 60bb 7784 cabb 2615 e7bb c84e 3bbc
000003d0: 0aba 4cbc 0b79 88bb 3f4e 14bc 8793 17bc
000003e0: 36fc 97bc f35c 4ebc 6e85 c2bc 7abf 48bc
000003f0: 4c82 04bc 33f6 deb9 cdef 04ba 1009 49bb

momentum_buffer f4 [50]
-0.004146515 0.00018755716 -0.0040281555 -0.013047603 -0.0022723267 0.0005014336 -0.00907807 -0.01877515
0.010781938 0.0030776344 -0.00226693 -0.009443222 -0.00052825076 -0.00043146938 -0.013411681 -0.031649515
0.00037535335 0.00015699811 -0.004156401 -0.003378469 -0.007836447 0.0035262902 -0.0042810803 -0.0037558153
-0.002079291 -0.0034080956 0.02113602 -0.006999881 0.0037373062 -0.0016013529 -0.0033975407 -0.0048885373
-0.0056522526 -0.009621126 -0.014415094 0.00949252 -0.0010708023 -0.000518688 0.0028480978 -0.0028325843
0.008228407 -0.0036406943 0.0059281425 -0.006613815 -0.0014970251 -0.0007796353 -0.007292375 -0.0075786454
0.00075000525 0.020733846
00000000: 7ddf 87bb feaa 4439 9efe 83bb 9dc5 55bc
00000010: 51eb 14bb a472 033a 2fbc 14bc 58ce 99bc
00000020: baa6 303c 23b2 493b c690 14bb beb7 1abc
00000030: 4f7a 0aba d736 e2b9 abbc 5bbc eca2 01bd
00000040: 13cb c439 dc9f 2439 6b32 88bb 4e69 5dbb
00000050: 7164 00bc 5519 673b 4e48 8cbb 2024 76bb
00000060: b744 08bb 5b5a 5fbb 7225 ad3c 425f e5bb
00000070: 98ed 743b 7de4 d1ba 46a9 5ebb 0630 a0bb
00000080: 8836 b9bb eda1 1dbc 492d 6cbc 8486 1b3c
00000090: 2a5a 8cba 90f8 07ba 27a7 3a3b e1a2 39bb
000000a0: 71d0 063c b798 6ebb dd40 c23b b4b8 d8bb
000000b0: d437 c4ba 7060 4cba e0f4 eebb 4956 f8bb
000000c0: 009c 443a 07da a93c
