checkpoints/task-003.pth (torch, 179983 bytes, 16 tensors)

conv1.weight f4 [10, 1, 5, 5]
00000000: c147 f2be 20e6 9f3e 1eca 353f 3ca7 25bf
00000010: d7ae 0ebf 02ff aa3b 7aeb 503d 4f6f 363f
00000020: 2a84 5dbe 4eaf 89bf 48a6 f53c 0288 ec3e
00000030: bd23 a63e 6809 dfbd 2963 3fbf 525a aa3e
00000040: 8d8e e7bd 3848 0abe c52b 16bf 7ba5 d6be
00000050: 0344 483e a322 1abf 1f9c c9be 6b4e f8be
00000060: 81cd d1be 3835 dfbd 6d1e ecbe 31be b8bd
00000070: 4521 aebb 3fbc 68bd 7a88 b0be e42f ddbe
00000080: f2c0 8abe 531e 9a3e f9cc 733e 744c fdbb
00000090: 0c92 eb3d ee35 853f 3441 b23d 1423 85bf
000000a0: 7ac5 443f ac30 363f 6733 603e 5427 a6be
000000b0: 6f63 86bf 118a b7be 5109 36bf 139f 69bf
000000c0: 4374 71bf 8996 ecbe 1ee9 1d3c ad1b a7bd
000000d0: 0122 6bbd 911c 9a3c efd0 813e 50e1 213e
000000e0: e2cb b3bb cfb9 08be 9f26 a4bd 3757 49bd
000000f0: 6956 b33c 4bfc dabd a213 94bc 1159 cbbd
00000100: 0147 febd 61e1 483e bb66 e0bd df4f 13be
00000110: 2bfc 59be 8738 6dbc 0bb5 2d3e b813 1a3e
00000120: 7241 88be 4102 a5bd ab87 693e 6821 12bf
00000130: d543 4bbf 9694 3cbd f552 eb3e c3c1 153e
00000140: e437 26bf 0b62 d4be f7d1 7d3e e4d4 573f
00000150: 9e07 5ebd be55 61bf 17b9 fbbe ce05 64be
00000160: 486a 813f e395 15be 3815 0dbf 5d47 bbbc
00000170: b7a7 48be 3e18 313f 1680 c8bd cb15 2c3e
00000180: 2b93 d0bc 2a97 7bbe 8c13 643f 3b2f 493f
00000190: 9021 6fbc d7ca 123e 1ef9 a0be e850 123e
000001a0: 370c 573f db91 6bbf ef75 1cbf a4eb 90bf
000001b0: 4a17 6dbf 77dc 423e ca73 75be 07e7 9b3e
000001c0: 95fa e2be da68 3ebf 7c28 8abf 09c6 c23c
000001d0: a8c0 a63e b1f7 103e c25a 36bf 8195 0abf
000001e0: ed41 82bc 2772 78bd d526 753f f156 4d3f
000001f0: b290 873f 76e6 88be 5992 773e 6c1a 833e
00000200: 6cec 583f 0ff4 1d3f a88a c3be 5841 15bf
00000210: c6d8 b6be 7146 bebc d0aa ea3e 1bb0 3bbf
00000220: 1755 86be 38a1 55be 296a 1bbe 81ae 813c
00000230: 7e11 f1be cf26 79be 3066 1dbf 11f3 70bf
00000240: ff1c 62bf 0844 3fbe 4125 de3d 358d eabc
00000250: 7e6d 57be 3d62 cc3c 9663 3a3e 6615 f4bd
00000260: 9c0e a4be 89cb aebd 06bb e83e 2d3c bd3e
00000270: 62ad 673f 651a 1b3f 4759 483e 8c15 203f
00000280: af79 a3be f94d 663e 9fb7 8b3d 9aea 1b3f
00000290: 5c3f b7be 8a51 72bf a8c5 44bd 0250 293f
000002a0: e15f 87bb 7794 68bf 9b31 c2bf 85ce bdbf
000002b0: 5fab c0bf 0995 bfbf d681 633e e259 023f
000002c0: caa2 a4be 6e37 55be d383 f8bd 1b5c dcbc
000002d0: f7da db3d f1b5 debe a6a7 6cbf 1cea 44bf
000002e0: 5e5b 8bbe 30f0 353f 7f1c 543f de3d 04bf
000002f0: f85b dabe 5adc 283f 56d4 f6be 172b c43f
00000300: 647b dabb 0866 aebe 51e2 94be e039 e6be
00000310: 971d 673e 8ca3 c93e a439 133d db29 9e3e
00000320: 4799 9c3e 1c85 eebd 8c67 10be 8daa 0abf
00000330: d379 8bbf 6b6d bc3e 59f4 92be 2763 50bf
00000340: 5606 08bf 2eae f0be 0c89 01bc 35b3 88bf
00000350: c289 25bf adf1 e1bd 77b5 093e b9d1 babe
00000360: 8a60 6cbf 8eda a83b 5569 c3be 919c 8c3f
00000370: 2fdd 88bf 1863 b1be 1543 8abe 94a1 60bd
00000380: bc74 3a3f 0175 97bd d52a 883c dbca 06bd
00000390: 9a03 05bd cf39 6b3d 9f65 dcbc 3878 42be
000003a0: baf3 1ebe c88a 3abe 0fea 983d e1bc 293e
000003b0: 558a 0fbe 6089 393e a8ea 51bd a5a6 433d
000003c0: c4d9 bebd fb84 52bc dd8f 1d3d e830 b5bd
000003d0: 635f d23c d745 e53d 864a 21be 669b b23c
000003e0: 9d82 edbc 95b6 7dbd
-0.4732037 0.3123026 0.7101153 -0.64708304 -0.55735534 0.0052183876 0.051005818 0.71263593
-0.21632448 -1.0756624 0.029986516 0.46197516 0.3244914 -0.10890466 -0.7476068 0.33272034
-0.11306486 -0.13504112 -0.58660537 -0.41923127 0.19557194 -0.602091 -0.39376923 -0.48497328
-0.409771 -0.108988225 -0.46116963 -0.09020651 -0.0053140246 -0.05682015 -0.34479123 -0.432006
-0.2710033 0.3010126 0.2380866 -0.007730061 0.115024656 1.0407083 0.08703843 -1.040133
0.76863825 0.7116802 0.21894608 -0.3245188 -1.0499095 -0.35847524 -0.71107966 -0.91258353
-0.94318026 -0.462086 0.009638099 -0.081595756 -0.057405476 0.01881245 0.25354716 0.15808606
-0.005486951 -0.1335213 -0.08015179 -0.04915544 0.02189179 -0.10692652 -0.018075768 -0.099290974
-0.12415887 0.19617225 -0.10957094 -0.14385937 -0.212876 -0.014478809 0.16963594 0.15046585
-0.2661243 -0.080570705 0.2280566 -0.57082224 -0.7940038 -0.04604014 0.4596173 0.14624695
-0.6492903 -0.4148105 0.24787126 0.8430922 -0.054206483 -0.8802146 -0.4916465 -0.2226784
1.011056 -0.14607958 -0.551105 -0.022861177 -0.19595228 0.69177616 -0.097900555 0.16805188
-0.0254608 -0.24569383 0.89092326 0.7858769 -0.014595404 0.1433519 -0.3144006 0.14288676
0.84003013 -0.9201943 -0.6111745 -1.1321912 -0.9261366 0.19029413 -0.23969951 0.30449697
-0.44331804 -0.7437874 -1.0793605 0.023776071 0.3256886 0.14156987 -0.71232235 -0.54134375
-0.015900576 -0.06065574 0.9576238 0.8021079 1.0591033 -0.26738328 0.24176921 0.25606096
0.8473575 0.6170053 -0.38191724 -0.5830283 -0.3571226 -0.023226948 0.45833445 -0.7331559
-0.26236793 -0.20862281 -0.15177216 0.01583028 -0.47083658 -0.2433121 -0.6148405 -0.9412089
-0.88325495 -0.18678296 0.10846949 -0.028631786 -0.21037862 0.024949187 0.18202052 -0.11918144
-0.32042396 -0.08534915 0.45455188 0.36959973 0.90498936 0.6058715 0.19565307 0.6253288
-0.31928775 0.22490682 0.06822132 0.6090485 -0.35790527 -0.9465567 -0.048040062 0.6613771
-0.0041313027 -0.9085154 -1.5171388 -1.482865 -1.5052298 -1.4967357 0.22217497 0.509184
-0.32155448 -0.20821926 -0.121345185 -0.026899388 0.107351236 -0.43498185 -0.9244331 -0.7691972
-0.27218145 0.7106962 0.8285598 -0.516569 -0.42648292 0.6596123 -0.48208874 1.532565
-0.0066675413 -0.3406222 -0.29078916 -0.4496603 0.22569881 0.3938259 0.035943642 0.30891308
0.3058569 -0.11646482 -0.14102 -0.5416649 -1.0896553 0.3680223 -0.28702047 -0.81401294
-0.5313467 -0.4700789 -0.00790621 -1.067969 -0.64663327 -0.11032424 0.1344813 -0.3648813
-0.92334807 0.005153007 -0.381663 1.098528 -1.06925 -0.34645915 -0.27004305 -0.054841593
0.7283437 -0.073953636 0.016621986 -0.0329083 -0.032474138 0.057428177 -0.026903925 -0.18991172
-0.15522662 -0.18217003 0.07466518 0.16575958 -0.14017613 0.1811881 -0.051249176 0.047766346
-0.09318879 -0.012849088 0.038467277 -0.08847219 0.02568025 0.111949615 -0.15751085 0.021802615
-0.028992945 -0.061941702

conv1.bias f4 [10]
00000000: d506 54bf 32f6 33bf 5dc8 6cbe ad35 1dc0
00000010: d0ad 85bf 7517 17be f3b0 3fbf adbf 84bf
00000020: 7094 01bf 6fc6 54be
-0.82822925 -0.7029754 -0.23123308 -2.456401 -1.0443668 -0.14755042 -0.7487938 -1.0370995
-0.5061712 -0.20778821

conv2.weight f4 [20, 10, 5, 5]
00000000: 79eb 893e 4be0 1d3e 37b8 bb3e 2d9e 99bd
00000010: 74fc 91bd 17cc 19be 9944 95be f754 e0be
00000020: dc5d 14be b11c 563c 13e3 c1be f432 8ebe
00000030: c83d 283d dc52 81be 497c e9be 0c1c d6be
00000040: 7dcf 343e 3dae 8a3e 8c0e 1b3e 2b1a fcbd
00000050: 2ab9 13bd 2b79 8ebd 640e 073e 8b26 af3e
00000060: 9b0c 9f3d f344 69bc 189b 15bc fa00 1e3d
00000070: 0b5b 4e3e 37ac 283e cc5c 19bc b296 12bf
00000080: d558 00bf b975 27be f4aa 53be 4698 bcbc
00000090: ba67 5abe eec0 82bd b081 3dbe babf 58be
000000a0: a922 803e 3d50 d93e e156 4fbd 4558 ccbd
000000b0: 72a8 363e 0d0f c93d e62a 9cbd dcf4 bf3d
000000c0: 6b30 22be 9943 37bd 503f 743d c2c0 32bd
000000d0: d5a3 4cbd b0ce aabb 6581 f8b8 b17f 41bc
000000e0: 80c7 38bd be3e 70bd 9218 0cbd 432e e237
000000f0: ebb1 de3d 1503 f13d f565 5f3d b6b9 01ba
00000100: 717d 8abd 9d29 943b 9a36 e23c 0e8f 1dbd
00000110: 184c f3ba 296c 293c 7a41 1f3c d82a 1dbd
00000120: 260e 1ebd 8699 64bc 51ba 2dbd a093 443d
00000130: bbca 6d3e acf1 ae3e 4311 873e 5da2 50bd
00000140: 0df6 fcbe bc3d eebe eda9 7fbe 3b97 183d
00000150: 2b62 a1be e9d3 0dbf 4269 4bbe 18be 15bd
00000160: 741d b9bd 9a92 c8be eae7 15be ac5e 44bd
00000170: de9c bcbd 880f cdbc 3909 e03c 7a91 f7bd
00000180: 71f1 7a3e 7c44 ab3d 57d2 28bd 3c94 3bbe
00000190: 0413 83be 61ee 1fbf c001 d3be 9009 adbc
000001a0: e2de 593c b9f4 ddbe 8d03 d4bd 2935 ed3e
000001b0: 3967 c53c 139d 97be c589 1fbe 6c99 523f
000001c0: 3570 0d3f 0bb0 e1bd c170 3d3e 6cf7 f03d
000001d0: 58de f13e c2d2 533e 831e d23d 71af db3e
000001e0: 01d7 19bf 10db 04bf bc17 8ebd 3302 e4bd
000001f0: afa4 a5bd c582 f1be 1166 98be 414a 27be
00000200: c910 e2bd da03 963e a79f 12bf d306 da3c
00000210: d1a1 443e f49a a33e c7b4 1e3f af5f 26bf
00000220: 188b 1a3c 5671 a23e d5ef 52bd f756 c5be
00000230: c53b d23c 3fc6 d6be e114 f4be aacb 94be
00000240: 13eb b2be de6b f6bb 9bcc 82bd 9459 febd
00000250: 4339 1d3d a217 b63e 5152 11bf 0c70 94be
00000260: c6ce 52be e321 51be d4f7 ac3e 1652 43be
00000270: 1454 4abe 5649 04be f8d5 bc3e 37c7 853e
00000280: 8d05 00bf b920 64be c2c0 eb3d 5f3c d93d
00000290: 0dce b7be 7c1a 803d a089 ebbd 07aa b9bd
000002a0: 84be ce3b ac1f 90be de49 e93e 4772 d43c
000002b0: bd43 f63d 416f f8bc a9ea bf3d d186 783d
000002c0: 9ef7 f7be 7a77 9b3c 238a 56bd 4e98 57be
000002d0: faf9 e0bd 6fb4 f6bd 584e b73e 9afe 85be
000002e0: 4686 aabe 86e1 973e 862c d53c 32af 22be
000002f0: aaf1 35be d7f9 68bd 35ea 8f3e 2668 0e3d
00000300: 51f7 e2bd 7225 9d3e 7add 3b3e ad62 643d
00000310: 0a05 49bb 5036 143e c52d c23d 4f07 30be
00000320: 5ebf d9be 20d6 c63d 9521 133f a5ea 9d3e
00000330: 4609 c93c ca82 d1be f922 84be 95ba 35be
00000340: 1f3e e2be 8ddb 1bbf 05ad 51be ac6b e3bd
00000350: 153a 3cbe 8f95 ecbb c3c2 5ebd eacc e8bd
00000360: d49b 693e ae37 093f 3488 cf3e b8ee 5a3e
00000370: cb41 04be a927 9cbe 1cbc bebc 45f3 40bd
00000380: 68a3 ebbd cd8e 34bd a347 cc3b 77bb 4c3d
00000390: 2d51 14bd ef11 e9bc 8770 afbb 0720 8e3c
000003a0: d82c 6abd 88a0 7a3d 0e79 b93c deb3 163d
000003b0: bd2f d63c ca92 5bbd 5505 42bd 5cbf 3f3d
000003c0: 6eb4 5bbd 3405 2b3d c3d9 b2bc 1c34 5e3d
000003d0: e571 143b 5e64 69bd 362d f73b f850 783d
000003e0: 0069 0abd f134 fabc 7d14 46be d258 98be
000003f0: 6810 c9bd f5a4 203d 9bce 9c3e 3d1a c4be
0.26937464 0.15417592 0.36663982 -0.07500873 -0.0712823 -0.1501926 -0.29153898 -0.43814823
-0.1448893 0.013068364 -0.37868556 -0.2777325 0.041074544 -0.2525853 -0.45602635 -0.41818273
0.17657275 0.27086058 0.15142268 -0.12309679 -0.036065258 -0.06956705 0.13189083 0.34209093
0.07766076 -0.01423763 -0.0091312155 0.03857515 0.20151918 0.16471945 -0.009360503 -0.5726119
-0.50135547 -0.16353501 -0.20670682 -0.023021828 -0.21328631 -0.06384455 -0.18506503 -0.21166888
0.25026444 0.4244403 -0.050619964 -0.099777736 0.17837694 0.09817324 -0.0762537 0.09372875
-0.15838782 -0.0447422 0.059630692 -0.04364086 -0.04996093 -0.0052126274 -0.00011849663 -0.011810229
-0.045112133 -0.058653586 -0.03420312 2.6962842e-05 0.10873779 0.11768166 0.054540593 -0.00049486326
-0.06762207 0.0045215623 0.027613927 -0.038466506 -0.0018562106 0.010340729 0.009720201 -0.038370937
-0.03858771 -0.013952618 -0.042414013 0.04799235 0.23221867 0.34168756 0.26380357 -0.05093609
-0.49406472 -0.46531475 -0.24967165 0.0372536 -0.3152021 -0.55401474 -0.19864371 -0.03655824
-0.09038821 -0.39174348 -0.1463925 -0.04794185 -0.092096075 -0.02503182 0.027348148 -0.12088294
0.24506165 0.08362672 -0.04121622 -0.18318266 -0.25600445 -0.6247311 -0.41212273 -0.021122724
0.013297768 -0.4335077 -0.1035224 0.4632962 0.024097072 -0.29612026 -0.15579899 0.82265353
0.5524934 -0.11019906 0.18500043 0.11765942 0.47239947 0.20685866 0.10259726 0.4290729
-0.60093695 -0.5189676 -0.06938121 -0.11133232 -0.080880515 -0.47170082 -0.2976537 -0.1633692
-0.11038358 0.29299814 -0.5727486 0.026614582 0.19202353 0.31954157 0.61994594 -0.6498975
0.009432577 0.31727093 -0.051498253 -0.3854291 0.025663266 -0.41948125 -0.4767218 -0.29061633
-0.34944972 -0.007520183 -0.06386682 -0.124194294 0.038384687 0.35564905 -0.5676623 -0.28991735
-0.2058669 -0.20423083 0.33782828 -0.19074282 -0.19758636 -0.129186 0.36881995 0.2612855
-0.5000847 -0.22278108 0.11511375 0.10607218 -0.35899392 0.062550515 -0.11500859 -0.09065633
0.0063093323 -0.28149164 0.4556417 0.025933398 0.12024639 -0.030326487 0.0937093 0.060675446
-0.48431104 0.01897787 -0.05237783 -0.21054193 -0.10985179 -0.12046134 0.3580196 -0.26170808
-0.33305568 0.29664248 0.026022207 -0.15887144 -0.17767969 -0.05687889 0.28108373 0.034767292
-0.11082328 0.3069263 0.18346205 0.055758167 -0.003067317 0.14473844 0.09481386 -0.17190288
-0.42528814 0.0970881 0.5747312 0.30843082 0.024540555 -0.40920097 -0.25807932 -0.17746957
-0.4418802 -0.6088188 -0.20476158 -0.11104521 -0.18381532 -0.007219977 -0.054384958 -0.11367209
0.2281335 0.53600585 0.40533602 0.21380126 -0.12915723 -0.30499008 -0.023283057 -0.047107
-0.11505777 -0.044081498 0.0062341257 0.049983468 -0.036210228 -0.028450934 -0.0053539905 0.017349256
-0.057171673 0.06118825 0.022640731 0.03679263 0.02614581 -0.053606786 -0.047368366 0.046813354
-0.053638868 0.04175301 -0.021832353 0.054248914 0.0022650894 -0.056980483 0.0075432314 0.060624093
-0.033791542 -0.030542823 -0.19343753 -0.29755265 -0.09817582 0.039219815 0.30626377 -0.38301268

conv2.bias f4 [20]
00000000: 5d6c 39bf 12dc 8a3c d968 e3be f957 1e3d
00000010: 893e 773c d00f 5ebe 1ab2 f4be cb47 93be
00000020: 6c2e a7bd efeb d2bd da27 263e 188d e1bd
00000030: e6e0 d8be 972e a5be 411a 843e cf38 cc3d
00000040: d46a 3fbe f067 6bbe c0b0 47bd 7938 b4be
-0.72430974 0.01695064 -0.4441593 0.038658116 0.015090593 -0.2168572 -0.4779213 -0.2876571
-0.08163151 -0.10298907 0.1622614 -0.110132396 -0.42359084 -0.32262108 0.2580128 0.09971773
-0.18693095 -0.22988868 -0.048752546 -0.35199335

fc1.weight f4 [50, 320]
00000000: 2d55 a23e 212f d33b 6b5b 643d 7b6d 113e
00000010: 18fb 1f3e f19a 6cbd 8c21 25be 59ce 413e
00000020: 1dab 513d 149d e1be a59c c6bd 37a6 813d
00000030: a1f8 5ebe 680a 89be 0ded 8a3d ae44 883d
00000040: 73db 0abe 9234 74ba 1b8a 473d aa0b 823d
00000050: dcce 12bc 6f0c 4ebd 534b b53d 0ad4 cf3d
00000060: 10a4 73be e674 13be 1370 23be 5543 cdbd
00000070: 4a58 cebd d876 99bd cd10 263e 900b 353a
00000080: 8794 6ebb 3f05 893c 1f0b 0b3e 6a45 44bd
00000090: 661f a1bd 9bb8 69bd 1bd7 debb b320 443e
000000a0: 051a 8abe ee0f f5bc 6417 9b3d 8a60 b1bd
000000b0: a09b 70bd 1d70 3abd df35 2b3c 54f1 423e
000000c0: 3d6e dd3d 2de0 f03d 4629 24be b2a3 ccbd
000000d0: 5954 82be 3fa0 93be 1583 47bd 599f dcbc
000000e0: 99d0 a63e 0f58 d63d ec37 10be 20ed 2ebe
000000f0: 6d24 733e 47a5 673e d3f9 36be ec51 99bc
00000100: 14f1 0fbe 0f37 babe 9c81 7dbe 38f1 823d
00000110: 7904 d4bd f279 a13d 5f1a 643e 7286 a7bd
00000120: 4d51 dc3d f223 a53d 845d 5bbd 9afb 89be
00000130: 7a21 e1ba 727c bfbd 62c3 903d c186 283c
00000140: b413 30be b0ab 123d e4b4 123d 3de3 d8bc
00000150: 3962 233e bc1e 54bd 10b2 623b ccd8 913d
00000160: ebb4 c53e da14 193c 32c7 94bd 3eed 06bd
00000170: 8bcd 81be b685 41be a60c 3d3d 313b 203e
00000180: e002 783e 4fdd d8bc 13fc 083d 307e c1bc
00000190: cf7f babd c1a0 0bbe fd63 79bd 8fcf 9b3e
000001a0: edd5 893e 9e33 623d 77ee 4cbe 7aaf 013e
000001b0: c716 5dbe df87 67be bd96 57be cee1 f63d
000001c0: 4f37 113d 78b9 053e eb44 ce3d 0563 e93d
000001d0: 1a90 9a3e 934f f3bd 23a8 32be 8634 7abc
000001e0: aed0 e1be 073b 88be 5e79 05be 05b2 013e
000001f0: 55e2 abbc b89f 20be e77c c13d 8cf4 923e
00000200: 0205 f83d 6f53 783e f2ab d03d 8aa1 1b3e
00000210: 2854 f63d fc8c 403e 3f80 26bd 30e5 22be
00000220: 639d 42be dcd5 2e3d 4968 debd fd83 ec3d
00000230: cfe5 68be 1855 2cbe 4ab3 d0bc 0bde 023c
00000240: ecae 33bd 3c40 243d 4e7b e43d 692b 0d3c
00000250: f479 7c3e 522e e23d 52f8 59bc 879e 59be
00000260: 1dc8 65bc e52d 43be 9e11 3ebe 1143 5d3d
00000270: 0322 c23d 6a03 5cbd 4940 37bd 681f 9a3e
00000280: a520 48be d4f2 0cbe 93e5 98bd fed4 45be
00000290: 4f06 5f3e a75c 603e 07ba cebb 878d 92bd
000002a0: d0b5 963d aa38 0d3d 3740 80bd 8f33 02bd
000002b0: b63e b53d a0f1 fbbc ae4f 8fbe ec8c ea3d
000002c0: 4a7a b83d 70c4 00bc 16ea 0dbe 54e0 b2bd
000002d0: 4238 f6be f756 55be e00e 42be 78b5 9b3e
000002e0: cd3e fabd ce21 613e 5ac0 17be d068 8a3d
000002f0: 6221 703e 06d8 88bc 5e90 8c3d b3d3 d6bd
00000300: 8096 073c 24b2 38bd 93f5 81bd 1b43 3dbe
00000310: 800e 293e b217 503e 914e f0bb 6c78 7dbe
00000320: fbe6 183e 776b fbbc 3662 b7bd f2cb ec3c
00000330: e492 d5be d0d0 91be cfb6 473c 7be2 db3d
00000340: 32c4 fb3d d928 f7bb 8272 2a3e 8ffe 36bd
00000350: 2316 8abd 9a26 33bd d584 1bbd 604e 623c
00000360: 6e9b a0be 4163 70be 06ea 553e e6c3 833e
00000370: f052 9fbd 1683 6bbe 7cc9 cebd 23e6 1cbe
00000380: 1a58 753d aa81 8dbe ea9d 83be 6b1e f93d
00000390: b563 96be 8b12 32bd b2f9 5d3e 10a5 f93d
000003a0: 1dc3 9a3e e642 d63d 3708 c1bd 4c4e 40be
000003b0: 27fd ee3d 7ce9 823e 1797 96bd 98c5 dcbc
000003c0: cafb aabd 2478 0d3e 53c0 aabe f260 80be
000003d0: cd37 9cbe 2da7 9abe 9fb1 653e d5e6 c33d
000003e0: 0892 783e f10f 90bd 06b1 073e d419 4dbe
000003f0: fba0 95bc 4218 27be b35b d53d 74e9 363d
0.3170561 0.006444827 0.055751245 0.1420192 0.15623128 -0.05776495 -0.16126078 0.18926372
0.051188577 -0.44065154 -0.09697846 0.06330531 -0.21774532 -0.26765752 0.06783495 0.066537246
-0.13560276 -0.0009315695 0.048715692 0.06349881 -0.008960452 -0.050304826 0.088522576 0.10147865
-0.23793054 -0.14400062 -0.15960722 -0.10022608 -0.100754336 -0.07493371 0.16217346 0.0006906325
-0.0036404447 0.016726134 0.13578461 -0.04791776 -0.07867317 -0.05706082 -0.006800545 0.19153099
-0.26972976 -0.029914822 0.07572821 -0.086609915 -0.058742166 -0.045517076 0.010449856 0.19037372
0.10812042 0.11761508 -0.1603137 -0.0999216 -0.25454977 -0.28833196 -0.048708994 -0.026931452
0.32581022 0.104660146 -0.14083833 -0.17082644 0.23744364 0.22621642 -0.17868738 -0.018715821
-0.14056808 -0.3637013 -0.24756473 0.06393665 -0.103524156 0.07884587 0.22275685 -0.0817994
0.107576944 0.08063497 -0.05355598 -0.2694977 -0.0017176114 -0.09349908 0.07068516 0.010286034
-0.17195016 0.035808265 0.035817042 -0.026475543 0.15955438 -0.051787123 0.0034590997 0.07121429
0.38614592 0.00934335 -0.07264556 -0.032941096 -0.2535213 -0.18898663 0.04615464 0.1564758
0.24219847 -0.026472716 0.03344352 -0.023619741 -0.09106409 -0.13635541 -0.060886372 0.30431792
0.26921025 0.055225007 -0.20012842 0.12664595 -0.2159072 -0.22610424 -0.21053596 0.120547876
0.035453137 0.13059032 0.10071739 0.113958396 0.30188066 -0.11880412 -0.17446952 -0.015271312
-0.44104522 -0.26607534 -0.13034579 0.12665565 -0.020981947 -0.15685928 0.09447651 0.287022
0.1211033 0.24250577 0.10189046 0.15198341 0.1202777 0.18803781 -0.04064965 -0.1590774
-0.19005351 0.04268442 -0.108597346 0.11548612 -0.22743915 -0.16829336 -0.025476117 0.0079875095
-0.04386799 0.04010032 0.11156331 0.008616307 0.24655896 0.11043991 -0.013303833 -0.2125188
-0.0140247615 -0.19060476 -0.18561408 0.054019038 0.094791435 -0.053714193 -0.04473904 0.30102086
-0.19543703 -0.13764507 -0.07465663 -0.19319531 0.2177975 0.21910344 -0.0063087973 -0.071559004
0.07358897 0.034477867 -0.06262248 -0.03178745 0.08849852 -0.030754864 -0.27990478 0.1145266
0.090077 -0.007859334 -0.13858828 -0.087341934 -0.48089796 -0.20833956 -0.18950987 0.30411887
-0.122190095 0.21985552 -0.1481947 0.06758273 0.23450235 -0.01670457 0.06863473 -0.10489597
0.008275628 -0.045091763 -0.06345668 -0.1848263 0.16509438 0.20321539 -0.0073335846 -0.24752969
0.14931862 -0.030690892 -0.08954279 0.028905842 -0.4171363 -0.28479624 0.012189581 0.10736557
0.12293281 -0.007542711 0.16645244 -0.04467636 -0.067425035 -0.043737985 -0.037968475 0.013812631
-0.31368583 -0.23475362 0.20890054 0.25735396 -0.07779491 -0.22999224 -0.10097024 -0.15322165
0.059898473 -0.27637988 -0.25706416 0.12164005 -0.29372945 -0.043474715 0.21677282 0.12189686
0.30226985 0.104619786 -0.09425395 -0.18779868 0.11669379 0.2556876 -0.07353037 -0.026949689
-0.08348806 0.13815361 -0.33349857 -0.25073963 -0.30511323 -0.3020567 0.22431038 0.09565512
0.24274457 -0.070342906 0.13251123 -0.20029384 -0.018265238 -0.16317847 0.10417881 0.044656232

fc1.bias f4 [50]
00000000: e6de 84bd d41f 22be 2102 483e 44a6 5abe
00000010: 1958 403e 8e9e dc3d 06fc 0f3f e3d6 0c3e
00000020: 3e45 223e c102 283e 936b da3d 8442 1f3e
00000030: c107 fc3e 2137 033f d036 2cbe 6c49 023f
00000040: b0ac b53e 2d82 dabd 917e 83be b629 993e
00000050: 0cc6 9a3d aa5d a93d c2ea 2e3f 80ab 3bbe
00000060: bf58 b5bd be37 5fbd 43d6 2e3e 0f05 433f
00000070: 1f53 523e 63ad bcbd ec48 2d3e 6393 653f
00000080: 2954 9ebd 6d5d 7ebe 8647 983e 5a68 2b3f
00000090: e83f 2a3f 1e71 c5be 7d9a dd3e 553f 2a3d
000000a0: da59 493f d1d6 c53e fb27 ac3d d4fd 4dbe
000000b0: 3043 203e c4df 8cbe ce50 9a3d 75ec c43d
000000c0: ab0b 1d3f b3a9 94be
-0.06487827 -0.15832454 0.19532062 -0.21352488 0.18783607 0.107724294 0.5624393 0.13753848
0.15846726 0.164073 0.106650494 0.15552717 0.49224666 0.51255995 -0.16817784 0.5089328
0.35483313 -0.1066936 -0.256825 0.29914635 0.07557306 0.08269818 0.6832696 -0.18327141
-0.088548176 -0.05449652 0.17073922 0.76179594 0.2053952 -0.092127584 0.16922349 0.8967802
-0.07730896 -0.24840327 0.29742068 0.669561 0.66503763 -0.38562864 0.43281928 0.041564304
0.7865273 0.38640454 0.08406063 -0.20116359 0.1565063 -0.2751447 0.075349435 0.09615413
0.6134593 -0.2903572

fc2.weight f4 [10, 50]
00000000: c2e9 15be 4324 f93c 0ae1 913e bcd7 a3be
00000010: 431b da3e 0ba6 153d 2c6a a63b d197 8c3d
00000020: a4e5 8a3e 97be a93e adb4 b53d c042 c13e
00000030: ae5c f8bd 6ca7 10be 14ec a0be 68ce 06bf
00000040: fae0 30bc d694 983e 8bb1 69bb e8ab a83e
00000050: 489e 723e 8012 babc 6bd9 8abe 2ef7 eabe
00000060: 487e 69be ac80 7c3e fd99 d83e 7a40 0fbf
00000070: 8b30 1ebf 0d56 6ebe d999 eebe 1cf7 ea3e
00000080: 0b86 823e 1961 09bf de2c f1be caaa d4be
00000090: 5836 95be c1f3 f73c 39a4 14be f690 77be
000000a0: 3322 a1bc 7c7a 12be 24c8 bebe 7264 bbbe
000000b0: 9b8b a63e 4b04 96be fe3a 35be 6e6d debe
000000c0: 91a7 b3be bf50 67be 1777 c4bc e3b0 0fbe
000000d0: 1a45 91bd 2b03 2cbe 810d e0be fd6c 84bd
000000e0: 5b3b fc3e d24a aebe 8d1d e4bd 1b86 a9be
000000f0: 609e bebe 1cee bbbe 323c 743e db5d 003f
00000100: d845 e1be 731a b93e 1552 83be 2605 11bf
00000110: 73f4 83be 7185 b8be bc2a 54be 8d25 96be
00000120: 58ce b93e 7a2f 82be d043 6dbe 925f 26bf
00000130: f6c7 8bbe a12a f53e bd5e c9be b0c9 91be
00000140: 6b7c 8dbe beb8 d33e 5073 29bf 1793 99be
00000150: 558c a73e 2404 8b3e 2b71 ba3e 5205 d0be
00000160: 1db0 c73e 82fa bcbe 4637 9d3e e4c6 c53e
00000170: cf88 103c c49d aebe 1261 e0be 01e5 a6be
00000180: 9301 4abe d587 833e ed62 cf3e fd79 bbbd
00000190: 01de c13e a4b9 f23e 090c 813e 2e2e 5f3e
000001a0: cb58 96be a033 a33e a03f 953e 5118 223e
000001b0: 7f51 963d 5264 a43e c61d c6be 61e5 02bf
000001c0: 9722 d83e 52a6 cebb 1924 05be ae6f 553e
000001d0: de79 66bc d51b 67be d879 ebbd b0e5 aebb
000001e0: 477e b53e 5e4c c53e 5266 a4bb 8a8c d3bd
000001f0: b764 fabb bee6 64be f51a f73e e2b2 33bc
00000200: b105 2fbc fb17 613d 4791 253d 2f99 1fbe
00000210: db5a 85bd 1320 103e ae48 f93d 7837 debd
00000220: 4f07 bf3e 3a2b be3e 1361 d7be 300b 98bd
00000230: 797b 66be eb7e d63e d158 cd3e d286 b1be
00000240: 934d 69be 2e4a ae3e 7382 1a3d ae3f d63e
00000250: 857b a1be 43f8 28be 3209 0c3e 9d55 1cbe
00000260: 660a 84be 9f5a 6f3e 5f0c a1be 7581 50bd
00000270: 4681 3ebe c265 89be 6ae9 cf3e 7a32 1cbd
00000280: a75e e4be 33bc 3cbe 4d97 32bb 7d32 95be
00000290: fce5 63bd a928 063f ef1c a3be 3ddc 44bd
000002a0: ac0e 22bd 0b83 a7be 491e c73e 6b77 6dbd
000002b0: ff5c b2bd 620a 833e 788b 933e 7d9e 4cbe
000002c0: f4ce 13be 524d 00be e073 f63e 067e 173f
000002d0: e801 94bd bd09 98be 83f1 b33e 9eea dc3e
000002e0: 38bf d33e 88f4 8abe cacc 2ebe f47a 2c3e
000002f0: c916 7cbe 9b1d 78be 0a64 9dbe a7f3 0c3e
00000300: 89c0 1f3f 6252 81be a8c8 e53e 68ee ea3d
00000310: a7b0 243d a304 d63e 226a d6be ba37 0c3e
00000320: fafb 88be a45a 163d 2e8a 3e3e 9ff9 6ebe
00000330: cb29 3abe e720 13be 3144 92bd 607d aa3e
00000340: 0b6e 92bd 91c3 1a3d e3de d63e 8eae 77be
00000350: 4454 d13d 7ba0 e9bd 9b32 7f3d 026d a5be
00000360: 1aa2 fb3e ceea acbe 92d5 5ebc 0156 87bd
00000370: 3a37 e4bd 5449 c93e fff9 2f3d 705a e33d
00000380: 5edd 1abc fc24 fd3c c2e5 24be 2840 e63e
00000390: b163 9b3e 8994 86be 8bc1 0f3f d28b b1be
000003a0: 6da7 69bd 16f7 9cbd 987f e0bd 7fda 0c3f
000003b0: 1d99 bc3e 638a c4bd deaa e1bc 21e9 1d3f
000003c0: 2619 1fbd 78ca 0ebe b847 75be 9cad 9c3e
000003d0: 735b 5bbe 979f 66be e920 8c3c 10cb adbe
000003e0: 8174 193f 1349 97be 83fc 3dbe 7dcc 9abe
000003f0: c599 bcbe 99aa 97be 7541 fd3d d8e4 6dbe
-0.14639953 0.030412799 0.28492004 -0.3200053 0.42598924 0.036535304 0.0050785746 0.06864894
0.27128327 0.3315322 0.08872352 0.3774624 -0.12127052 -0.14126366 -0.31430113 -0.526587
-0.010795826 0.29801053 -0.0035658802 0.32943654 0.23693192 -0.0227139 -0.27119002 -0.45891708
-0.22802079 0.2465846 0.42304984 -0.5595776 -0.6179282 -0.23275013 -0.4660175 0.45891654
0.25492892 -0.53663784 -0.47104543 -0.41536552 -0.29143023 0.030267598 -0.14515771 -0.24176392
-0.019669628 -0.14304537 -0.3726207 -0.3660007 0.32528386 -0.2930015 -0.17698285 -0.43442863
-0.3508878 -0.22589396 -0.023982568 -0.1403232 -0.07093258 -0.16798083 -0.43760303 -0.064661
0.49264035 -0.34041458 -0.11138449 -0.33110127 -0.37230206 -0.367051 0.23851088 0.5014321
-0.439986 0.36152992 -0.2564856 -0.5664848 -0.25772437 -0.36039308 -0.20719427 -0.29325524
0.3629024 -0.25426847 -0.231704 -0.6498958 -0.27300996 0.47884086 -0.39330092 -0.28474188
-0.27633986 0.41351885 -0.6619158 -0.29995033 0.32724252 0.27151597 0.36414465 -0.4062906
0.3900155 -0.36909872 0.30706233 0.38628304 0.00882168 -0.3410474 -0.4382406 -0.3259659
-0.19727163 0.2568957 0.40505162 -0.09154127 0.37864688 0.47407258 0.25204495 0.2179496
-0.2936462 0.31875324 0.29150105 0.15829588 0.07339763 0.32107788 -0.3869459 -0.51131254
0.4221389 -0.006306448 -0.13002051 0.20843384 -0.014067141 -0.22569211 -0.11497849 -0.0053374395
0.35447904 0.38534826 -0.0050170803 -0.1032954 -0.0076414007 -0.22353646 0.48262754 -0.010967942
-0.010682509 0.05495451 0.04042175 -0.15585779 -0.0651147 0.14074735 0.12172066 -0.108504236
0.37310264 0.37142354 -0.4206625 -0.07424009 -0.22508039 0.41893706 0.40106824 -0.34673172
-0.22783498 0.3404097 0.037722062 0.4184546 -0.3153955 -0.16500954 0.13675383 -0.15267034
-0.25789183 0.23374413 -0.3145475 -0.05090471 -0.18604001 -0.26835448 0.40607768 -0.038134076
-0.44603464 -0.18431167 -0.0027250827 -0.29140082 -0.055639252 0.5240579 -0.31858012 -0.048061598
-0.039564773 -0.32717165 0.38890293 -0.057975214 -0.08709144 0.2559386 0.28817344 -0.19982333
-0.14434415 -0.12529495 0.4813528 0.5917667 -0.07226926 -0.2969493 0.35145196 0.4314775
0.41356826 -0.27139688 -0.17070308 0.16843778 -0.24618067 -0.24230044 -0.30740386 0.13764821
0.6240316 -0.25258166 0.4487965 0.11471254 0.04020753 0.41800413 -0.41877848 0.13693133
-0.26754743 0.036707535 0.18607399 -0.2333741 -0.18180005 -0.1436802 -0.07141913 0.3329878
-0.07149895 0.037784163 0.41966924 -0.24187681 0.102211505 -0.11407562 0.06230412 -0.3230973
0.4914711 -0.33772892 -0.013600724 -0.06608201 -0.11143346 0.39313757 0.042963024 0.11101234
-0.009452192 0.030901425 -0.1610327 0.44970822 0.30349496 -0.26285198 0.561547 -0.34676987
-0.057044435 -0.076643154 -0.109618366 0.550209 0.36835566 -0.09596708 -0.027547296 0.6168385
-0.038842343 -0.13944423 -0.2395314 0.30601203 -0.21421604 -0.22521816 0.017105537 -0.33943987
0.59943396 -0.2954794 -0.18553357 -0.30234137 -0.36836067 -0.29622343 0.123660006 -0.23231828

fc2.bias f4 [10]
00000000: 72d8 373e 0a9f 533f 91ea 5bbe 42d0 673e
00000010: 7d44 22bd 73e6 95be 04c9 83bf 55f0 ffbe
00000020: 0d2e 093f babf 29be
0.17953661 0.8266455 -0.21476199 0.22638038 -0.039616097 -0.2927738 -1.029572 -0.49988046
0.5358589 -0.16577044

momentum_buffer f4 [10, 1, 5, 5]
00000000: 45c0 0b3d d837 4cbc 220d edbc b53c 23bd
00000010: dc62 4abd 1f70 e53d 82e9 cc3d a0ed f03d
00000020: 88c8 dc3b 9dca 36bb 2a10 c33d 8c14 a13d
00000030: 9002 ce3d 2e6d 143c 3072 abbb dc9f 1bbd
00000040: 4fc7 18bd 8094 073c 5c27 28bb b34e 33bb
00000050: 188e 88bd 22fe 78bd 0ad1 42bc 467c 403a
00000060: c9dd d139 94a3 dabc b610 53bd bd93 c4bd
00000070: 40b9 dfbd 7a7f eabd 32d9 b03d 408a f8bc
00000080: 4c80 80bc ca4e b1bc 50d3 d2bd 3a27 e13d
00000090: 6018 bd3d 03fe 763d 6e1b 783d 94fa 76bc
000000a0: d809 23bd a009 80ba 58de 283d 4227 bf3c
000000b0: 4965 413c 61bc 18be 5244 5ebd b4ec 15bb
000000c0: fefc b3b8 83bc 00ba 44b5 68bc 8945 52bc
000000d0: 31eb a2bc 0753 b2bc 4a25 d2bc c493 1a3d
000000e0: e8b4 b63c 4b3f 133c 23cc 8fbb 1cd8 51ba
000000f0: cfc3 3e3d 03f7 153c 8d92 b93b d98d d7b9
00000100: c030 c3b9 7082 903c d070 023b e856 e73b
00000110: 0954 9a3b 98ca c03b 26c5 073c f443 f53b
00000120: f475 1c3b 2c27 7e3c 2957 c73c b051 09bc
00000130: 428d a73c 72ef 683d 7bc6 653d 8ccc 78bc
00000140: 4718 01bb f1be c7b9 694a 2cbd dc4a 4c3c
00000150: fad4 ad3c e437 423b 4939 fd3a a4aa f7bd
00000160: d8e9 0cbd dc73 883d 0b1a d03c aa59 8f3c
00000170: 9e61 8fbd 106b b0bd d0c8 2abc c0cd 703d
00000180: cd86 7e3d 84e7 47bc 767d 0bbe b0f3 74bd
00000190: 2886 ac3d 7e35 313d 4a00 2fbc 40aa 43bd
000001a0: 4329 81bd 0ca7 a73d 7312 c83d 1c36 9d3d
000001b0: bd47 a83b dc51 92bc e254 223e 27b9 413e
000001c0: 03fc ba3d 6022 a2bb fde6 9abb a44e 7f3e
000001d0: f6a1 b73e 8b5c a03e 8123 383e 2d9c 3d3e
000001e0: 044b c83d 31c0 923e d888 d23e fd74 063f
000001f0: a102 e23e ed77 c7bd c8c9 f2bd e9ec 84be
00000200: 3666 c7be 16e2 b5be 4efe 67bd 2441 98bd
00000210: 8a6f 25be 3191 a7be 0676 cfbe f480 bf3c
00000220: 137d eebb 86b3 a6bc c9a2 8fbc 3d78 d2bd
00000230: 923b a3bb 34be 2cbc 934f 6dbc 0dec 86bb
00000240: 2ec2 e1bc 9c23 a3bb f0fd 4ebb 328b fdbc
00000250: 1a73 84bc e654 fabc 11f3 10be dd1a ffbd
00000260: 325a 7dbd f43d 243d f4c6 ab3c 60b2 eb3b
00000270: 1c61 1fbd a54b fdbc 7824 703d 2732 5ebd
00000280: 2058 ccbb 5c4b 96bc e777 7abc 8bed 2abd
00000290: e818 d5bd 334f 31bd a4cb 223d 007f 893d
000002a0: 6acb 38bd e885 c3bd 402f 08ba 2711 d63a
000002b0: 9803 b13b 3a07 34bd 51ab acbd 3631 1bbd
000002c0: 4d9b d2bb e05f f7bb 681f 87bd 0066 9ebd
000002d0: 5b8c aebc dc73 00bd 049e 6dbc b7b1 01bd
000002e0: a6f3 5abd a229 643e 50f8 363e a4f4 3c3e
000002f0: 53a5 c63d 490c df3d 0595 493e aa42 603e
00000300: 8097 1b3e 5573 363d e5fe cd3d 3303 4f3d
00000310: 82ce 3a3e ddae 433d 9e37 d1bd d2ec ddbd
00000320: 2d2e a63c 56d2 8d3c b8d7 99ba 2832 27bb
00000330: 62e3 a2bb 50aa 81bb 8c4a 7e3a 5136 55ba
00000340: 6d7f 62bb 7301 a5bc 40ba 53bc c333 85ba
00000350: 4415 04bb 9455 73bd d997 d9bd 3eba 9d38
00000360: 206d e13a 51dc 12bd 31f2 05be fa38 00be
00000370: dc69 243c d0a4 533c c8d9 2fbd 5002 52bd
00000380: fbf9 0ebd 3270 0fae d882 fcae a446 d3af
00000390: cabf 09af 1f7e 2eb5 650d 08b5 de5c cb22
000003a0: de5c cb22 18dc c936 7527 0438 9bd2 1538
000003b0: 2417 1438 f0d2 2838 76e7 2a38 9711 2838
000003c0: 3e94 0635 f562 3335 2866 3335 316c 3335
000003d0: c770 3335 c2fc 832f 6061 862d 8061 c6ac
000003e0: a9d3 72ab e40d 1b2e
0.03411891 -0.012464486 -0.028936926 -0.039852817 -0.049410686 0.11203026 0.100054756 0.11764073
0.0067377724 -0.0027891763 0.095245674 0.07865247 0.100590825 0.009059234 -0.005232118 -0.03799425
-0.03729945 0.008275151 -0.0025658226 -0.002736014 -0.06667727 -0.060789235 -0.011890659 0.0007342737
0.0004002883 -0.026689328 -0.05152961 -0.09598491 -0.109240055 -0.114500955 0.08635177 -0.03033936
-0.015686177 -0.021644015 -0.10294211 0.1099381 0.09233165 0.06030084 0.060573034 -0.015074391
-0.03980431 -0.0009768493 0.04122767 0.02333415 0.011803933 -0.14915611 -0.054264374 -0.0022876682
-8.5825086e-05 -0.0004910903 -0.014203373 -0.012833961 -0.019887539 -0.021768106 -0.025652546 0.037738577
0.02230306 0.008987258 -0.0043883487 -0.000800492 0.046573456 0.00915313 0.005663222 -0.0004111368
-0.0003722962 0.017640322 0.0019903667 0.0070599206 0.004709725 0.005883526 0.00828675 0.0074849073
0.0023874016 0.015512269 0.024333553 -0.008381292 0.0204531 0.056868978 0.05609749 -0.0151854865
-0.0019698308 -0.000380985 -0.04206315 0.01246902 0.02121972 0.0029635364 0.001931944 -0.12093094
-0.0344027 0.066627234 0.025403043 0.01749881 -0.07001041 -0.086141706 -0.010423854 0.05878997
0.062140275 -0.012201194 -0.13622078 -0.05980271 0.08424026 0.043263905 -0.010681221 -0.047769785
-0.06306698 0.081861585 0.09769144 0.07676336 0.005135505 -0.0178613 0.15852693 0.18918286
0.09130099 -0.0049479455 -0.004727243 0.24932343 0.35865754 0.31320605 0.17982294 0.18516608
0.09779933 0.28662255 0.41120028 0.5252226 0.4414263 -0.09739671 -0.11854893 -0.25961998
-0.38945168 -0.35524052 -0.05663901 -0.074342996 -0.1615583 -0.3272796 -0.40519732 0.02337692
-0.0072780936 -0.020349275 -0.017533677 -0.1027684 -0.0049814666 -0.010543395 -0.014484304 -0.004117495
-0.027558412 -0.00497861 -0.0031584464 -0.030950163 -0.016168166 -0.03055806 -0.14155222 -0.12456296
-0.061853595 0.040098146 0.020968892 0.007192895 -0.03891097 -0.03091986 0.05862853 -0.054247048
-0.0062360913 -0.018346481 -0.015287376 -0.041730445 -0.10405141 -0.04328842 0.039744988 0.067136765
-0.045115866 -0.09547025 -0.0005195029 0.0016332016 0.0054020397 -0.043952204 -0.084311135 -0.037888728
-0.0064272047 -0.007549271 -0.06597787 -0.07734299 -0.021307161 -0.031360492 -0.014503006 -0.031663623
-0.053455018 0.22281507 0.17868161 0.18452698 0.09699502 0.10891015 0.19685753 0.2190043
0.15194511 0.044543583 0.10058383 0.05054016 0.18242839 0.047774184 -0.10215686 -0.108361855
0.02028569 0.01731221 -0.0011737263 -0.0025512073 -0.004970954 -0.0039570704 0.00097004394 -0.0008133399
-0.0034560815 -0.020142293 -0.012922823 -0.0010162521 -0.0020154277 -0.059407786 -0.10624666 7.521034e-05
0.001719866 -0.03585464 -0.1308067 -0.12521735 0.0100350045 0.012917712 -0.0429323 -0.051271737
-0.03490637 -3.2614085e-11 -1.1482876e-10 -3.843087e-10 -1.2528215e-10 -6.500358e-07 -5.068344e-07 5.5121587e-18
5.5121587e-18 6.015889e-06 3.1508e-05 3.572051e-05 3.53075e-05 4.0250772e-05 4.0746723e-05 4.0070703e-05
5.013461e-07 6.68267e-07 6.6831353e-07 6.6840136e-07 6.684681e-07 2.4008356e-10 1.527728e-11 -5.638323e-12
-8.626941e-13 3.5255257e-11

momentum_buffer f4 [10]
00000000: 444e c93d e1f6 a93d ecf2 b23c 9e1a 72bd
00000010: dae9 fd3e bfaf b5be e08c 663d 7be6 6d3e
00000020: 7377 e7bd 3fd6 2c38
0.09829381 0.082990415 0.02184435 -0.059107415 0.49592477 -0.35485646 0.056286693 0.23232453
-0.1130208 4.1207528e-05

momentum_buffer f4 [20, 10, 5, 5]
00000000: c770 b0bb bb3d 61bc 05ee 06bb a403 37ba
00000010: e872 0f37 3ffd 00bd 0a66 7f3a 7d05 1eba
00000020: 0abf 893b a668 543a 020c cf3b 95a6 0537
00000030: 92d8 b8bb 18b6 1a3c f80b a4b9 7e48 2739
00000040: ea58 e3b9 0e2c 25bc b8f6 2abc bb10 173b
00000050: 7a18 b4b9 56da e939 1691 aebb 8338 6abc
00000060: 6ee4 613c 140d babc ba69 d8bc aef8 f43a
00000070: 1916 ad3c 5f2b c63b 7498 acba 438f 713a
00000080: c0b9 fdb9 7a25 e63c 80a2 c93a 270c 9539
00000090: 469e 84ba dd2b 11ba 0000 2c3a ce2b 893a
000000a0: e0e4 8fbb 7f84 66bb abc4 8a39 3724 fabc
000000b0: e918 963c 0746 acbc a8b5 a0bc 53e5 a8bc
000000c0: fa36 113d a1ff 603a 1089 14b9 a990 4ebb
000000d0: 00a4 79b9 62fa 32bb b117 bcba 216e 813b
000000e0: 7286 04b8 5a49 42bb bc5f aa3b 79f2 9ab7
000000f0: 610a b23b bbc9 e5b9 3dce 16b9 e95e d0ba
00000100: 93f6 91ba cb28 5638 a0cb a6ba 8625 8539
00000110: 8190 f8bb a817 e5ba d73e 0bba 2df1 7cba
00000120: 15a5 a538 f30b efba e46a f2ba cc6f 14bc
00000130: ffeb eabc beb0 b8ba 6b0c 2f39 1c1d 9bb7
00000140: 4b04 83b3 127d b13c 69e7 563c 6fed 8abd
00000150: fb81 ec3b ecb5 fa39 0136 5e3d d7e6 6a3d
00000160: 5607 aabd 7292 e6bc a9d3 d9b8 d475 22ba
00000170: 048b 2d3d ee83 41bd 7986 37bd bd2d 82b8
00000180: 5014 8236 f455 aabb 48f0 583a fa76 3f3a
00000190: 29ed 8938 9214 66b9 d684 c437 6276 123a
000001a0: fa9e 02ba 0bdb 96ba f50a bebb 493b 42bc
000001b0: 0785 063c 945c 6e39 2ee9 80bc a55f 3cbd
000001c0: 943c debc aa3d e23a 9229 35bb 1e63 9ebd
000001d0: 39b8 4fbd 42d8 2abd 1438 bebc 7d1a 9a3d
000001e0: ef97 37ba f4da 9739 0e5a 503a 7c9b 683a
000001f0: c626 b939 93e5 8dbc 4215 a0bc aea7 46bd
00000200: c538 a539 f4b6 6abb a0f8 d2bc 97e9 64bd
00000210: c711 a3bd dd2e 8dbc 5bb8 5b3b 2ea0 2d39
00000220: a9b2 5cbc c890 1abd b090 25bd b21b 8bb8
00000230: 493a 86ba c8dc 363d d4d4 cb3a 2fb4 c8b9
00000240: 841e 113a 459d 503c 2e49 603d 523b 6c3d
00000250: 8330 a63c 9703 89ba 77bf 10bd 7ac5 0dbd
00000260: 2f36 66bd 2ea9 943b 1f56 8a3d fba5 bfbc
00000270: 9a9d 9d3b 2e00 2ebd 7191 d8bc e4eb dbba
00000280: b3d1 cab8 257c 4f39 6ab4 d03a 03d6 213b
00000290: 0982 50ba 206c d9ba fd95 bdbb 13cd 79bb
000002a0: 5346 1139 cff2 c8bb ef52 bfbd 40c1 d0bd
000002b0: 4508 77bd 89de 203d 7948 b53d 6442 6db9
000002c0: 96de e939 1036 c2bc 72c0 fcbc c187 c7bd
000002d0: 7469 07ba d834 52b7 07fc 39bc 37f1 1dbc
000002e0: dbf1 91bd 0cc0 0b3d 63cc d5ba 5d38 6bbc
000002f0: 32b5 4c3d 12c7 4b3a 22d7 3a3c f250 5c3a
00000300: ec46 c8bb d519 19bb a7f8 0e3d b591 cabb
00000310: 7f79 0ebc f8da f83b ffe3 c9bc e4cf 953a
00000320: b85a 5a3a a65f 3c3d 1de6 1e3d e07e b139
00000330: 2789 493a 9010 cbb9 21af 4b3d 904e b739
00000340: 50b9 703a f69d beb7 7151 36bc 7dd7 843c
00000350: d83e 46bc 27fa a83c 85ba ae3a 993a 7a39
00000360: efdf 2b3a b0e0 793b 62cc 823b 63c9 cd39
00000370: 482a 2bba 4507 0d3b cd12 d23b e136 073b
00000380: cb21 413a 9f25 7f9b 0100 0000 0100 0080
00000390: 78b1 6818 0100 0000 0100 0080 0100 0080
000003a0: 0100 0000 0100 0000 0100 0080 0100 0080
000003b0: 0100 0080 0100 0080 0100 0080 eff9 ef2c
000003c0: 0100 0080 0100 0080 e8c9 089a b457 969b
000003d0: 51d3 0598 dba3 d034 97dd c5b5 f78c 8fae
000003e0: efe7 1b9c 0100 0080 635a 78bb d044 c5b7
000003f0: 2d2e f8bb 2e7a 97ba fd7b c8bb cad5 c6b5
-0.005384538 -0.013747628 -0.0020588648 -0.00069814385 8.550218e-06 -0.031491514 0.0009742683 -0.00060280395
0.004203682 0.0008102752 0.00631857 7.966203e-06 -0.0056410516 0.009442829 -0.00031289435 0.00015953367
-0.0004336306 -0.010081304 -0.010434799 0.0023050744 -0.00034350512 0.00044603896 -0.005327354 -0.0142957
0.013787372 -0.022711314 -0.026417602 0.0018689835 0.021128701 0.0060476507 -0.0013167993 0.0009214768
-0.00048394315 0.028094042 0.0015383512 0.0002842855 -0.001011797 -0.0005537847 0.00065612793 0.0010465325
-0.0043912977 -0.0035174189 0.0002646794 -0.030534847 0.018322425 -0.021029485 -0.01961787 -0.020617163
0.03545282 0.00085830136 -0.0001416544 -0.003151933 -0.00023807585 -0.0027309884 -0.0014350322 0.003949896
-3.1596464e-05 -0.0029645772 0.0051994007 -1.847114e-05 0.005433366 -0.00043828585 -0.00014381944 -0.0015897426
-0.0011136107 5.1059567e-05 -0.001272548 0.00025395694 -0.0075855856 -0.0017478364 -0.0005311793 -0.0009648975
7.898562e-05 -0.0018237814 -0.0018494991 -0.009059858 -0.028676985 -0.0014090759 0.00016693927 -1.8490995e-05
-6.100944e-08 0.021666083 0.013116696 -0.06783568 0.0072176433 0.00047819258 0.05425072 0.057349052
-0.083021805 -0.028146002 -0.00010386791 -0.00061973673 0.042368904 -0.04724496 -0.044805977 -6.2074025e-05
3.8766666e-06 -0.0051982347 0.0008275551 0.00073038007 6.5768436e-05 -0.00021942172 2.3426877e-05 0.00055870984
-0.0004982796 -0.0011509372 -0.005799646 -0.011854955 0.008210427 0.00022731937 -0.015736189 -0.04598965
-0.027128495 0.0017260809 -0.0027643186 -0.07733749 -0.050712798 -0.041710146 -0.0232201 0.075245835
-0.0007003536 0.00028964097 0.00079479895 0.00088732666 0.00035314838 -0.017321384 -0.019541387 -0.048499756
0.0003151355 -0.0035814615 -0.02575332 -0.05588683 -0.07962375 -0.01723426 0.0033526632 0.00016558237
-0.01347033 -0.03773573 -0.040421188 -6.633195e-05 -0.0010240759 0.044644147 0.0015551099 -0.0003828122
0.0005535858 0.0127328085 0.05475729 0.05767376 0.020286804 -0.001045334 -0.035338845 -0.034612156
-0.056204017 0.0045367694 0.067547075 -0.023394575 0.0048100473 -0.04248064 -0.02643654 -0.0016778675
-9.67117e-05 0.00019787306 0.0015922908 0.0024694211 -0.0007953947 -0.001658801 -0.0057857023 -0.0038116619
0.00013854475 -0.0061324607 -0.0934199 -0.101931095 -0.06031062 0.039274726 0.08851714 -0.00022626814
0.00044607063 -0.02370742 -0.030853484 -0.0974269 -0.0005165555 -1.2529279e-05 -0.011351592 -0.00964003
-0.071262084 0.034118697 -0.0016311522 -0.0143567 0.04997749 0.0007773499 0.011403831 0.0008404396
-0.00611197 -0.0023361344 0.034905102 -0.0061819204 -0.008695959 0.0075944625 -0.02464485 0.0011429754
0.0008329558 0.045989655 0.038793672 0.000338546 0.0007687979 -0.00038731517 0.049727563 0.00034963014
0.0009182887 -2.2723321e-05 -0.011127816 0.016216034 -0.012099944 0.020627094 0.0013330734 0.00023863687
0.0006556501 0.003812831 0.0039916495 0.00039250692 -0.0006529433 0.0021519226 0.0064109326 0.0020632076
0.0007367401 -2.1105262e-22 1e-45 -1e-45 3.0074896e-24 1e-45 -1e-45 -1e-45
1e-45 1e-45 -1e-45 -1e-45 -1e-45 -1e-45 -1e-45 6.8205368e-12
-1e-45 -1e-45 -2.828724e-23 -2.4872095e-22 -1.7296535e-24 3.886224e-07 -1.4742135e-06 -6.5279275e-11
-5.1584965e-22 -1e-45 -0.0037895672 -2.3516273e-05 -0.007573864 -0.0011556798 -0.006118296 -1.481437e-06

momentum_buffer f4 [20]
00000000: ec92 3dbd 00b5 b23d 28be 353c b6cd 08be
00000010: b2ed b6bb 0d79 c4bc a710 da3d 13e2 41bc
00000020: 15a2 d33d 8bd7 93bd 29ae a63c 6afe 273d
00000030: 3c48 1dbd 2f76 2abe ccb0 b73d 1471 21be
00000040: 1e23 a63d 4088 513d c941 0abe d3cd 5e3d
-0.046282694 0.08725929 0.0110927 -0.13359722 -0.0055825347 -0.023983503 0.106477074 -0.011833685
0.10333649 -0.07218846 0.020346718 0.041014113 -0.038398966 -0.16646646 0.08969268 -0.15765792
0.08112167 0.05115533 -0.13501658 0.054395508

momentum_buffer f4 [50, 320]
00000000: d2cd 9e39 5afa 693a 146f 593a 2f4f 093a
00000010: 7707 74ba ddfa 31ba bc0c 75ba 1926 9639
00000020: a35a f039 bcc9 14b9 f9b5 6e39 1631 80ba
00000030: d2f1 bdb9 e8f8 2f38 be0c c7ba 14b3 46ba
00000040: 8248 3a3c 44c6 703b b90a bc3b 089b 93b9
00000050: 3532 62b8 2303 173c 7834 933a e00d c938
00000060: 0759 c2b7 ba41 723a 9d4c b23b 6039 9fb6
00000070: 4040 9f38 ec94 1a3c 8268 1e3d 133d 6eb9
00000080: 5422 95b8 e43b c4b9 00a3 aa39 112b 5a3a
00000090: 0c07 bfb8 2ce0 2db7 3094 e0b6 6286 07b8
000000a0: 7d80 8fb8 1eb9 e7b5 2bd1 0fb8 4178 e8b6
000000b0: 3141 7fb3 c9d2 f933 a875 bf37 7e75 9cb5
000000c0: 5614 ffb9 0afa 9a3a 2c31 c739 b1c5 29ba
000000d0: 7864 9d38 a5e5 6fb8 03bd c8b7 4a2d 38b7
000000e0: 86f0 9939 a07c 95b9 4b66 5f39 51a1 cbb8
000000f0: b9da 6739 a60f ea38 f093 1739 96c3 2f3a
00000100: 08a9 4739 991c 3e39 46a1 2e30 dfc1 abb6
00000110: 114c a9b8 ac1f 5eb7 0b21 9536 4f19 2836
00000120: 15a7 b5b9 07b0 77b6 60ab 8238 47ed 1638
00000130: 0d90 8db9 0295 9139 43d6 1639 6a14 9c39
00000140: 910f 9638 ba28 adb8 227d 1039 12dc 8638
00000150: 1726 94b9 04df b6b9 d377 83b7 7c66 5c39
00000160: ef89 7cb9 ebe3 7439 828e a038 1d3d 2fb7
00000170: 47e3 b939 a090 4d2e 32c5 33ad 9fdf ba39
00000180: 7842 f5b9 33d1 a7ba a7b0 9f3a 0a6a 02b9
00000190: 65e2 b339 bb69 f8b9 651c efb9 16ea 0539
000001a0: 364f 6f3c ba93 c1ba 0259 fcb8 ace5 54b9
000001b0: 013a a23a 7208 c1b8 a64f 2fb9 8131 0b3c
000001c0: e680 a23a b171 8a3a ffcf 41b8 aac4 0ab7
000001d0: 88fb 66ba c54f adb5 8382 63b4 80d8 21b7
000001e0: 8220 d9b6 4540 62b6 8f62 4db6 6192 95b6
000001f0: 4a28 3db8 4d95 ffb8 42eb 63b8 340f 9a39
00000200: 86b3 153b ce63 92b8 432e e9b8 6442 2b3a
00000210: 02fc 823a 0f41 42b7 ee94 9ab9 26aa 56ba
00000220: b6f6 f539 1f90 1eb9 fe49 a7b9 894b b1b9
00000230: f882 9839 6901 b1b8 30e6 12b9 1ea0 1c3a
00000240: f0db 7f3a 5514 973a d5bd 4dba 51e7 053a
00000250: 0cb9 e1b8 4771 d0b8 3a0d b237 063e eb36
00000260: 9d8e 8139 3a02 3cb9 7543 82b9 c7d7 5b39
00000270: 4041 76ba d261 1fba 4195 55ba 91ea 57ba
00000280: 64fd 21b8 758a c532 11ae a638 b28b d639
00000290: c6da af39 ba24 ed37 22cb f2b8 0e03 b139
000002a0: 6762 2339 e3ff 9238 9047 02b8 f4c8 8038
000002b0: a0da 3338 d5c7 d9b7 dd4f 4bb7 79b5 bfb7
000002c0: ad5f 6239 d122 9236 b6da c739 3987 3fb5
000002d0: bd86 87b5 0b9e 813a 9377 833a 465c 3a39
000002e0: c645 973a 1b4f 463a d3ec 543a ec67 b23a
000002f0: 8152 29b8 bf29 0fba 68a2 9438 6e29 373a
00000300: 5028 dab7 79ec 09b7 c05c 5abb 0ac8 0cba
00000310: 1eaf 3236 da8a d0b6 7405 09b6 2528 4eb9
00000320: b67a 1db8 5261 2132 ae45 9d33 946c 88ba
00000330: a2b2 2c36 9e79 68b7 afdc 01ba 6653 93b9
00000340: 0a7f 19b4 37b9 adb4 73a1 c9b2 8298 113a
00000350: b3a4 cdb0 c573 ae28 8173 a3b1 0a79 2035
00000360: 4066 1a3c f154 5838 6ae2 4cba 1b90 e6b7
00000370: d8c0 2bba dc3a e239 109d 2e37 516f 8db2
00000380: 2dc1 24b9 c181 4d39 6f0e 2eb9 e8e0 a2b8
00000390: f3db 33b8 d24f cbb6 329f d6b9 3c00 88b9
000003a0: b609 f4b8 9ad5 7439 a3ea 40b7 1124 5e39
000003b0: d850 0b37 907b ee39 2a46 bc39 2a71 9339
000003c0: d790 5eb7 d1a0 6eb7 db06 263a f12b 85b4
000003d0: 9457 e539 546c 9a39 1bd7 02b7 78d8 99b6
000003e0: ad4f 863a 7aa0 1a39 1d38 d139 87c7 3e3a
000003f0: 96a2 8dae ec20 d8b5 c87b 1ab7 d106 4839
0.00030289456 0.000892555 0.0008294445 0.00052379345 -0.00093089737 -0.00067893957 -0.0009347906 0.00028638614
0.00045843897 -0.00014189532 0.00022765239 -0.0009780254 -0.0003622906 4.1955063e-05 -0.0015186293 -0.00075797853
0.011369826 0.003673927 0.005738583 -0.00028153532 -5.3929358e-05 0.009217056 0.0011230847 9.587011e-05
-2.3168059e-05 0.00092413614 0.005441262 -4.7452486e-06 7.593678e-05 0.00943492 0.038673885 -0.000227202
-7.111268e-05 -0.00037428655 0.0003254637 0.00083224574 -9.108902e-05 -1.0363798e-05 -6.6929715e-06 -3.2311662e-05
-6.842704e-05 -1.7264717e-06 -3.428866e-05 -6.928138e-06 -5.9431105e-08 1.1633308e-07 2.2823762e-05 -1.16571e-06
-0.00048652542 0.0011823785 0.00037992874 -0.00064762967 7.505057e-05 -5.7195914e-05 -2.3929873e-05 -1.0977799e-05
0.00029361638 -0.00028512347 0.00021305044 -9.709842e-05 0.00022111357 0.00011160904 0.00014455593 0.0006704865
0.00019041088 0.00018130465 6.3530015e-10 -5.1187667e-06 -8.0727164e-05 -1.3239605e-05 4.4443927e-06 2.5048682e-06
-0.00034647496 -3.690833e-06 6.230804e-05 3.598377e-05 -0.00027000942 0.00027767575 0.00014384933 0.00029769848
7.155457e-05 -8.256869e-05 0.00013779526 6.430609e-05 -0.0002825714 -0.00034879905 -1.5672214e-05 0.00021019013
-0.00024083977 0.0002335456 7.655939e-05 -1.0445042e-05 0.00035455285 4.6740056e-11 -1.0218758e-11 0.00035643295
-0.00046779565 -0.0012803435 0.0012183384 -0.00012437269 0.00034310218 -0.0004738102 -0.00045606788 0.00012771072
0.014606288 -0.0014768757 -0.000120328754 -0.00020303455 0.0012376906 -9.20453e-05 -0.00016718972 0.008495689
0.0012398034 0.0010562447 -4.6208497e-05 -8.27123e-06 -0.0008811285 -1.291272e-06 -2.1188502e-07 -9.646756e-06
-6.4708884e-06 -3.3714034e-06 -3.060475e-06 -4.457587e-06 -4.5098634e-05 -0.00012187157 -5.434012e-05 0.00029384496
0.00228426 -6.9804126e-05 -0.00011118923 0.00065330253 0.0009993317 -1.1578449e-05 -0.0002948413 -0.0008188806
0.00046913855 -0.00015121743 -0.0003190785 -0.0003381635 0.00029089279 -8.44028e-05 -0.00014009397 0.0005974787
0.0009760251 0.0011526445 -0.00078484166 0.0005108016 -0.00010763304 -9.9393124e-05 2.1225413e-05 7.0107662e-06
0.00024711053 -0.00017929907 -0.00024845792 0.00020965851 -0.0009393878 -0.0006079945 -0.0008147546 -0.0008236552
-3.862138e-05 2.2996781e-08 7.947919e-05 0.00040921342 0.000335416 2.8269704e-05 -0.00011577296 0.00033762347
0.00015581549 7.009485e-05 -3.1061063e-05 6.140946e-05 4.2880536e-05 -2.596147e-05 -1.21183375e-05 -2.285348e-05
0.00021588682 4.3551922e-06 0.0003811919 -7.134982e-07 -1.0097498e-06 0.000988902 0.0010030143 0.00017772717
0.001154118 0.0007564888 0.0008122448 0.0013611293 -4.0369578e-05 -0.0005461238 7.0874405e-05 0.00069870695
-2.6006397e-05 -8.220894e-06 -0.0033319443 -0.00053703843 2.6625999e-06 -6.2150475e-06 -2.0417765e-06 -0.00019660646
-3.7546e-05 9.3935615e-09 7.323557e-08 -0.0010408335 2.5733975e-06 -1.3856594e-05 -0.0004953844 -0.00028100162
-1.4295452e-07 -3.2358523e-07 -2.3472898e-08 0.00055540365 -1.4962523e-09 1.9368088e-14 -4.7570556e-09 5.978078e-07
0.009423792 5.157752e-05 -0.0007815721 -2.7485241e-05 -0.0006551868 0.00043149933 1.0407777e-05 -1.6465181e-08
-0.00015712222 0.0001959866 -0.0001659931 -7.766654e-05 -4.288177e-05 -6.0591638e-06 -0.0004093587 -0.00025940116
-0.000116366355 0.00023349226 -1.1498722e-05 0.00021185006 8.3038685e-06 0.0004548696 0.0003591043 0.0002812234
-1.3265954e-05 -1.4223348e-05 0.0006333419 -2.4805152e-07 0.00043743534 0.0002945388 -7.798687e-06 -4.5849556e-06
0.0010247134 0.00014746367 0.00039905394 0.00072776567 -6.440819e-11 -1.6102836e-06 -9.207935e-06 0.00019076026

momentum_buffer f4 [50]
00000000: 3681 f03b f95a 7fbc 98da 4f3c 1675 3abd
00000010: c67f 43bb ae3d fc38 0c91 15bc 303f 313c
00000020: 8327 be3d af62 ea3c eb43 bd3b 97e4 723d
00000030: 90f7 5eb9 338a 533b 22c2 383d 02b3 193d
00000040: 48ff 703b 4eb7 a5bc 8169 75bc d4e0 c238
00000050: 1875 bdba 5775 93bb 5ab9 243c 849e 973a
00000060: 65ca 87bb 2eda 5f3d 3823 863b 1cbd b8bb
00000070: f6db 21bc 226c d03c 7d9f 3eb9 3071 c3bc
00000080: b0a4 533a 7d79 273c b24c 493a 5e02 2f3b
00000090: 9ebe 1539 c7dc ecbc b47d aabb 9b02 c23b
000000a0: 3160 423c 84e0 cc3b 0836 0639 1dde 78ba
000000b0: b64d 313b 5094 53bc e16c 0c3a 45dc 803b
000000c0: 3005 bcbc c56c c73a
0.007339622 -0.015585654 0.012686394 -0.045521818 -0.0029830798 0.00012027785 -0.00912882 0.010818288
0.0928488 0.02861151 0.0057759187 0.05930003 -0.00021263794 0.0032278418 0.045107014 0.03752423
0.0036773253 -0.020229008 -0.014978767 9.2925184e-05 -0.0014454452 -0.004500072 0.010053957 0.0011567627
-0.0041440004 0.05465143 0.004093554 -0.005637778 -0.009879103 0.025442187 -0.00018179226 -0.023857683
0.00080735516 0.010221836 0.000767897 0.0026704292 0.00014280758 -0.028913869 -0.0052029733 0.0059207208
0.011863754 0.0062523503 0.00012799364 -0.00094935467 0.0027054376 -0.012913778 0.00053568004 0.003932508
-0.022951692 0.0015214911
