checkpoints/task-009.pth (torch, 179983 bytes, 16 tensors)

conv1.weight f4 [10, 1, 5, 5]
0	0xbf67a156	-0.90480554
1	0x3f82398f	1.0173815
2	0x3ed6810a	0.41895324
3	0xbdd5c598	-0.10438079
4	0xbf5153dc	-0.81768584
5	0xbcc57734	-0.024104692
6	0x3dc37442	0.09543659
7	0x3ed32564	0.41239464
8	0x3e0f4e83	0.13994794
9	0xbfa1bb04	-1.2635198
10	0x3e5c66fd	0.21523662
11	0x3e5844ac	0.21119946
12	0x3e033e80	0.1281681
13	0xbeab11c8	-0.33412004
14	0xbf6d0933	-0.9259216
15	0x3ebb8a99	0.3662918
16	0x3e923f45	0.28563896
17	0xbe9b7c40	-0.30368233
18	0xbf3e2f0a	-0.74290526
19	0xbf2eec71	-0.6832953
20	0xbe1b4983	-0.15164761
21	0xbefe583a	-0.49676687
22	0xbe674e02	-0.22588351
23	0xbe142b4d	-0.14469643
24	0xbed94c6b	-0.42441115
25	0xbe6a431f	-0.22877167
26	0xbf1e8794	-0.61925626
27	0xbc54467d	-0.012956259
28	0xbe3424d7	-0.17592178
29	0x3b84e9c4	0.0040561873
30	0xbf36db8f	-0.7142877
31	0xbf552af8	-0.8326869
32	0xbe6399a2	-0.22226575
33	0x3e5cfa5b	0.21579878
34	0x3e01e1e3	0.12683825
35	0x3dc9284a	0.09822138
36	0x3e577486	0.21040544
37	0x3fb67f1c	1.4257541
38	0xbec16582	-0.37772757
39	0xbfc81595	-1.5631586
40	0x3f4553e2	0.7708112
41	0x3ed14515	0.40873018
42	0xbe301a47	-0.17197524
43	0xbeae36dd	-0.34026232
44	0xbfa95956	-1.3230388
45	0xbe410564	-0.18849713
46	0xbf252add	-0.6451853
47	0xbf76402b	-0.9619166
48	0xbf6e98d3	-0.9320194
49	0xbe9900b2	-0.29883343
50	0xbd9ed569	-0.077555485
51	0xbf007786	-0.5018238
52	0xbf1994e5	-0.5999282
53	0xbedcef1c	-0.43151176
54	0xbcd35d67	-0.025801374
55	0x3e058c71	0.13041855
56	0x3de3ccbc	0.11123034
57	0xbe7a80d2	-0.24463204
58	0xbebbb208	-0.36659265
59	0xbe81b8c9	-0.25336292
60	0x3e276f52	0.16351059
61	0x3e9ad584	0.30241024
62	0xbd8b8665	-0.06812743
63	0xbed3a6b1	-0.41338113
64	0xbe291ab9	-0.165141
65	0x3dd7d74e	0.10539113
66	0x3e7c307b	0.24627869
67	0xbe39a2de	-0.18128535
68	0xbf0b2aba	-0.5436207
69	0x3cb6ac62	0.022298995
70	0x3ee1e7b7	0.44122097
71	0x3d3a3922	0.045464642
72	0xbf1ee927	-0.6207451
73	0xbe709e9e	-0.23498008
74	0x3ee4720c	0.4461826
75	0xbf7ed783	-0.99547595
76	0xbf1aeadc	-0.60514617
77	0x3c3ab623	0.011395964
78	0x3f3447fe	0.7042235
79	0x3cde2b4c	0.027120255
80	0xbf263760	-0.64928246
81	0xbf2a0e8e	-0.6642846
82	0x3c674351	0.014115171
83	0x3f6097c3	0.8773157
84	0xbec11148	-0.37708497
85	0xbf48fb8b	-0.78508824
86	0xbf3d938c	-0.74053264
87	0x3d24a775	0.040198762
88	0x3f775453	0.96613044
89	0xbec7b99f	-0.39008805
90	0xbf49cda0	-0.78829384
91	0xbf3b35de	-0.7312907
92	0xbe9e24b3	-0.30887374
93	0x3f5d344e	0.86407936
94	0xbd822bdd	-0.063560225
95	0x3e5b496f	0.21414731
96	0xbe63c61b	-0.2224354
97	0xbe3f69d6	-0.18692717
98	0x3f097908	0.53700304
99	0x3f4983d0	0.78716755
100	0xbdc61623	-0.09672191
101	0x3e350c94	0.1768058
102	0xbe8240c4	-0.25440037
103	0x3e62c24c	0.22144431
104	0x3f869d66	1.0516784
105	0xbf6d756a	-0.92757285
106	0xbf761a9f	-0.9613437
107	0xbfb0cbd3	-1.3812202
108	0xbfac9894	-1.3484063
109	0x3e6b3053	0.22967653
110	0xbaf4136f	-0.0018621514
111	0x3f27a973	0.65492934
112	0xbe5ae768	-0.21377337
113	0xbf1bceac	-0.6086223
114	0xbf999119	-1.1997405
115	0xbdf4c41e	-0.11951469
116	0x3f170746	0.58995473
117	0x3e3497b6	0.17635998
118	0xbf418960	-0.7560024
119	0xbf04bce9	-0.51850754
120	0x3e4ac564	0.19801861
121	0xbe8d3365	-0.27578273
122	0x3f8e5122	1.111851
123	0x3f38521f	0.72000307
124	0x3f80be2f	1.005804
125	0xbf12cf6f	-0.5734777
126	0xbe29470f	-0.16531013
127	0x3dce586c	0.10075459
128	0x3edcb133	0.43103942
129	0x3f86ca45	1.0530478
130	0xbf2c34a9	-0.67267853
131	0xbf05ff6b	-0.5234286
132	0xbe81fd55	-0.2538859
133	0xbeb2bfa6	-0.3491184
134	0x3e517955	0.20456441
135	0xbf3b9215	-0.7326978
136	0xbeee40fa	-0.46533948
137	0xbe977b37	-0.29586193
138	0xbe2406f9	-0.16018285
139	0xbe3d61c2	-0.18494323
140	0xbed6d2cb	-0.41957697
141	0xbeba21da	-0.36353952
142	0xbf51690c	-0.81800914
143	0xbf76199c	-0.96132827
144	0xbf216a25	-0.6305259
145	0xbdf97e99	-0.1218235
146	0xbd1d3cbf	-0.03838801
147	0xbc2ac104	-0.010421995
148	0xbda44aed	-0.080221035
149	0x3c61291e	0.013742713
150	0x3e14982f	0.14511178
151	0xbe958a0c	-0.29206884
152	0xbf04922a	-0.5178553
153	0x3eb3833e	0.35061067
154	0x3f44724e	0.76736915
155	0x3eebf373	0.46084175
156	0x3f80fea5	1.0077711
157	0x3e9df10c	0.30847967
158	0xbe19394a	-0.1496326
159	0x3e9d1c37	0.3068559
160	0xbea16110	-0.31519365
161	0x3e366fff	0.1781616
162	0xbde23d6e	-0.11046873
163	0x3ef1c0a0	0.47217274
164	0xbe7b07fd	-0.24514766
165	0xbfa563b3	-1.2921051
166	0x3f1896cb	0.5960509
167	0x3f401977	0.75038856
168	0xbe7a3a34	-0.24436265
169	0xbf96b51d	-1.1774021
170	0xbfb699d7	-1.4265698
171	0xbfbe4c9c	-1.4867129
172	0xbfeb92c0	-1.840416
173	0xbfd687de	-1.6760213
174	0x3ec22fa9	0.37926987
175	0x3eb3a148	0.35083985
176	0xbebb048e	-0.36526912
177	0x3e3ee6b1	0.1864269
178	0xbceff71d	-0.029292637
179	0x3c94a9ac	0.018147312
180	0x3ec1db34	0.3786255
181	0xbef2b479	-0.47403315
182	0xbf6d8230	-0.92776775
183	0xbfb80efa	-1.437957
184	0xbe883279	-0.26601008
185	0x3df16f80	0.11788845
186	0x3fbd9f72	1.4814284
187	0xbed50b05	-0.4160997
188	0xbf4a9d82	-0.7914659
189	0x3ece5cd0	0.40305185
190	0xbf31ddb7	-0.69478935
191	0x3f9e48cd	1.2365967
192	0xbddc81d1	-0.10766948
193	0xbea76211	-0.32692006
194	0x3b6ff4a3	0.003661432
195	0xbed20236	-0.41017312
196	0x3ec2b50a	0.38028747
197	0x3f1be24d	0.6089218
198	0x3e502c4a	0.20329395
199	0x3eb6b790	0.35686922
200	0xbe22a24b	-0.15882222
201	0xbc8ed11a	-0.017433692
202	0xbc41dbaf	-0.011832162
203	0xbf4b0cc0	-0.7931633
204	0xbf493f5f	-0.7861232
205	0x3de4283c	0.111404866
206	0xbe1627f0	-0.14663672
207	0xbf763770	-0.9617834
208	0xbed393cb	-0.41323695
209	0x3b338eb9	0.0027398302
210	0x3dd8c5fc	0.105846375
211	0xbf6f8eec	-0.93577456
212	0xbf2bfd47	-0.67183346
213	0x3e831c94	0.2560774
214	0xbe3bb3ad	-0.1833026
215	0xbe5e6da1	-0.21721508
216	0xbf469a8f	-0.7757959
217	0x3d954beb	0.07289871
218	0x3dd831a2	0.10556342
219	0x3f595b22	0.8490468
220	0xbf80c7e1	-1.0060998
221	0xbf172e8e	-0.5905541
222	0xbe3d0f9b	-0.18462984
223	0x3ac07d5e	0.00146858
224	0x3f6c34d3	0.92268103
225	0xbd905096	-0.070466205
226	0x3c93dd9e	0.018050011
227	0xbd006a11	-0.031351153
228	0xbcfee132	-0.03111324
229	0x3d76a117	0.06021222
230	0xbcc57465	-0.024103353
231	0xbe41ac2c	-0.18913335
232	0xbe1f9de2	-0.15587571
233	0xbe3dee0b	-0.18547837
234	0x3d84c44c	0.06482753
235	0x3e406c23	0.18791251
236	0xbe00f2dd	-0.12592645
237	0x3e452d0d	0.19255467
238	0xbd2c713c	-0.042100176
239	0x3d2e4412	0.042545386
240	0xbdaf22af	-0.08551537
241	0xbbb28335	-0.00544777
242	0x3d3bd5e6	0.045858286
243	0xbdab5d31	-0.08367384
244	0x3c84b051	0.016197355
245	0x3de36425	0.111030854
246	0xbe1f1f33	-0.15539245
247	0x3c9f1324	0.019418307
248	0xbd0ac05b	-0.03387485
249	0xbd90c342	-0.070684925

conv1.bias f4 [10]
0	0xbf455936	-0.7708925
1	0xbefab1f4	-0.48963892
2	0xbf4c5ba3	-0.79827327
3	0xc024d093	-2.5752304
4	0xbf92bd0c	-1.1463943
5	0xbea88f36	-0.3292176
6	0xbf0b4f8f	-0.5441827
7	0xbfcb2f65	-1.5873839
8	0xbec1a6d3	-0.3782259
9	0xbe512e21	-0.20427753

conv2.weight f4 [20, 10, 5, 5]
0	0x3e6a4d4f	0.22881053
1	0x3eb9772b	0.3622373
2	0x3ef2b5d4	0.4740435
3	0x3e8d4978	0.27595115
4	0x3e07c837	0.1325997
5	0x3e3ab398	0.18232572
6	0xbe33b35e	-0.17548892
7	0xbeb72e9d	-0.3577775
8	0xbd8a9a46	-0.067677066
9	0x3d1d5e0f	0.03841978
10	0xbe40fc2a	-0.18846193
11	0xbef3ab71	-0.47591737
12	0x3e71a6e4	0.2359882
13	0xbda9da90	-0.082936406
14	0xbe8cc251	-0.27492002
15	0xbeca3e34	-0.39500582
16	0x3dbb7dc6	0.09154849
17	0x3ec00ed1	0.37511304
18	0xbcc72d57	-0.024313612
19	0x3e472bf9	0.19450368
20	0xbe81c932	-0.25348812
21	0xbe706fb4	-0.23480111
22	0x3e0debe7	0.13859521
23	0x3d85fb73	0.06542101
24	0xbdc84cb0	-0.09780252
25	0xbd824100	-0.06360054
26	0x3d1f600d	0.03890996
27	0x3e9133fc	0.28359973
28	0x3e5aa4a6	0.21351871
29	0x3ca3597a	0.019940127
30	0x3dca6724	0.09882954
31	0xbf090ebb	-0.535381
32	0xbf097a77	-0.5370249
33	0xbe7a6be1	-0.24455215
34	0xbdda3831	-0.10655249
35	0x3da0e84d	0.07856808
36	0xbe857924	-0.26068985
37	0xbeafea69	-0.34358528
38	0xbe4ab798	-0.19796598
39	0xbe03acfc	-0.12858957
40	0x3e220188	0.15820897
41	0x3e86f77a	0.26360685
42	0x3c4fcfaf	0.012683793
43	0x3de71426	0.1128314
44	0x3e829ebb	0.25511727
45	0x3e4ffe02	0.2031174
46	0x3b8168fb	0.003949282
47	0x3e89d0d2	0.2691713
48	0xbd85b3d4	-0.0652844
49	0x3e036e2d	0.12834997
50	0x3d84c51b	0.064829074
51	0x3e15aee9	0.14617504
52	0xbc3b1bcf	-0.011420204
53	0xbcd6a4d1	-0.026201637
54	0x3cf6968f	0.030101089
55	0x3db1bc2d	0.0867847
56	0x3dd75c3f	0.105156414
57	0x3cd160d8	0.025558874
58	0xbcd9047b	-0.026491394
59	0xbde8b3e3	-0.11362436
60	0x3e35d433	0.17756729
61	0x3e279e87	0.16369067
62	0x3d13ecd6	0.036114536
63	0x3d998e2d	0.07497821
64	0xbd93934e	-0.072058305
65	0xbd9a4f29	-0.0753463
66	0xbdd66a5f	-0.104695074
67	0xbd4e3e1f	-0.050352212
68	0x3e98f3d8	0.29873538
69	0x3e02d142	0.12775138
70	0x3c8a266c	0.016864024
71	0xbdff0f54	-0.124540955
72	0xbdbc4d0b	-0.09194382
73	0x3e122ee5	0.14275701
74	0xbc7fbd8f	-0.015609159
75	0x3e4b4c65	0.19853361
76	0x3eed753e	0.4637851
77	0x3e45554a	0.19270816
78	0x3de61daa	0.11236127
79	0x3e2af8d9	0.1669649
80	0xbf09fbbc	-0.5389974
81	0xbedfef08	-0.43737054
82	0xbe407c50	-0.18797421
83	0x3e44134c	0.19147986
84	0xbe6d1755	-0.23153432
85	0xbf1d0cd1	-0.6134768
86	0xbdae9525	-0.08524541
87	0xbd270e83	-0.040785324
88	0xbeaa447d	-0.33255377
89	0x3b945716	0.004526983
90	0xbe67660a	-0.22597519
91	0xbe706a89	-0.2347814
92	0xbe9f4fea	-0.31115657
93	0xbd89b9f4	-0.06724921
94	0x3e50e5a9	0.20400108
95	0xbe6eb0e3	-0.23309664
96	0xbd71f4db	-0.059071403
97	0x3c1cb5dc	0.009564843
98	0xbe1a7fe8	-0.15087855
99	0xbe81fbb6	-0.25387353
100	0xbe6feeac	-0.2343089
101	0xbf2fc16b	-0.6865451
102	0xbefceecc	-0.49400938
103	0xbdac9566	-0.08426933
104	0xbe038a89	-0.12845816
105	0xbef8bb08	-0.48580194
106	0xbe8b6e7e	-0.27232736
107	0x3e95b51f	0.29239747
108	0xbe2a3640	-0.16622257
109	0xbe9d8b05	-0.30770126
110	0xbefe7621	-0.496995
111	0x3f3bbdf5	0.73336726
112	0x3ee35be4	0.44406044
113	0xbe4c0ae2	-0.19926026
114	0x3ea7d8ce	0.32782596
115	0xbcb91486	-0.022592794
116	0x3e389eb5	0.18029292
117	0xbe4b42b2	-0.19849661
118	0xbd2001b2	-0.039064117
119	0x3e940013	0.28906307
120	0xbe9dddf0	-0.30833387
121	0xbefe75e0	-0.49699306
122	0xbe373ecd	-0.1789505
123	0xbc3ab0bb	-0.011394675
124	0xbdcafec2	-0.099118724
125	0xbecd1577	-0.4005544
126	0xbea96881	-0.33087543
127	0x3d62e44d	0.055393506
128	0xbe969c32	-0.29416043
129	0x3e5e2b6e	0.21696255
130	0xbefd5cfd	-0.49485007
131	0xbe350406	-0.17677316
132	0x3e9f7153	0.31141147
133	0x3e419ba5	0.1890703
134	0x3e30c533	0.17262726
135	0xbf4ee1c2	-0.8081323
136	0x3dce995d	0.100878455
137	0x3ef716fa	0.48259717
138	0xbe0eba04	-0.13938147
139	0xbea0ff3c	-0.31444728
140	0xbe1389a8	-0.1440798
141	0xbeccfce1	-0.4003668
142	0xbf23bcb5	-0.6395982
143	0xbeb2d19f	-0.34925553
144	0xbe94f8a5	-0.2909595
145	0xbe0df2e4	-0.13862187
146	0x3e49c6ee	0.19704792
147	0x3dc80945	0.09767393
148	0xbd50dc67	-0.050991442
149	0x3e74cd7e	0.23906514
150	0xbf0c1a1c	-0.5472734
151	0xbe9af81e	-0.30267423
152	0xbe3b8463	-0.1831222
153	0xbd399036	-0.045303546
154	0x3f0c0eca	0.54710066
155	0xbeedb621	-0.46428016
156	0xbe35279e	-0.17690894
157	0x3c2432c4	0.010021869
158	0x3ecc587a	0.39911252
159	0x3dcdd421	0.10050226
160	0xbf203cac	-0.6259258
161	0xbeb1ff09	-0.3476489
162	0x3c83b96c	0.016079627
163	0xbda4aff2	-0.080413714
164	0xbeb42a20	-0.3518839
165	0xbe6281c1	-0.2211981
166	0xbe01555c	-0.12630218
167	0xbd51e260	-0.05124128
168	0xbcc39341	-0.023873927
169	0xbcfde478	-0.030992731
170	0x3e202ae4	0.15641361
171	0x3e0aebb8	0.13566482
172	0x3e00ae5c	0.12566513
173	0x3d9ff4de	0.078103766
174	0x3df51c81	0.11968327
175	0x3e3bd241	0.18341924
176	0xbed62119	-0.41822127
177	0x3d733368	0.059375197
178	0x3dcbfc31	0.09960211
179	0xbe9de225	-0.30836597
180	0x3cd8bb26	0.026456427
181	0xbdc186ef	-0.09449565
182	0x3f433bd5	0.7626317
183	0xbdb0053b	-0.08594748
184	0xbeb35525	-0.35025898
185	0xbd650b65	-0.05591907
186	0xbc1cd33e	-0.009571848
187	0xbe7a9ffd	-0.24475093
188	0xbd2cffad	-0.04223602
189	0xbd4165ed	-0.047216345
190	0x3e87399f	0.2641115
191	0x3d70adbc	0.058759436
192	0xbd99ba69	-0.07506258
193	0x3ea13d9f	0.31492326
194	0x3e0d0c87	0.1377431
195	0x3d49ed71	0.049298707
196	0xbe1b88d5	-0.15188916
197	0x3d8b830a	0.06812103
198	0x3e94bc56	0.2904994
199	0x3dc83303	0.09775355
200	0xbf126fcc	-0.5720184
201	0xbc3955c0	-0.011311948
202	0x3efd71cc	0.49500883
203	0x3f026569	0.5093599
204	0x3de502f2	0.111822024
205	0xbee38481	-0.4443703
206	0xbe948f4e	-0.29015583
207	0xbe8baa38	-0.27278304
208	0xbe5c5832	-0.21518019
209	0xbf1a1390	-0.601861
210	0xbe80aaac	-0.25130212
211	0xbec36b95	-0.38168016
212	0xbedac94a	-0.42731696
213	0x3e66826f	0.22510694
214	0xbe4b61ce	-0.19861528
215	0xbe001595	-0.12508233
216	0x3e92b37e	0.28652567
217	0x3ede4ded	0.43418828
218	0x3ebda235	0.37037817
219	0x3e80d6d1	0.25163892
220	0x3e2b4a34	0.16727525
221	0xbea3db65	-0.32003322
222	0xbec0304a	-0.37536842
223	0xbd7c0dff	-0.061536785
224	0xbcb621c8	-0.022232905
225	0xbd341c53	-0.043972325
226	0x3bd3e166	0.0064660786
227	0x3d4d26ea	0.05008594
228	0xbd11faab	-0.035639446
229	0xbce57209	-0.028008478
230	0xbba8d6c9	-0.0051525575
231	0x3c98eb95	0.018667022
232	0xbd63b135	-0.05558892
233	0x3d834274	0.06409159
234	0x3cb764fd	0.022387022
235	0x3d162117	0.03665265
236	0x3cdc4145	0.026886592
237	0xbd5ab09c	-0.053391084
238	0xbd3d3248	-0.04619053
239	0x3d3f40ff	0.046692844
240	0xbd5b4927	-0.05353656
241	0x3d2ba651	0.04190666
242	0xbcbc143e	-0.022958871
243	0x3d55db58	0.052211136
244	0x39bbedb3	0.0003584452
245	0xbd64a64e	-0.055822663
246	0x3bcdf87e	0.006285726
247	0x3d807deb	0.06274017
248	0xbd054ded	-0.03254502
249	0xbcff784f	-0.031185297
250	0x3c0941d4	0.008377511
251	0xbec8b1ca	-0.39198142
252	0xbea52850	-0.32257318
253	0x3e2546a2	0.16140226
254	0x3e92fe1a	0.2870949
255	0xbe8440e9	-0.25830773

conv2.bias f4 [20]
0	0xbf66435a	-0.8994652
1	0x3ea946f8	0.33061957
2	0xbefb9df8	-0.49143958
3	0x3d80d0f8	0.062898576
4	0xbd53a08c	-0.05166678
5	0xbe874dec	-0.26426637
6	0xbf103c4c	-0.56342006
7	0xbe36e644	-0.17861277
8	0xbde36227	-0.111027054
9	0x3cdf01ee	0.0272226
10	0x3e3c30aa	0.18377939
11	0xbe431b9e	-0.19053504
12	0xbf0284d9	-0.5098396
13	0xbea305aa	-0.3184026
14	0xbd8c6bcd	-0.06856499
15	0x3e35b87e	0.1774616
16	0xbe97964c	-0.29606855
17	0xbebe99a9	-0.37226608
18	0x3dc5d094	0.09658924
19	0xbe2db5fd	-0.16963954

fc1.weight f4 [50, 320]
0	0x3e1209c9	0.14261545
1	0x3ad7f1f4	0.0016475306
2	0x3e461d64	0.19347149
3	0x3d86eadb	0.06587764
4	0x3e472cb9	0.19450654
5	0xbe3bfb22	-0.18357518
6	0xbda9f830	-0.08299291
7	0x3e112c3e	0.14177033
8	0xbd814a50	-0.06313002
9	0xbec1a7d3	-0.37823352
10	0xbe1e8b1a	-0.1548275
11	0x3d17bb8a	0.037044086
12	0xbec686af	-0.3877463
13	0xbe894b0e	-0.26815075
14	0x3e375a7a	0.17905608
15	0x3e066286	0.13123521
16	0xbe021c9a	-0.12706223
17	0xbda5a2aa	-0.08087666
18	0x3d82cd3d	0.06386802
19	0x3d8e0d8b	0.06936177
20	0xbe21c6ab	-0.15798442
21	0xbbed34b8	-0.0072389506
22	0x3d1cc3a9	0.038272534
23	0x3e1a7c86	0.15086564
24	0xbe42bf21	-0.19018222
25	0x3dd5d7de	0.10441564
26	0xbd593291	-0.05302674
27	0xbca7d5bf	-0.020487664
28	0xbe60fc87	-0.21971332
29	0x3d12f667	0.03587952
30	0x3e5822b5	0.2110699
31	0xbe3e869d	-0.18606038
32	0xbd5df637	-0.054189887
33	0x3de82c5f	0.11336588
34	0x3da2e069	0.07952959
35	0x3d0a9ea0	0.033842683
36	0xbd4e617f	-0.05038595
37	0x3e2c7acf	0.16843723
38	0x3e0f990e	0.1402323
39	0x3d7e3bb4	0.062068656
40	0xbe04efa7	-0.12982045
41	0x3dfcc58d	0.12342367
42	0x3e5fd5d3	0.21858911
43	0x3dd1738e	0.102271184
44	0xbe5e05a9	-0.21681847
45	0xbe38d29e	-0.18049094
46	0xbd81b970	-0.063341975
47	0x3ebf90f2	0.37415272
48	0x3dbd2d0a	0.09237106
49	0xbd6ed878	-0.05831191
50	0xbdc18114	-0.09448448
51	0xbd0b6db6	-0.034040175
52	0xbedd6a12	-0.43244988
53	0xbe5e8ba0	-0.2173295
54	0x3e070683	0.13186078
55	0xbde2facd	-0.11082993
56	0x3eb1ccc9	0.3472655
57	0x3e2aa95a	0.16666165
58	0xbe5a45b7	-0.21315657
59	0xbe3198e1	-0.17343475
60	0x3e06eab9	0.13175477
61	0x3ec99c9d	0.393773
62	0xbe4e48d6	-0.20144972
63	0x3d76eb77	0.06028315
64	0xbc658359	-0.0140083665
65	0xbeb4fff2	-0.3535152
66	0xbe60a71c	-0.21938747
67	0x3e3bc90d	0.18338414
68	0xbd1421e6	-0.03616514
69	0x3e72a2ce	0.23694918
70	0x3df45b61	0.11931492
71	0xbdfbc15a	-0.12292738
72	0x3cb41e74	0.021987177
73	0x3e422448	0.18959153
74	0xb9bd9ce1	-0.00036165773
75	0xbddf6ea5	-0.10909776
76	0xbe357ee6	-0.17724189
77	0xbdbd284b	-0.09236201
78	0x3e5c0ef3	0.21490078
79	0x3e15ab18	0.14616048
80	0x3c1e0f80	0.00964725
81	0x3d03eb52	0.03220684
82	0x3e01174a	0.1260654
83	0x3cfd133a	0.030892957
84	0xbc52d6e0	-0.012868613
85	0xbe42d7ea	-0.19027677
86	0xbcebca5b	-0.028783014
87	0x3de20a64	0.11037138
88	0x3e274011	0.16333033
89	0x3ddfa6b8	0.10920471
90	0x3cf993b5	0.03046594
91	0xbdedd32d	-0.11612544
92	0xbe643d73	-0.22289066
93	0xbe541784	-0.20712095
94	0x3e244570	0.16042113
95	0x3e1d8fb8	0.15386856
96	0x3dd1603c	0.102234334
97	0xbe3f9de6	-0.18712577
98	0x3e0de881	0.13858224
99	0xbb94a6ad	-0.004536471
100	0x3a390b2f	0.00070588564
101	0xbe2c5927	-0.16830884
102	0xbdf43649	-0.119244166
103	0x3e7931ca	0.243354
104	0x3ecfd0eb	0.4058908
105	0xbdb1efe8	-0.086883366
106	0xbd2d8c94	-0.042370394
107	0x3e220ab8	0.15824401
108	0xbe4198f8	-0.18906009
109	0xbe3802f8	-0.17969882
110	0xbe649921	-0.22324039
111	0xbc40c159	-0.011764848
112	0x3c2c186c	0.0105038695
113	0x3dcf745b	0.10129615
114	0x3e232ab9	0.15934266
115	0xbe07f0e0	-0.1327548
116	0x3ed5a33d	0.41726103
117	0xbdeebcdd	-0.116571166
118	0x3cf05aa0	0.029340088
119	0x3d9dae0d	0.07699213
120	0xbeb7eb4c	-0.35921705
121	0xbeb34cc2	-0.350195
122	0xbd868ba2	-0.065696016
123	0x3e7c6958	0.2464956
124	0x3d911dea	0.07085784
125	0xbe3fb67c	-0.18721956
126	0x3c8551af	0.016274301
127	0x3d7797fd	0.06044768
128	0x3bb84193	0.0056230514
129	0x3db713d5	0.089393295
130	0xbe22d4c8	-0.15901482
131	0xbddb3584	-0.10703567
132	0x3c81499a	0.015782166
133	0x3cdcb120	0.026939929
134	0xbe0a1038	-0.1348275
135	0xbe088b3a	-0.1333436
136	0xbe8be4d0	-0.27323008
137	0xbcd177c6	-0.025569808
138	0xbdb3dfa2	-0.08782889
139	0x3d4d0354	0.050052002
140	0xbdb4ae47	-0.08822303
141	0xbe272d0d	-0.1632578
142	0x3ccc08f2	0.02490661
143	0x3e2e5e7f	0.17028235
144	0x3d650e5f	0.05592191
145	0xbc361a95	-0.011114736
146	0x3e899179	0.268688
147	0x3e35a1c3	0.17737488
148	0x3e91c402	0.28469855
149	0x3d68c2e3	0.056826483
150	0x3c0e00a8	0.008667149
151	0xbe9474f3	-0.28995475
152	0xbdc96008	-0.0983277
153	0xbe1ca3e6	-0.15296897
154	0xbe7fca14	-0.2497943
155	0xbd9a5d18	-0.075372875
156	0xbe08b127	-0.13348828
157	0xbeb4badf	-0.3529882
158	0xbe3dba70	-0.18528152
159	0x3dff750a	0.12473495
160	0xbec5f059	-0.38659933
161	0xbe36d79d	-0.17855687
162	0xbdf3b5c0	-0.118999004
163	0xbda0bcd1	-0.07848514
164	0x3d7fca8a	0.062449016
165	0x3e9cd4af	0.30631015
166	0x3d34d9f8	0.044153184
167	0xbe5e1d1a	-0.21690789
168	0x3bd23398	0.006414842
169	0x3e50320e	0.20331594
170	0xbe40a4f7	-0.18812929
171	0x3da3d235	0.07999078
172	0x3d67459b	0.056462865
173	0xbb6a632a	-0.0035764673
174	0xbdbd2681	-0.0923586
175	0x3e7c50dd	0.24640222
176	0x3d65f76a	0.056144156
177	0x3e00c7a5	0.12576158
178	0xbdd6a76a	-0.104811504
179	0xbe3259fe	-0.17417142
180	0xbed0028c	-0.40626943
181	0xbeaef138	-0.3416841
182	0xbc66b38f	-0.014080896
183	0x3ea2a6dc	0.3176793
184	0x3db99c10	0.0906297
185	0xbd57c651	-0.052679364
186	0xbd528e21	-0.051405076
187	0xbd5a1a07	-0.053247478
188	0x3f01a28d	0.5063866
189	0x3e4967ec	0.1966855
190	0xbe033f64	-0.1281715
191	0xbe4981c7	-0.19678412
192	0x3d0e06d6	0.034674488
193	0x3cd227c7	0.025653733
194	0xbdcb3f22	-0.09924151
195	0x3e09c56b	0.13454215
196	0x3e0f619e	0.14002082
197	0x3d9e4ce0	0.077295065
198	0x3deab099	0.114594646
199	0x3ccc2538	0.024920091
200	0x3d860d67	0.06545525
201	0xbe1d1805	-0.15341194
202	0xbd8e8d23	-0.069605134
203	0x3e305bef	0.1722257
204	0xbee1af54	-0.44079077
205	0xbddb1f6c	-0.106993526
206	0x3cede14c	0.029038094
207	0x3c71ad66	0.014750814
208	0x3d504450	0.050846398
209	0x3cf55fc0	0.029952884
210	0x3cff16a7	0.031138731
211	0xbdfb023d	-0.12256286
212	0xbe8daac2	-0.2766934
213	0xbd06a78b	-0.032874625
214	0x3c13f5b7	0.009030751
215	0x3d94a27c	0.07257554
216	0xbeede834	-0.4646622
217	0xbe7cf8fa	-0.24704352
218	0x3e1701a9	0.14746727
219	0x3ecb23b0	0.39675665
220	0x3e640e10	0.2227099
221	0xbda5e27c	-0.08099839
222	0xbc1c2bfb	-0.00953197
223	0xbdbb40d3	-0.091432236
224	0x3e732f0b	0.23748414
225	0xbe89624d	-0.2683281
226	0xbe42d4a0	-0.19026423
227	0xbca896ec	-0.020579778
228	0xbf08a69e	-0.5337924
229	0xbc9341a5	-0.017975638
230	0x3c49b2b5	0.0123106735
231	0xbd799cd1	-0.060940567
232	0x3e4b20f4	0.1983679
233	0x3d0e6b7e	0.03477048
234	0xbe82cb41	-0.25545695
235	0xbe26e779	-0.16299237
236	0x3deb663b	0.11494108
237	0x3e951c29	0.29123047
238	0xbc982642	-0.01857293
239	0x3e55cbc3	0.2087851
240	0x3d05246b	0.032505434
241	0x3b5c3133	0.003359866
242	0xbe43f2eb	-0.19135635
243	0xbe7841fe	-0.24243924
244	0xbedbcb7d	-0.42928687
245	0xbed9ea8c	-0.42561758
246	0x3dcdf22b	0.100559555
247	0xbda022e0	-0.07819152
248	0x3ee78bb3	0.4522377
249	0xbc7ec88f	-0.015550747
250	0xbd91c985	-0.07118515
251	0xbe99cff3	-0.30041465
252	0x3d24fb71	0.040278856
253	0xbe0f79b0	-0.14011264
254	0x3db095df	0.08622336
255	0x3daca3ed	0.08429704

fc1.bias f4 [50]
0	0xbd3ad2ed	-0.04561131
1	0xbe861142	-0.26185042
2	0x3e7da75d	0.24770875
3	0xbe637eef	-0.2221639
4	0x3e250194	0.16113883
5	0x3dde4ff7	0.10855096
6	0x3f34bcf5	0.70600826
7	0x3e33022f	0.17481302
8	0x3dbcf6f2	0.092267886
9	0x3db973f6	0.09055321
10	0x3de966ab	0.113965355
11	0x3e8ce06b	0.27514967
12	0x3ec82472	0.39090306
13	0x3f3e9fe5	0.7446273
14	0xbe4572e3	-0.19282107
15	0x3f25edbb	0.6481587
16	0x3e86255a	0.26200372
17	0xbd958f90	-0.07302773
18	0xbe87e9ed	-0.2654566
19	0x3ee637c8	0.44964433
20	0x3dda6881	0.10664464
21	0x3df2ab38	0.11849064
22	0x3f6f22d2	0.93412507
23	0xbe7a3adf	-0.2443652
24	0xbd99c955	-0.07509104
25	0xbe12677c	-0.14297289
26	0x3e6bedb2	0.23039892
27	0x3f592aed	0.84831125
28	0x3e18c1d6	0.14917693
29	0xbdda37e1	-0.10655189
30	0x3e9692e7	0.29408953
31	0x3f59c38a	0.85063994
32	0xbc6a350a	-0.014294872
33	0xbe0964f0	-0.13417411
34	0x3e6f4118	0.23364675
35	0x3f3eef55	0.7458394
36	0x3f578e36	0.8420137
37	0xbeb70bb3	-0.35751113
38	0x3ef8d3b7	0.48599026
39	0x3de4f1d3	0.11178937
40	0x3f45f733	0.7733032
41	0x3f07506c	0.5285709
42	0x3e12aa88	0.14322865
43	0xbe5ff885	-0.21872146
44	0x3dc2433c	0.0948548
45	0xbe9d1802	-0.3068238
46	0xbb9a9ee3	-0.004718648
47	0x3e8fca9d	0.2808427
48	0x3f451d96	0.7699827
49	0xbec078d7	-0.37592193

fc2.weight f4 [10, 50]
0	0xbd3663ca	-0.04452876
1	0x3c1e8203	0.009674552
2	0x3ea41c20	0.32052708
3	0xbed08353	-0.40725192
4	0x3f08c8cf	0.5343141
5	0xbe5acb9e	-0.21366736
6	0x3ca7bba8	0.020475224
7	0x3e01c420	0.12672472
8	0x3ed72c1b	0.42025837
9	0x3ed17f49	0.40917423
10	0x3d87b5fc	0.06626508
11	0x3ee81813	0.45330867
12	0xbe1fde2f	-0.156121
13	0x3de2d226	0.11075239
14	0xbe925270	-0.2857852
15	0xbf17a30b	-0.5923316
16	0x3e3c9886	0.18417558
17	0x3f05cac4	0.5226252
18	0xbdb406ba	-0.087903455
19	0x3eb08e22	0.3448344
20	0x3e2ac773	0.16677646
21	0xbd39d1eb	-0.04536621
22	0xbe18fc8e	-0.14940092
23	0xbeec4c65	-0.46152034
24	0xbe4aaf5b	-0.19793455
25	0x3ee98a77	0.45613453
26	0x3ec9dcae	0.39426178
27	0xbf1333ad	-0.57500726
28	0xbee61bfd	-0.44943228
29	0xbdb52a24	-0.08845928
30	0xbec9dad6	-0.3942477
31	0x3ed96809	0.42462185
32	0x3e9aa643	0.30204973
33	0xbf0408dc	-0.5157602
34	0xbefd3b84	-0.4945947
35	0xbebd4836	-0.36969155
36	0xbe8c39c4	-0.27387822
37	0xbdf1390e	-0.117784604
38	0xbe84be23	-0.25926313
39	0xbe88de4d	-0.26732102
40	0xbda049cd	-0.078265764
41	0xbe50ca38	-0.2038964
42	0xbea19435	-0.31558385
43	0xbf0f2f9e	-0.55932033
44	0x3ead05c8	0.33793473
45	0xbe541747	-0.20712005
46	0xbd81fccd	-0.06347046
47	0xbed81453	-0.42203006
48	0xbec5cad0	-0.38631296
49	0xbe33a58f	-0.17543624
50	0xbe9420c0	-0.28931236
51	0xbb97bba4	-0.004630523
52	0xbe168f99	-0.14703216
53	0xbeb15a12	-0.3463903
54	0xbece82f6	-0.4033429
55	0xbd598d14	-0.05311306
56	0x3f01fd3e	0.5077704
57	0xbedae69c	-0.42754066
58	0xbed12f19	-0.40856245
59	0xbe578a3e	-0.21048829
60	0xbf0521ff	-0.52005
61	0xbef16e8f	-0.47154662
62	0x3ea0af5e	0.31383795
63	0x3ee161da	0.44019967
64	0xbef843db	-0.4848927
65	0x3eeafc97	0.45895836
66	0xbe2e9b23	-0.17051367
67	0xbef9b771	-0.48772767
68	0xbea15d25	-0.31516376
69	0xbe9bbc6d	-0.30417195
70	0xbd8e939d	-0.06961749
71	0xbe8c3afe	-0.27388757
72	0x3ead2fcc	0.3382553
73	0xbeb79d74	-0.35862315
74	0xbe9fdc4f	-0.3122277
75	0xbf2552fb	-0.64579743
76	0xbe56db31	-0.20982052
77	0x3ec74362	0.38918597
78	0xbe53c2df	-0.20679806
79	0xbead8292	-0.3388868
80	0xbe91a3fd	-0.28445426
81	0x3e45f106	0.19330224
82	0xbf1de26d	-0.61673623
83	0xbe70ce27	-0.23516141
84	0x3ecef31a	0.40419847
85	0x3ec08f51	0.37609342
86	0x3ede7768	0.43450475
87	0xbee67c62	-0.45016772
88	0x3e9ebcd2	0.31003433
89	0xbece31f4	-0.40272486
90	0x3e351475	0.17683585
91	0x3eb1bd33	0.3471466
92	0x3cf90669	0.030398564
93	0xbee1175c	-0.43963134
94	0xbef6625f	-0.48121926
95	0xbe7a2fff	-0.24432372
96	0xbe39f3f5	-0.18159468
97	0x3e1273bd	0.14301963
98	0x3ee24b1a	0.44197923
99	0xbed817d3	-0.42205676
100	0x3ea339af	0.31879947
101	0x3eaf844d	0.34280625
102	0x3eb9dd81	0.36301807
103	0x3ec53a58	0.38521075
104	0xbe4909b6	-0.1963261
105	0x3ece4627	0.40287897
106	0x3dcebd0e	0.10094653
107	0x3c77e03d	0.015129146
108	0x3cc2de2f	0.023787586
109	0x3e6901fa	0.2275466
110	0xbe8da795	-0.27666917
111	0xbe838557	-0.25687668
112	0x3ec7e774	0.39043772
113	0x3d9feb9d	0.078086115
114	0xbe414bc1	-0.18876554
115	0x3d9638b7	0.07335036
116	0xbda40b78	-0.0801
117	0xbe9ac5c7	-0.30229017
118	0xbe0b71ee	-0.1361768
119	0xbe237d2b	-0.15965717
120	0x3edcb1ce	0.43104404
121	0x3eb34a45	0.350176
122	0x3c45cfdf	0.012073486
123	0xbe93918c	-0.2882198
124	0x3e7f0d2b	0.24907367
125	0xbeabb339	-0.33535174
126	0x3ea5e156	0.3239848
127	0x3d305ef9	0.043059323
128	0xbdc8c367	-0.09802895
129	0xbdbef646	-0.09324317
130	0x3cdfd622	0.027323786
131	0xbdf930d3	-0.121675156
132	0xbcce6672	-0.025195334
133	0x3dfb1ad7	0.12260979
134	0x3d70497e	0.058663838
135	0xbe764a25	-0.24051721
136	0x3efb0534	0.49027407
137	0x3ecfb6df	0.40569207
138	0xbe644328	-0.22291243
139	0xbe09f5c7	-0.13472663
140	0xbe126acc	-0.14298552
141	0x3ed1ba37	0.40962383
142	0x3ee51b02	0.44747168
143	0xbebd2632	-0.36943203
144	0xbe9567fd	-0.291809
145	0x3eb2054c	0.34769666
146	0xbe09f9e6	-0.13474235
147	0x3e8340fa	0.2563551
148	0xbe54995c	-0.20761627
149	0xbe5411ea	-0.20709959
150	0x3e2951a3	0.16535048
151	0xbe67d106	-0.2263833
152	0xbe5e1d23	-0.21690802
153	0x3e2db239	0.16962518
154	0xbe88b9bc	-0.26704204
155	0x3d91c8b3	0.071183585
156	0xbec9c9be	-0.3941173
157	0xbe55840c	-0.20851153
158	0x3e2b31cb	0.16718213
159	0xbe3f96f4	-0.18709928
160	0xbea444f8	-0.3208387
161	0x3d9dfb55	0.077139534
162	0xbe1c0848	-0.15237534
163	0xbef0ef11	-0.47057393
164	0x3cda65a4	0.026659794
165	0x3eb3bebe	0.35106462
166	0xbe8de5b5	-0.27714315
167	0xbcded555	-0.027201334
168	0x3e0cfba9	0.13767876
169	0xbea9643c	-0.33084285
170	0x3ea5d875	0.32391706
171	0xbe6ac3e4	-0.22926289
172	0x3d90edca	0.07076605
173	0x3ecc9b62	0.39962298
174	0x3ddf97cd	0.109176256
175	0xbe0474da	-0.129352
176	0xbe167a74	-0.1469515
177	0xbcb35adb	-0.02189391
178	0x3ef0da55	0.47041574
179	0x3f14d742	0.5814096
180	0xbccb1c7b	-0.024793854
181	0xbe0b569b	-0.13607256
182	0x3e96f3a0	0.29482746
183	0x3ebe314b	0.37146983
184	0x3f10e299	0.5659576
185	0x3d174835	0.036934096
186	0xbcf4bc8f	-0.029875068
187	0x3d9de5c6	0.077098414
188	0x3d7e7582	0.062123783
189	0xbe7f2250	-0.24915433
190	0xbd9084b7	-0.07056563
191	0xbc27b062	-0.010234924
192	0x3f04b057	0.51831573
193	0xbded0615	-0.11573426
194	0x3d0f3ece	0.034972005
195	0x3df868ce	0.12129365
196	0xbdb50020	-0.088379145
197	0x3f0733e5	0.5281356
198	0xbed43305	-0.41445175
199	0x3dd848bb	0.10560747
200	0xbdb6d317	-0.08926981
201	0x3c177023	0.009243044
202	0x3e2fc7a7	0.17166005
203	0xbe956bfa	-0.29183942
204	0xbe4beffb	-0.19915764
205	0xbba4de22	-0.005031363
206	0x3e14443d	0.14479156
207	0x3edee81c	0.4353646
208	0x3d3f4866	0.046699904
209	0x3d87ca04	0.06630328
210	0x3ea652e6	0.3248512
211	0xbeb3f6ed	-0.35149327
212	0xbcc47fc8	-0.023986712
213	0x3e582197	0.21106564
214	0x3dcf0504	0.101083785
215	0xbde7c36a	-0.11316569
216	0x3e87242c	0.26394784
217	0xbee60e5e	-0.44932836
218	0x3ca288bb	0.019840589
219	0x3d7ea221	0.062166337
220	0xbd7b73e8	-0.061389834
221	0x3ef92122	0.4865809
222	0x3de634be	0.112405285
223	0x3e6b8ac1	0.23002149
224	0xbda45d5a	-0.08025618
225	0xbd84df14	-0.06487861
226	0xbd41fbf7	-0.047359433
227	0x3eca2a3f	0.39485356
228	0x3ee3c5e1	0.44486907
229	0xbe8f96b1	-0.28044656
230	0x3ea13d81	0.31492236
231	0xbdc5d1d1	-0.0965916
232	0xbd168318	-0.036746114
233	0xbd75d78b	-0.06002001
234	0xbe2fd2bb	-0.17170231
235	0x3e809844	0.2511617
236	0x3e9e22af	0.30885836
237	0xbdf424e8	-0.11921102
238	0xbdfbb5de	-0.12290548
239	0x3eeeb14c	0.46619642
240	0x3c4b4ee7	0.0124089485
241	0xbe615bf7	-0.22007738
242	0xbe75a7f8	-0.23989856
243	0x3eb9f0d8	0.36316562
244	0x3d65414e	0.055970483
245	0xbe7fbe7b	-0.24975006
246	0x3d25c9da	0.040475704
247	0xbea7cb2e	-0.327722
248	0x3ecb2ce7	0.39682695
249	0xbe3db69b	-0.1852669
250	0x39e153db	0.0004297782
251	0xbe4aa7e8	-0.19790614
252	0xbe82de70	-0.2556033
253	0xbe5411b2	-0.20709875
254	0xbbb34a68	-0.0054715164
255	0xbe8a8be5	-0.27059856

fc2.bias f4 [10]
0	0x3ebb6a70	0.36604643
1	0x3f356b1b	0.70866555
2	0xbead4dea	-0.33848506
3	0x3e42a76a	0.19009176
4	0xbe5b3221	-0.21405841
5	0xbe448780	-0.19192314
6	0xbf65b8d7	-0.8973517
7	0xbf077cc8	-0.52924776
8	0x3f08dc77	0.534614
9	0xbdd18b6e	-0.10231672

momentum_buffer f4 [10, 1, 5, 5]
0	0xbd3f487f	-0.046699997
1	0xbd8cedf5	-0.06881324
2	0xbd4621be	-0.048372023
3	0xbdd1d9ba	-0.10246606
4	0xbd47d4fe	-0.04878711
5	0xbda14e61	-0.07876278
6	0xbd2f347d	-0.042774666
7	0xbd577a3a	-0.0526068
8	0xbd20daaa	-0.039271034
9	0xbb600e93	-0.0034188374
10	0xbd683de4	-0.05669965
11	0xbc1c381a	-0.00953486
12	0x3b971656	0.004610817
13	0x3c52e690	0.012872353
14	0xb987f92e	-0.0002593486
15	0x3c00a57d	0.0078519555
16	0x3d155ad0	0.03646356
17	0x3d3891b6	0.045060836
18	0x3c461520	0.0120899975
19	0x389043e5	6.8791014e-05
20	0x3d7be8c4	0.06150128
21	0x3d92b42f	0.071632735
22	0x3d113a76	0.035456143
23	0x3c01d326	0.007923877
24	0x3c5f4472	0.0136271585
25	0x398a4090	0.00026369514
26	0x3c18fa4a	0.009337017
27	0x3d405ca6	0.046963356
28	0x3d2d42c1	0.04229999
29	0x3c0979bc	0.00839084
30	0xbc1be588	-0.009515174
31	0x3ce7d9e4	0.02830214
32	0x3d03425e	0.032045715
33	0x3c2f85c8	0.010713048
34	0xbc914c06	-0.017736446
35	0xbd920876	-0.0713052
36	0xbab4d1e4	-0.0013795462
37	0x3c35bd10	0.011092439
38	0xbc54f7dc	-0.012998547
39	0xbc873109	-0.016502874
40	0xbda75dc4	-0.08172181
41	0xbc480748	-0.012208767
42	0xbc7a13d4	-0.015263516
43	0xbc5faa04	-0.013651375
44	0xba15590f	-0.00056971697
45	0xbd42d6de	-0.047568195
46	0x3ba3c786	0.0049981503
47	0xbb2686f4	-0.0025410028
48	0xb8f5d2bf	-0.00011721765
49	0xb8d79b28	-0.00010280899
50	0x3c085472	0.008320915
51	0x393041c0	0.00016809162
52	0x3a17a949	0.00057854183
53	0xb8249312	-3.9237617e-05
54	0xb718e071	-9.112163e-06
55	0x3cbff0b4	0.023430206
56	0x3b13b6b3	0.0022539317
57	0x3b6e177b	0.0036329913
58	0x365e37f1	3.311314e-06
59	0x36f7507d	7.3705437e-06
60	0x3d78ffb5	0.060790736
61	0x3c8f99ee	0.017529454
62	0x3bc50208	0.006012205
63	0xb5b66720	-1.359007e-06
64	0x35dd69ea	1.6496608e-06
65	0x3d65a4b0	0.05606526
66	0x3d1378c4	0.036003843
67	0x3c5548c1	0.013017834
68	0xb7b16baf	-2.1150188e-05
69	0xb90734cf	-0.00012894276
70	0x3d6947f7	0.056953397
71	0x3d0100a2	0.031494744
72	0x3c05c034	0.008163501
73	0xb8d2c591	-0.0001005038
74	0xb98b4b63	-0.00026568313
75	0x3ce2bc74	0.027677752
76	0x3b1dc531	0.0024073834
77	0x3cbcea22	0.023060862
78	0x3c9377c1	0.018001439
79	0xba5fa240	-0.0008530952
80	0x3b182e9d	0.0023221143
81	0xba7371dc	-0.0009286681
82	0x3bf8915a	0.0075856866
83	0x3c4721f1	0.012154088
84	0x3bec2b3c	0.0072073024
85	0x37c789fb	2.37869e-05
86	0xb9c24f05	-0.00037061438
87	0x3b91dd1a	0.004451406
88	0x3cbb80c2	0.022888545
89	0x3c9e21ba	0.019303191
90	0x38671445	5.509357e-05
91	0xbc533567	-0.01289115
92	0xbb7f3043	-0.0038938678
93	0x3cb097bc	0.021556728
94	0x3c9822dc	0.01857131
95	0x3a218edb	0.000616295
96	0xbcfe4812	-0.031040225
97	0xbb6123a2	-0.0034353514
98	0x3cba5155	0.02274386
99	0x3bdf2b87	0.006810609
100	0xbd1c28b7	-0.038124766
101	0xbcdc24ea	-0.02687307
102	0xbc89f660	-0.016841114
103	0xbd001ed2	-0.031279393
104	0xbd0499a6	-0.032373093
105	0xbc3589e8	-0.011080243
106	0xbc17cda4	-0.009265337
107	0xbb2fdfd3	-0.002683629
108	0xb9b64b53	-0.00034769866
109	0xbb7ba341	-0.0038396867
110	0xbd6c36cc	-0.057669446
111	0xbd4affc1	-0.049560312
112	0xbc3944ed	-0.011307937
113	0x3bab61bd	0.005230157
114	0x3b3e8df4	0.002907631
115	0xbd812390	-0.06305611
116	0xbd8b54a7	-0.068032555
117	0xbd6bedf9	-0.057599995
118	0xbb4cd728	-0.0031256173
119	0xbcd80e90	-0.026374131
120	0xbdb6563d	-0.089031674
121	0xbde4fcb5	-0.111810125
122	0xbe1a120f	-0.15045951
123	0xbe26cc5b	-0.16288893
124	0xbe00538b	-0.12531869
125	0xbba59dd6	-0.005054216
126	0xbb6a862a	-0.0035785534
127	0x3c852ca4	0.016256638
128	0x3da308f3	0.07960691
129	0x3dc5d3a2	0.096595064
130	0xb91da66e	-0.00015034687
131	0xbb8748f7	-0.004128571
132	0x3bc6105c	0.0060444307
133	0x3d5fe9cd	0.05466633
134	0x3d924bc3	0.07143357
135	0xb72b74f1	-1.0219622e-05
136	0xba94f434	-0.0011364282
137	0xb9c2e8df	-0.00037176066
138	0x3ca4045a	0.020021606
139	0x3cb1e066	0.021713447
140	0x38d3c9ca	0.0001009885
141	0x398008de	0.0002442067
142	0x38abce46	8.192337e-05
143	0xba2169ec	-0.0006157446
144	0xbb209200	-0.0024501085
145	0x3b10a08c	0.002206835
146	0xbb15cf60	-0.00228592
147	0xbb5a3534	-0.0033295872
148	0xbc171d32	-0.009223269
149	0xbc46b8e4	-0.012129042
150	0x3d377f64	0.044799224
151	0x3dadb5b2	0.08481921
152	0x3daf775c	0.08567688
153	0x3d8892d6	0.06668632
154	0x3dbf8a20	0.09352517
155	0x3d9e8b60	0.077414274
156	0x3dbf78bb	0.093491994
157	0x3cdfda26	0.027325701
158	0xbd15d9d3	-0.036584686
159	0x3bd74524	0.0065695215
160	0x3d5afd44	0.05346419
161	0x3cc4baae	0.024014797
162	0xbc9ff366	-0.019525241
163	0xbd291bd0	-0.04128629
164	0xbc553131	-0.013012216
165	0x3cda7c24	0.026670523
166	0x3ca85d33	0.020552253
167	0x3b3dacfe	0.0028942223
168	0xbb4f9ecf	-0.003168035
169	0x3cd87b1e	0.026425894
170	0x3c2dd460	0.010609716
171	0x3b465e71	0.0030268694
172	0x3b576739	0.0032867922
173	0xbb30c455	-0.0026972492
174	0x3cb28e70	0.021796435
175	0xbbca9be5	-0.006183135
176	0x3c2906c2	0.010316553
177	0x3d3598c5	0.044335146
178	0x3adfbfca	0.0017070707
179	0xbb88141a	-0.004152787
180	0xbcaab42c	-0.020837866
181	0xbca16384	-0.019700773
182	0x3bc60587	0.0060431394
183	0xbb238420	-0.0024950579
184	0xbbece3d3	-0.007229307
185	0x3c6db971	0.014509545
186	0x3ca4fb78	0.02013944
187	0x3c8b234d	0.016984606
188	0xbc2136fc	-0.009839769
189	0xbc7d41ec	-0.0154576115
190	0x3bccef98	0.0062541477
191	0x3cdeb5a2	0.027186219
192	0x3d3205f8	0.043462723
193	0x3cacda1e	0.0211001
194	0xbc7485f4	-0.014924515
195	0xbc20597c	-0.00978696
196	0x3cff9a9d	0.031201655
197	0x3d02e4bf	0.03195643
198	0x3c18280c	0.009286892
199	0xbc70f8f0	-0.014707789
200	0x3c45b597	0.01206722
201	0xb9f805d8	-0.000473066
202	0x39a18db0	0.00030813878
203	0x3bc5b47e	0.0060334792
204	0x3d7554c1	0.05989528
205	0x3a7f2d07	0.00097341876
206	0xbaa90071	-0.0012893808
207	0x3a49b49b	0.0007694454
208	0x3c4fb5ac	0.012677591
209	0xbd1669e6	-0.036722086
210	0xbb9b9b8c	-0.0047487672
211	0xba441953	-0.000748058
212	0xbc7f6198	-0.015587233
213	0xbdb19065	-0.08670119
214	0xbd7c6c85	-0.06162693
215	0xba7bb1b4	-0.000960137
216	0xbbbc2ec8	-0.0057428814
217	0xbd925231	-0.07144583
218	0xbd0339fa	-0.032037713
219	0x3d086937	0.033303466
220	0xbc37fd2a	-0.011229793
221	0xbd973127	-0.07382422
222	0xbd93e7ff	-0.07221984
223	0xba305730	-0.0006726859
224	0xbbf98984	-0.00761527
225	0x3436cc89	1.702448e-07
226	0x336f4d39	5.5716757e-08
227	0x32e027ec	2.6095186e-08
228	0x32e93e62	2.7153138e-08
229	0xb5c954fd	-1.5000402e-06
230	0x36270ab9	2.489118e-06
231	0x31f4be7f	7.1229915e-09
232	0x31f770e2	7.2014794e-09
233	0x329670e4	1.7513635e-08
234	0xb5bcb349	-1.405927e-06
235	0x3784d658	1.5835438e-05
236	0x3512eaf4	5.473114e-07
237	0xb58a1d51	-1.0290333e-06
238	0xb5a70236	-1.2443113e-06
239	0xb5a02d9f	-1.1934206e-06
240	0x3781dc34	1.5480538e-05
241	0x369fdc4c	4.764215e-06
242	0xb5bb321c	-1.394717e-06
243	0xb5d2d813	-1.5709105e-06
244	0xb5d318a4	-1.5727896e-06
245	0x37816793	1.5426229e-05
246	0x33821d4c	6.058926e-08
247	0xb5d35e0a	-1.5748094e-06
248	0xb5d35203	-1.5744594e-06
249	0xb5d33ea9	-1.5738962e-06

momentum_buffer f4 [10]
0	0xbd82d0fd	-0.063875176
1	0xbdabb002	-0.0838318
2	0x3d6c1aa7	0.057642605
3	0x3c95dd78	0.018294081
4	0xbe64af2e	-0.22332451
5	0x3dcf4152	0.10119881
6	0x3e2324d3	0.15932016
7	0x3cc1ddf6	0.02366541
8	0xbc454ea0	-0.012042671
9	0x3771dab1	1.4415637e-05

momentum_buffer f4 [20, 10, 5, 5]
0	0x3ab9c265	0.0014172314
1	0xbc86523c	-0.016396634
2	0xbb04979a	-0.0020231963
3	0xb9d9a437	-0.00041511815
4	0xb992c440	-0.00027993508
5	0xbca4b665	-0.020106504
6	0xbc85b2c3	-0.016320592
7	0xb9b90610	-0.00035290467
8	0xb9e62948	-0.00043899775
9	0xb9163990	-0.00014326558
10	0xbc7117d6	-0.014715156
11	0x39bdf0e6	0.00036228372
12	0xb85f30a4	-5.3212643e-05
13	0xb9d54865	-0.00040680464
14	0xb9dcb8d9	-0.00042099392
15	0xb99b6c96	-0.00029644807
16	0x3a02eb31	0.00049941527
17	0xb9a15bfb	-0.00030776844
18	0x39458483	0.00018836748
19	0x3b58f36f	0.0033104082
20	0xb6f668a5	-7.3435535e-06
21	0x3a368d00	0.00069637597
22	0xb9f422d9	-0.0004656527
23	0x397ba3e1	0.00023998275
24	0x3b3b6918	0.0028596576
25	0xbba95c0c	-0.0051684435
26	0xbb807644	-0.0039203484
27	0xba78681d	-0.00094759633
28	0xb8bba651	-8.947834e-05
29	0xb748ae1a	-1.1961465e-05
30	0xbb513d17	-0.0031927282
31	0xb96f0d74	-0.00022797828
32	0x345977a8	2.025323e-07
33	0xb62d58c6	-2.5830682e-06
34	0xb8c3b75c	-9.332478e-05
35	0x339794a2	7.0585216e-08
36	0xb8042cb4	-3.1512885e-05
37	0xb84ba681	-4.855404e-05
38	0xb9e76212	-0.00044132821
39	0x398cb25d	0.00026835772
40	0x3a2e2bcb	0.0006644099
41	0xba895369	-0.0010477129
42	0xba022a85	-0.00049654423
43	0xbbd803bc	-0.006592242
44	0xbbeec188	-0.0072862543
45	0xba0d37bb	-0.00053870276
46	0x39be2a81	0.00036271292
47	0x3982c8ab	0.00024945042
48	0xb88c2eb7	-6.6844215e-05
49	0xba26eee3	-0.00063679944
50	0x3b007e95	0.0019606699
51	0xb93332c7	-0.00017089686
52	0x38737145	5.8041205e-05
53	0xb7fca962	-3.0119616e-05
54	0x38940e14	7.059812e-05
55	0x3ad0ec9a	0.0015939653
56	0x39a2cbcd	0.0003105089
57	0xb4fd478f	-4.7176988e-07
58	0xb92339fa	-0.0001556649
59	0xb72b8d14	-1.0225242e-05
60	0xb8a65eb5	-7.9331374e-05
61	0x3288395f	1.5858573e-08
62	0xb4fce677	-4.7106343e-07
63	0xb61c2187	-2.3265327e-06
64	0x361328cf	2.192846e-06
65	0xb83c0286	-4.4825043e-05
66	0xb78eabc8	-1.7007711e-05
67	0xb68deff0	-4.23006e-06
68	0x371d7121	9.384269e-06
69	0x371df72f	9.415481e-06
70	0xb81bca58	-3.7143327e-05
71	0x320c6308	8.17159e-09
72	0xb82dd9ec	-4.144937e-05
73	0xb9d8640f	-0.0004127328
74	0x390b4188	0.00013280485
75	0xb9c6b919	-0.0003790341
76	0x38ff2270	0.00012165762
77	0xb9c0b09f	-0.00036752687
78	0xbb2f8db3	-0.002678734
79	0x3adad4f6	0.0016695547
80	0xb7fef0ca	-3.0391286e-05
81	0x38bd6750	9.031466e-05
82	0x3867dafd	5.527864e-05
83	0xb8e0ad91	-0.000107134816
84	0x39a704e3	0.00031856363
85	0x35d124c6	1.5582416e-06
86	0xb7fd71af	-3.0212888e-05
87	0x38cee674	9.865771e-05
88	0xb941fe70	-0.000185007
89	0xb8f17e13	-0.00011515259
90	0x3a0ca88c	0.00053656916
91	0xb93fce31	-0.00018291992
92	0x36be5e8e	5.673449e-06
93	0xb8d9f8f6	-0.00010393739
94	0xba819343	-0.0009885806
95	0x3908afa2	0.00013035399
96	0x3775d067	1.465166e-05
97	0x379bff3f	1.8596298e-05
98	0x39a33dae	0.00031135738
99	0xbaa2f495	-0.001243251
100	0x3b373a58	0.002795836
101	0x352fa17f	6.542759e-07
102	0xb711d1c7	-8.691516e-06
103	0x38e99b93	0.00011139284
104	0xba4bb907	-0.00077714067
105	0x3a36b658	0.00069699204
106	0x3a39f857	0.00070941955
107	0x39ef5340	0.00045647658
108	0xb912a44c	-0.0001398485
109	0x395d5664	0.00021108385
110	0x3c3bd6b9	0.011464768
111	0x3b65e350	0.0035078116
112	0x3a3b0320	0.00071339495
113	0xbc13301c	-0.008983638
114	0x3b88f757	0.004179876
115	0xbbacd73b	-0.005274681
116	0xba3378f1	-0.000684633
117	0x3c717f68	0.014739849
118	0xbc1cf78a	-0.009580502
119	0xbce4d484	-0.027933367
120	0x3bf7def7	0.0075644213
121	0x3b94c675	0.0045402595
122	0x3ac2ca41	0.0014861302
123	0x3725c5ed	9.88085e-06
124	0xbbe2decd	-0.0069235326
125	0xbb9f90d6	-0.0048695607
126	0xbc61015a	-0.013733232
127	0xbc591126	-0.013248717
128	0x3bd8527a	0.006601629
129	0x3bdb6df7	0.0066964584
130	0xb8d1fb09	-0.000100126555
131	0x3b8ab185	0.0042325878
132	0xba5aed84	-0.00083514326
133	0x3ae02fa0	0.0017104037
134	0x3b535eaa	0.003225247
135	0x34ecbc38	4.4095373e-07
136	0x3b5db0bd	0.0033827268
137	0x3ac70321	0.0015183428
138	0xbb0ed686	-0.0021795346
139	0xbadf2ea4	-0.001702745
140	0x398385aa	0.00025085855
141	0x38c685dd	9.46631e-05
142	0xb8603c18	-5.346173e-05
143	0xb8f9da26	-0.000119138786
144	0x3928db40	0.00016103406
145	0x3c53aba2	0.012919338
146	0x3c2dbcfb	0.0106041385
147	0xbbd6578e	-0.006541199
148	0xb8af922b	-8.371876e-05
149	0x3983a8a7	0.00025111923
150	0xbb1c1cfc	-0.0023820987
151	0xbc14495b	-0.009050692
152	0xbcc60573	-0.02417252
153	0xbbafd73a	-0.005366233
154	0x3b923a46	0.004462513
155	0xb8bd0744	-9.0135756e-05
156	0x391d286f	0.0001498775
157	0x3b44f404	0.0030052671
158	0x3c0e7029	0.008693733
159	0x3b94c913	0.0045405715
160	0xb9030d3b	-0.00012498062
161	0x3abbc026	0.0014324232
162	0xba6e6f6e	-0.0009095584
163	0xba931e56	-0.0011224251
164	0xb9ab9004	-0.00032722962
165	0x3c2d24fc	0.0105679
166	0x3bb986fe	0.0056618443
167	0x3b3909f0	0.0028234683
168	0xbb6a4a8a	-0.0035749995
169	0xbcb8839b	-0.022523692
170	0xbceb8b1f	-0.028752862
171	0xbd11b0db	-0.035569053
172	0xbcefa9c8	-0.029255763
173	0xbcd73626	-0.026270937
174	0xbca8183c	-0.020519368
175	0x3c700805	0.0146503495
176	0xb700ad5a	-7.669756e-06
177	0xba0e0f96	-0.00054191926
178	0x38d6af90	0.00010237016
179	0xbb06da6e	-0.0020576972
180	0x3c382916	0.011240264
181	0xba100909	-0.00054945104
182	0xba8a7476	-0.0010563273
183	0xb7f5d9da	-2.9307721e-05
184	0xb83c673f	-4.491885e-05
185	0x3bde1a4e	0.006778038
186	0x3c8ac338	0.01693879
187	0xba22011f	-0.00061799766
188	0x3a368662	0.00069627736
189	0xb8e83cb8	-0.00011073932
190	0xbc81912a	-0.01581629
191	0x3b5d6781	0.0033783617
192	0x3c2c3ee9	0.010513046
193	0x3bb9ccfc	0.005670188
194	0xbc6a0847	-0.0142842
195	0x3af51791	0.001869904
196	0xb98194e4	-0.0002471573
197	0xba8833d4	-0.0010391423
198	0x3c5da5b0	0.0135282725
199	0xbc5810ff	-0.013187646
200	0xba94caa4	-0.0011351896
201	0x3bb29d7e	0.0054509034
202	0x3b2b90f6	0.0026178933
203	0x38dc6d00	0.0001051072
204	0xb6f4e920	-7.298906e-06
205	0x398b56ce	0.0002657682
206	0x396c3b82	0.00022528882
207	0xb9a9a20a	-0.0003235492
208	0x3aefb679	0.0018288634
209	0xbc77eddc	-0.015132394
210	0x3b98827b	0.0046542264
211	0xbb3a56c5	-0.0028433066
212	0xbc46df7a	-0.012138242
213	0x3b1d1a0c	0.0023971824
214	0x3c4cd3d9	0.01250168
215	0x3c041880	0.008062482
216	0x3abe7ff8	0.0014533987
217	0xbc79e8c1	-0.015253247
218	0xbbe218d8	-0.0068999343
219	0x3b737780	0.0037150085
220	0x3c18c180	0.009323478
221	0x3b930288	0.0044863857
222	0x39e9f52f	0.000446239
223	0xbb1af21e	-0.0023642848
224	0xbb75980e	-0.0037474665
225	0x9b21737f	-1.3354927e-22
226	0xa61e1ac8	-5.4853557e-16
227	0x967b325e	-2.0291512e-25
228	0x9903cc46	-6.813794e-24
229	0x1a82aec1	5.404907e-23
230	0xa6b27fd2	-1.2385877e-15
231	0x842e0322	-2.045504e-36
232	0x0000fac2	8.9955e-41
233	0x0982ed74	3.151966e-33
234	0x0d76eb6a	7.608797e-31
235	0x80000001	-1e-45
236	0x00000001	1e-45
237	0x800000aa	-2.38e-43
238	0xa17a003f	-8.470362e-19
239	0x8ca89aa4	-2.597757e-31
240	0x80000d29	-4.721e-42
241	0x2def0568	2.7173555e-11
242	0xa9b0eb33	-7.8567707e-14
243	0xaee56334	-1.04313364e-10
244	0xa8e44159	-2.5341425e-14
245	0xa675b2b7	-8.5243654e-16
246	0xa394d3e7	-1.6135936e-17
247	0x280da05b	7.861844e-15
248	0xaf6287eb	-2.0602868e-10
249	0x2d8fc0c1	1.6342818e-11
250	0x3bd54c54	0.006509343
251	0x39c884a3	0.00038245795
252	0xbc2e5b44	-0.010641877
253	0xbb84c2e0	-0.004051551
254	0xbcc787f1	-0.024356814
255	0x39d8375f	0.00041239985

momentum_buffer f4 [20]
0	0xbc33a3b1	-0.01096432
1	0xbe023db2	-0.12718847
2	0xbcdb4ec5	-0.026770959
3	0x3b246bf6	0.0025088764
4	0x3d85466e	0.06507574
5	0xbd1c12b4	-0.038103774
6	0xbcb625d2	-0.022234831
7	0xbc75a6ac	-0.014993351
8	0x3b4ee49f	0.0031569374
9	0x3d8b5212	0.06802763
10	0xbbe20ad4	-0.0068982635
11	0xbd1bb16c	-0.038011
12	0x3a8a1c59	0.0010537013
13	0x3d7b1c64	0.061306372
14	0x3bed9bbf	0.0072512324
15	0xbca466aa	-0.020068485
16	0x3b9aaf48	0.004720602
17	0xbbc6bb3b	-0.0060648
18	0xbaa2738c	-0.0012394055
19	0x3b6dc3f0	0.0036280118
