checkpoints/task-002.pth (torch, 179983 bytes, 16 tensors)

conv1.weight f4 [10, 1, 5, 5]
0	0xbf22de8b	-0.63620824
1	0x3e8f10f1	0.27942613
2	0x3f4805ba	0.7813374
3	0xbe947a42	-0.28999525
4	0xbf50c7e2	-0.81554997
5	0xbeccbcbe	-0.3998775
6	0x3d976755	0.07392756
7	0x3f353713	0.7078716
8	0xbd8480e4	-0.064698964
9	0xbf82752f	-1.0192012
10	0x3d9a26d2	0.07526936
11	0x3f245573	0.64192885
12	0x3ef396b2	0.4757591
13	0xbe3d54f3	-0.18489437
14	0xbf3e46fe	-0.74327075
15	0x3f006068	0.50147104
16	0x3d979a2a	0.07402451
17	0xbd5194a7	-0.051167157
18	0xbf1158a2	-0.5677587
19	0xbf221f7c	-0.6332929
20	0x3d8ba012	0.0681764
21	0xbe00b803	-0.12570195
22	0xbebbce7a	-0.36680967
23	0xbeada01f	-0.33911225
24	0xbf051154	-0.51979566
25	0xbe7cb7e7	-0.24679528
26	0xbecfe56b	-0.4060472
27	0xbe6d877a	-0.23196211
28	0x3be959fb	0.007121322
29	0x3e2cb10d	0.16864415
30	0xbe9dd636	-0.30827492
31	0xbf047071	-0.5173407
32	0xbe5b9057	-0.2144178
33	0x3ec742b1	0.3891807
34	0x3e295aad	0.16538496
35	0x3e0f229b	0.13978045
36	0x3eb7f71b	0.35930714
37	0x3f935478	1.1510153
38	0xbcf49459	-0.029855894
39	0xbfa25700	-1.26828
40	0x3f388102	0.7207185
41	0x3f33b5c6	0.7019924
42	0xbd337d87	-0.043820884
43	0xbecff371	-0.4061542
44	0xbf85d4c2	-1.0455554
45	0xbe22a1be	-0.15882012
46	0xbf082628	-0.5318322
47	0xbf94efef	-1.1635722
48	0xbf7cc706	-0.98741186
49	0xbeea6e39	-0.45787218
50	0xbd889eb7	-0.066708975
51	0xbe27d1a9	-0.16388573
52	0xbd5386bc	-0.051642165
53	0xbcc752dd	-0.024331504
54	0x3e95cc6e	0.2925753
55	0x3e559426	0.20857295
56	0x3c923d15	0.017851392
57	0xbde01759	-0.10941953
58	0xbe00c2dd	-0.12574334
59	0xbd8195cf	-0.06327402
60	0x3dd0f3da	0.10202761
61	0xba3fac6b	-0.0007311764
62	0xbcbd8b82	-0.023137812
63	0xbde43a6f	-0.11143958
64	0xbddb90b3	-0.107209586
65	0x3e5cc606	0.21559915
66	0x3c97ec03	0.018545156
67	0xbdefe580	-0.117136955
68	0xbe4f4e45	-0.20244701
69	0x3d518ec3	0.05116154
70	0x3e4bd302	0.19904712
71	0x3e7d63e9	0.24745144
72	0xbea6ce02	-0.32579046
73	0xbe17c48d	-0.14821072
74	0x3e4f1092	0.20221165
75	0xbf2af5f0	-0.6678152
76	0xbf19abbe	-0.6002768
77	0xbe8600fa	-0.2617262
78	0x3e463097	0.19354473
79	0x3e3bc123	0.18335395
80	0xbf0b82ee	-0.5449666
81	0xbf151306	-0.5823215
82	0x3e396281	0.18103983
83	0x3f5b0537	0.8555483
84	0xbeb38ef8	-0.35070014
85	0xbf5f8cba	-0.87324107
86	0xbf244521	-0.6416798
87	0xbe7b6670	-0.24550796
88	0x3f8a3833	1.0798401
89	0xbf0bba38	-0.5458102
90	0xbf19f777	-0.60143226
91	0xbe858450	-0.2607751
92	0xbda82497	-0.08210104
93	0x3f2cd7ce	0.6751679
94	0xbd2d2783	-0.04227401
95	0x3daef16f	0.085421436
96	0xbe38ad09	-0.18034758
97	0x3e2fc5ff	0.17165373
98	0x3f307f40	0.6894417
99	0x3f1a7b40	0.60344315
100	0xbea0eb41	-0.31429484
101	0x3e447089	0.19183554
102	0xbe12b609	-0.14327253
103	0x3e9af5e9	0.3026574
104	0x3f67bc0d	0.9052132
105	0xbf36f1a8	-0.7146249
106	0xbf4d4dd1	-0.80196863
107	0xbfa16992	-1.2610343
108	0xbf8e51ac	-1.1118674
109	0xbc8fcdcd	-0.017554188
110	0xbe263e48	-0.16234696
111	0x3eb72f91	0.35778478
112	0xbef3a1dc	-0.47584426
113	0xbf252479	-0.6450878
114	0xbf802842	-1.0012286
115	0x3e78fbba	0.24314776
116	0x3f2d9632	0.67807305
117	0xbd74cf83	-0.05976821
118	0xbf278bc4	-0.6544764
119	0xbe5add5c	-0.21373504
120	0xbca12260	-0.019669712
121	0xbe08d949	-0.13364138
122	0x3f5398b6	0.82654893
123	0x3f1e45b2	0.61825097
124	0x3f42a5d0	0.7603426
125	0xbed76276	-0.42067307
126	0xbd0b4920	-0.034005284
127	0x3e9b281f	0.30304047
128	0x3f55fc42	0.8358804
129	0x3f4b3ed6	0.79392755
130	0xbf136b54	-0.57585645
131	0xbf0010ae	-0.5002545
132	0xbeae1c3b	-0.34005913
133	0xbe847851	-0.25873044
134	0x3ebbec27	0.36703607
135	0xbf57bb98	-0.8427062
136	0xbeb8005f	-0.35937783
137	0xbea73800	-0.32659912
138	0xbeaaadc2	-0.33335692
139	0x3d90adce	0.070644006
140	0xbf233785	-0.6375659
141	0xbee1daf3	-0.44112357
142	0xbf19356a	-0.5984713
143	0xbf411a65	-0.754309
144	0xbeab9832	-0.33514553
145	0xbec1b380	-0.3783226
146	0xbdceda8a	-0.10100277
147	0xbddc2320	-0.10748887
148	0xbe5452eb	-0.20734756
149	0x3ea7c30b	0.32765993
150	0x3e3d5ecb	0.18493192
151	0xbec441f6	-0.38331574
152	0xbf0cca1e	-0.54995906
153	0x3e952dd8	0.29136539
154	0x3ef7d11f	0.48401734
155	0x3f06b884	0.526253
156	0x3f6bd3cc	0.9212005
157	0x3f6b8ab5	0.92008525
158	0x3ec39663	0.38200673
159	0x3e8d2741	0.2756901
160	0xbeb69e69	-0.35667732
161	0xbd3a1696	-0.045431696
162	0xbe0a6361	-0.13514473
163	0x3f0c8c6d	0.5490177
164	0xbee968d6	-0.45587796
165	0xbf9a4c8b	-1.2054609
166	0x3eb39f4b	0.35082468
167	0x3f3d40e8	0.73927164
168	0xbe649fbc	-0.22326559
169	0xbf6ebafc	-0.93254066
170	0xbfc4f19a	-1.5386231
171	0xbfa4154c	-1.2818999
172	0xbfd776dd	-1.6833149
173	0xbfcbf600	-1.5934448
174	0x3d07da64	0.033167258
175	0x3e96e6cb	0.29472956
176	0xbed88aa4	-0.42293274
177	0x3e1a9d8a	0.15099159
178	0xbe760d23	-0.24028449
179	0x3e001aa5	0.12510164
180	0x3ebf741e	0.37393278
181	0xbd0fa6aa	-0.035071053
182	0xbf58e858	-0.8472953
183	0xbf838eac	-1.0277915
184	0xbd394fcb	-0.045242112
185	0x3e7d7f1a	0.24755517
186	0x3f8830fe	1.0639951
187	0xbea29f44	-0.31762135
188	0xbf17bb6c	-0.5927036
189	0x3f1cdcfb	0.6127469
190	0xbf3e057d	-0.74227124
191	0x3f924f28	1.1430407
192	0x3e0ec401	0.13941957
193	0xbecbc1e5	-0.39796367
194	0xbe03d6ff	-0.12874983
195	0xbe0fecd0	-0.1405518
196	0x3ec51d06	0.38498706
197	0x3ea8d940	0.3297825
198	0xbdbf3d1c	-0.093378276
199	0x3dd6053b	0.104502164
200	0x3c4069ae	0.011743946
201	0xbe918322	-0.2842036
202	0xbe32864e	-0.17434046
203	0xbf211552	-0.6292316
204	0xbf621d35	-0.88325816
205	0x3e31f130	0.17377162
206	0xbebc42e1	-0.36769775
207	0xbf46307a	-0.7741772
208	0xbed79e45	-0.42112938
209	0xbe66133b	-0.22468273
210	0x3ea62023	0.32446393
211	0xbf662d18	-0.8991256
212	0xbf15bb78	-0.5848918
213	0x3e16b6d5	0.14718182
214	0x3cbb86df	0.02289146
215	0xbe5c7309	-0.21528257
216	0xbf449e93	-0.76804465
217	0x3dd6df4b	0.104918085
218	0x3e52d1e4	0.2058788
219	0x3f552b80	0.832695
220	0xbf848cae	-1.0355432
221	0xbede063f	-0.4336414
222	0xbd937ce6	-0.07201557
223	0xbdfef221	-0.12448526
224	0x3f3cde5f	0.7377681
225	0xbd960aa3	-0.073262475
226	0x3c8bd8fa	0.017071236
227	0xbd04ec39	-0.032451842
228	0xbd0472d1	-0.03233606
229	0x3d54862a	0.05188576
230	0xbcf5dba6	-0.030011963
231	0xbe4293f0	-0.19001746
232	0xbe1ee700	-0.15517807
233	0xbe3b8003	-0.18310551
234	0x3d8dced4	0.06924215
235	0x3e294856	0.165315
236	0xbe09e36b	-0.1346566
237	0x3e40a960	0.18814611
238	0xbd365701	-0.044516567
239	0x3d402210	0.046907485
240	0xbdc37027	-0.09542876
241	0xbc0acab5	-0.008471181
242	0x3d31979c	0.043357477
243	0xbdafc0de	-0.08581708
244	0x3c9eff10	0.019408733
245	0x3dddb1b6	0.10824911
246	0xbe216012	-0.15759304
247	0x3cbfd894	0.023418702
248	0xbceb335f	-0.02871102
249	0xbd8af162	-0.06784321

conv1.bias f4 [10]
0	0xbf328bf2	-0.6974479
1	0xbf38226f	-0.7192754
2	0xbe816a18	-0.25276256
3	0xc019d5d2	-2.4036756
4	0xbf806f9f	-1.0034064
5	0xbf0a5bf1	-0.5404654
6	0xbeefcc5f	-0.4683561
7	0xbfc2c867	-1.5217408
8	0xbed92358	-0.42409778
9	0xbe568868	-0.20950472

conv2.weight f4 [20, 10, 5, 5]
0	0x3e5b6e2b	0.21428744
1	0x3ecc1594	0.39860213
2	0x3ef5e96e	0.48029655
3	0x3ddc81a1	0.10766912
4	0xbdd0453f	-0.10169458
5	0x3e97be6d	0.2963747
6	0xbe9f5061	-0.31116012
7	0xbeb63f8d	-0.3559536
8	0xbe225b64	-0.15855175
9	0xbdbd2c19	-0.092369266
10	0xbe92aa2e	-0.28645462
11	0xbeb62d02	-0.35581213
12	0x3e9ed49f	0.31021592
13	0xbe931d97	-0.28733513
14	0xbe9f06fc	-0.31060016
15	0xbecd8a23	-0.40144452
16	0x3dccafa4	0.09994438
17	0x3ee12e3b	0.43980584
18	0x3e0cb8a2	0.13742307
19	0x3d426cc6	0.047467016
20	0xbe31013d	-0.17285629
21	0xbe08784f	-0.13327144
22	0x3dfa6acb	0.122274004
23	0x3e8d2cb5	0.2757317
24	0x3dd7da14	0.10539642
25	0x3e6dcc73	0.23222522
26	0xbd8a2b28	-0.06746513
27	0x3e4e6913	0.2015727
28	0x3e6ec02f	0.233155
29	0x3dda45e3	0.10657861
30	0xbd74b11b	-0.059739213
31	0xbf1d044d	-0.6133469
32	0xbf089a01	-0.5335999
33	0xbe170912	-0.14749554
34	0x3cd85260	0.026406467
35	0xbadb2ae0	-0.0016721152
36	0xbe887a99	-0.26656035
37	0xbcd1499f	-0.0255478
38	0xbdac3f8e	-0.084105596
39	0xbe492078	-0.19641292
40	0x3e15fe10	0.14647698
41	0x3ee66154	0.4499613
42	0x3e1e14ed	0.1543767
43	0x3e5b06a0	0.21389246
44	0x3ccfd17b	0.025368443
45	0x3e0b5f1c	0.136105
46	0x3d4c7ef6	0.049925767
47	0x3d9962d9	0.07489557
48	0x3d464c40	0.04841256
49	0x3e3a76cf	0.18209384
50	0x3d98d485	0.0746241
51	0xbd093222	-0.033495076
52	0xbc4e955a	-0.01260885
53	0x3cff7e4e	0.031188156
54	0xbab4932d	-0.0013776772
55	0x3d50a088	0.050934345
56	0xbc530c48	-0.012881346
57	0xbcb132f2	-0.021630738
58	0xbcf52e35	-0.02992926
59	0x3a841ed4	0.0010079988
60	0x3e47e491	0.19520785
61	0x3e14e33c	0.14539808
62	0x3d42ac97	0.047527876
63	0xbc31d724	-0.010854516
64	0xbd99ac6b	-0.07503589
65	0xbbccec3d	-0.0062537477
66	0x3c1ba7b7	0.009500436
67	0x3d346c9f	0.0440489
68	0x3cce54ee	0.025186982
69	0x3cb2063c	0.021731488
70	0x3c64a8e0	0.013956279
71	0xbd445c6f	-0.047939714
72	0xbd1ac166	-0.037782095
73	0x3b8eabca	0.004353975
74	0xbd16163e	-0.036642306
75	0x3ebc1375	0.36733595
76	0x3ec66dc0	0.38755608
77	0x3ed3a9cc	0.41340482
78	0x3e83c154	0.25733435
79	0x3d4e346d	0.050342966
80	0xbeb5c5bd	-0.35502425
81	0xbeb2a674	-0.3489262
82	0xbd76ca3b	-0.060251456
83	0x3e46e834	0.19424516
84	0xbeaab223	-0.33339033
85	0xbf014d93	-0.50508994
86	0xbe6438e9	-0.22287335
87	0xbe0e62ab	-0.13904826
88	0xbde64c09	-0.11244971
89	0xbe6cd7f8	-0.2312926
90	0xbe4a5ebc	-0.19762701
91	0xbe9b791e	-0.30365843
92	0xbeaef578	-0.34171653
93	0xbdad322c	-0.08456835
94	0x3d94fcd1	0.072747834
95	0xbe049553	-0.12947588
96	0xbe0c1280	-0.13678932
97	0xbe25f596	-0.16206965
98	0xbe79cd7e	-0.24394795
99	0xbe0c14db	-0.1367983
100	0xbe091b58	-0.13389337
101	0xbf0d3249	-0.55154854
102	0xbea62ebb	-0.32457528
103	0xbca5105f	-0.020149408
104	0xbe07896e	-0.13236019
105	0xbed2b8fa	-0.4115675
106	0xbe85f20f	-0.2616124
107	0x3e023cad	0.12718458
108	0xbe89a2dd	-0.26882067
109	0xbeb0e13b	-0.34546837
110	0xbf056c1a	-0.52118075
111	0x3efdd13e	0.49573702
112	0x3ee668eb	0.4500192
113	0xbe684868	-0.22683871
114	0x3c7fe6fc	0.015619036
115	0x3de7f519	0.113260455
116	0x3ea57a81	0.32320026
117	0x3eae757b	0.34074005
118	0x3e237b56	0.15965018
119	0x3eedda30	0.46455526
120	0xbef4125b	-0.47670254
121	0xbecdd218	-0.4019935
122	0x3ab28188	0.0013618926
123	0x3de54eac	0.11196646
124	0x3b8a524e	0.0042212373
125	0xbebc0a9d	-0.36726847
126	0xbe963445	-0.29336753
127	0x3cc8716c	0.024468146
128	0xbe3a2976	-0.18179879
129	0x3d8a7552	0.06760658
130	0xbe8ff5f7	-0.28117344
131	0xbc9324ec	-0.017961942
132	0x3e5ca274	0.21546346
133	0x3e37a74c	0.17934912
134	0x3ec26aa3	0.37971982
135	0xbf0c2f95	-0.54760104
136	0x3bd1b0bb	0.0063992417
137	0x3eb16ea9	0.3465474
138	0xbd79940c	-0.060932204
139	0xbe7b77d6	-0.24557433
140	0xbd5914fd	-0.05299853
141	0xbeb61dfd	-0.35569754
142	0xbef5701a	-0.4793709
143	0xbee00810	-0.4375615
144	0xbed647c0	-0.41851616
145	0x3e253ef7	0.161373
146	0xbdc32103	-0.09527781
147	0x3c4b8e4b	0.012424062
148	0x3d9c7e29	0.07641251
149	0x3e3b5c4e	0.1829693
150	0xbeb71828	-0.35760617
151	0xbe868f5b	-0.26281247
152	0xbecec681	-0.4038582
153	0xbeab23b0	-0.33425665
154	0x3ea4c6df	0.32182977
155	0xbe633ec6	-0.22191915
156	0xbdd23991	-0.10264886
157	0xbde8e47e	-0.113717064
158	0x3e7d27fc	0.24722284
159	0x3e89fa3a	0.2694872
160	0xbf07d47f	-0.5305862
161	0xbe9be8e7	-0.30451128
162	0x3e59b060	0.21258688
163	0x3dd04988	0.10170275
164	0xbe910cad	-0.28329983
165	0xbd6c627f	-0.05771112
166	0xbde4436c	-0.11145672
167	0xbd2fe3da	-0.042941906
168	0xbde034d8	-0.10947579
169	0xbddb4710	-0.107069135
170	0x3e8751d0	0.26429605
171	0x3dff9090	0.12478745
172	0x3e9562a5	0.29176822
173	0xbd8f9f40	-0.070127964
174	0x3d9e770c	0.0773755
175	0x3e315ba3	0.17320113
176	0xbe32bd1c	-0.17454952
177	0x3dbbdc7a	0.09172912
178	0x3c6d57aa	0.014486233
179	0xbde54ab1	-0.11195887
180	0x3e448b7f	0.19193839
181	0xbd1dbcd8	-0.038510174
182	0x3f333967	0.70009464
183	0xbd917422	-0.07102229
184	0xbda4fbda	-0.080558494
185	0x3e0b6e75	0.13616355
186	0xbc65be51	-0.014022426
187	0xbe873362	-0.2640639
188	0xbdadac62	-0.08480145
189	0xbe02630d	-0.12733097
190	0x3de7caaa	0.11317952
191	0x3dcf36a8	0.10117847
192	0xbe342ffa	-0.17596427
193	0x3dce8e0b	0.10085686
194	0x3e6f6ab3	0.23380546
195	0xbd84cebf	-0.06484746
196	0xbcc42aa6	-0.023946118
197	0x3e4f17ae	0.20223877
198	0x3e495784	0.19662291
199	0x3ddb963e	0.10722016
200	0xbefb6777	-0.49102375
201	0x3e02cd36	0.12773594
202	0x3f235748	0.63805056
203	0x3ed49216	0.41517705
204	0xbd0c1422	-0.034198888
205	0xbef01122	-0.4688807
206	0xbe32490d	-0.17410679
207	0xbe4d8002	-0.20068362
208	0xbf01c64b	-0.50693196
209	0xbf15dabd	-0.58536893
210	0xbebb3242	-0.3656178
211	0xbead889e	-0.33893293
212	0xbd87d1a3	-0.06631782
213	0x3d9d3977	0.07676976
214	0xbdeba237	-0.115055494
215	0xbe1d3f6b	-0.15356223
216	0x3e0e5aa5	0.13901766
217	0x3eb07eaa	0.34471637
218	0x3efa3790	0.48870516
219	0x3ea9c1e3	0.33155736
220	0x3ce948a5	0.028477022
221	0xbe50a94b	-0.2037708
222	0xbe0239a3	-0.12717299
223	0x3e43a40d	0.19105549
224	0xbd240558	-0.04004416
225	0xbd36e9a2	-0.044656403
226	0x3bd3d2bc	0.0064643305
227	0x3d4c7461	0.049915675
228	0xbd141c48	-0.036159784
229	0xbce9cc89	-0.028539913
230	0xbbb96a69	-0.005658437
231	0x3c9210a1	0.017830195
232	0xbd6a69f2	-0.057229944
233	0x3d7a6887	0.06113484
234	0x3cb965f1	0.022631617
235	0x3d16a6bf	0.036780115
236	0x3cd615b2	0.026133392
237	0xbd5ba15c	-0.05362068
238	0xbd42043b	-0.047367316
239	0x3d3fc7d0	0.046821415
240	0xbd5c3187	-0.05375817
241	0x3d2b066b	0.041754168
242	0xbcb368d3	-0.02190057
243	0x3d5e503c	0.054275736
244	0x3b1762da	0.0023099692
245	0xbd6bac8e	-0.057537608
246	0x3be9d546	0.00713602
247	0x3d764ed3	0.060133766
248	0xbd0803fa	-0.033206917
249	0xbcfc8a84	-0.030827768
250	0x3d0060d6	0.03134235
251	0xbeae5c95	-0.3405501
252	0xbe615158	-0.22003686
253	0x3e0745e1	0.1321025
254	0x3e948fc9	0.2901595
255	0xbe82aa71	-0.2552066

conv2.bias f4 [20]
0	0xbf40b51b	-0.75276345
1	0x3e86e071	0.2634311
2	0xbee14c89	-0.44003704
3	0xbdd2c5d6	-0.102916405
4	0xbdfc9db5	-0.12334768
5	0xbe482c1f	-0.19548081
6	0xbef8f989	-0.4862788
7	0xbd4f4a1a	-0.050607778
8	0xbe500a2b	-0.20316379
9	0xbe32e3c0	-0.17469692
10	0x3e1cb71b	0.15304224
11	0xbe70350e	-0.23457739
12	0xbf0728d8	-0.527967
13	0xbdd7f9b1	-0.10545672
14	0xbda5b5c1	-0.080913074
15	0x3e284ed0	0.16436315
16	0xbe91362d	-0.28361645
17	0xbe9c2e8d	-0.30504265
18	0xbd994a05	-0.07484821
19	0xbda64a87	-0.08119684

fc1.weight f4 [50, 320]
0	0x3ead220f	0.33815047
1	0x3e2968f7	0.16543947
2	0x3e6c605d	0.23083635
3	0x3dd76929	0.105181046
4	0x3e95030a	0.2910388
5	0xbddd6001	-0.10809327
6	0xbe4d500a	-0.20050064
7	0x3e52802e	0.20556709
8	0x3d8ba9b8	0.06819481
9	0xbeb54d64	-0.35410607
10	0x3d3aa426	0.0455667
11	0x3d41d083	0.047317993
12	0xbed1137d	-0.4083518
13	0xbe5bfc86	-0.21483049
14	0xbbdb43a2	-0.006691412
15	0xbdb64ef7	-0.0890178
16	0xbe34da0b	-0.17661302
17	0xbd2be964	-0.041970626
18	0x3de62a6e	0.112385616
19	0xbdfc2287	-0.12311273
20	0xbe80e3a2	-0.2517367
21	0xbc3f1270	-0.011662111
22	0x3b29b280	0.0025893748
23	0x3e6f79a4	0.23386246
24	0xbe1a94cc	-0.15095824
25	0xbdb4adf1	-0.08822239
26	0xbe46b927	-0.19406568
27	0xbe04c31a	-0.1296505
28	0xbdb021a6	-0.08600168
29	0xbdf5322f	-0.119724624
30	0x3dd20f82	0.10256864
31	0x3b4d3dbf	0.003131732
32	0xbd0d3555	-0.03447469
33	0xbcfa2393	-0.030534541
34	0x3d5f721f	0.054552194
35	0xbbd66858	-0.0065432005
36	0x3da07d21	0.078363664
37	0x3e0781de	0.13233134
38	0x3e195244	0.14972788
39	0x3e3f7280	0.18696022
40	0xbe361700	-0.17782211
41	0x3d9f164b	0.07767924
42	0x3e80d5ac	0.2516302
43	0x3cb70487	0.022341026
44	0xbe4bd3ad	-0.19904967
45	0xbe6d2294	-0.23157722
46	0x3e2f5add	0.17124505
47	0x3eb9efbe	0.3631572
48	0x3e39db69	0.18150105
49	0x3d4c58d0	0.049889386
50	0xbd264b4f	-0.040599164
51	0xbe0008f9	-0.12503423
52	0xbe9b2e28	-0.30308652
53	0xbe78d9f3	-0.24301891
54	0xbc73e12e	-0.01488523
55	0xbd3dc5b0	-0.046331108
56	0x3e752266	0.23938903
57	0x3d389d1a	0.0450717
58	0xbe912e19	-0.28355482
59	0xbd0b8d58	-0.034070343
60	0x3db611fa	0.088901475
61	0x3e7e843b	0.2485513
62	0xbe6a4eec	-0.22881669
63	0xbdec36f5	-0.1153392
64	0xbdad0db5	-0.0844988
65	0xbeba2bc9	-0.3636153
66	0xbe6ea662	-0.23305658
67	0x3d98327c	0.07431504
68	0xbe232cdc	-0.15935081
69	0x3e59f4a0	0.21284723
70	0x3c5c39fd	0.01344156
71	0xbe41a88b	-0.1891195
72	0x3e2e1282	0.16999248
73	0x3dd99c12	0.10625471
74	0xbd91a030	-0.071106315
75	0xbdac5647	-0.084148936
76	0xbdd998d2	-0.10624851
77	0xbdbf18b9	-0.09330887
78	0x3dde45cf	0.10853159
79	0x3e5a22fc	0.21302408
80	0xbdaf9ba8	-0.08574611
81	0x3cd9ff01	0.026610853
82	0x3db88919	0.09010524
83	0xbd91071e	-0.070814356
84	0xbd5c073d	-0.05371784
85	0xbe0da7d8	-0.13833559
86	0xbd85f6d1	-0.06541217
87	0x3dbe9d6a	0.09307368
88	0x3e2593e0	0.16169691
89	0xbd9b175f	-0.07572817
90	0xbe0bdf20	-0.13659334
91	0xbd87e51a	-0.066354945
92	0xbe939327	-0.28823206
93	0xbe46117e	-0.1934261
94	0x3de427f8	0.11140436
95	0x3d51aefa	0.05119226
96	0x3e53fde0	0.20702314
97	0xbe5a3c5a	-0.21312085
98	0x3dc44a0f	0.09584438
99	0x3b306aee	0.0026919204
100	0xbd0cf3f8	-0.034412354
101	0xbddca591	-0.10773767
102	0xbe34237d	-0.17591663
103	0x3e0e6910	0.13907266
104	0x3ec4068b	0.38286242
105	0x3d968595	0.073496975
106	0xbe35ee1d	-0.17766614
107	0x3e4fb9f4	0.20285779
108	0xbebffc05	-0.37496963
109	0xbe88579e	-0.26629347
110	0xbe5be023	-0.2147222
111	0x3d907209	0.070530005
112	0x3c1a8952	0.009432154
113	0x3e13402f	0.14379953
114	0x3e7695a1	0.24080516
115	0xbde49bef	-0.111625545
116	0x3e8fd88d	0.28094903
117	0xbe1a1d15	-0.15050156
118	0x3dba519c	0.09097597
119	0x3c9a3c7c	0.01882767
120	0xbec02fcc	-0.37536466
121	0xbea0e815	-0.31427065
122	0x3d201994	0.039086893
123	0x3edbb9ac	0.42915094
124	0xbe3be42f	-0.18348764
125	0xbe70aa45	-0.23502453
126	0x3ce677c0	0.028133273
127	0x3e180acc	0.14847869
128	0x3c665207	0.014057643
129	0x3e3f1574	0.18660527
130	0xbcd8c84f	-0.026462702
131	0x3da8a223	0.0823405
132	0x3e14a3a5	0.1451555
133	0x3d2ee0a8	0.042694718
134	0xbd6496af	-0.055807766
135	0xbe43d97b	-0.19125931
136	0xbd190251	-0.037355725
137	0x3c2767ca	0.010217616
138	0xbdc93618	-0.09824771
139	0x3e32f30a	0.17475525
140	0xbdefa93b	-0.117022
141	0xbdf30f16	-0.11868112
142	0x3dca0162	0.09863545
143	0x3e2971d0	0.16547322
144	0x3da09fe2	0.07842995
145	0x3db804c0	0.08985281
146	0x3e41fcaa	0.1894404
147	0xba8fa763	-0.0010959919
148	0x3ed11e5a	0.4084347
149	0xbd358a60	-0.044321418
150	0x3e7118a7	0.2354456
151	0xbe3df0ea	-0.18548933
152	0x3d31d27e	0.04341363
153	0xbdde6c9d	-0.1086056
154	0xbe04f16a	-0.12982717
155	0x3c015333	0.007893371
156	0xbdc8c615	-0.09803406
157	0xbe8d4fad	-0.2759985
158	0xbd2700b1	-0.040772144
159	0x3e7ae358	0.24500787
160	0xbea6d991	-0.32587865
161	0xbe36a9e3	-0.17838244
162	0xbdc377ba	-0.095443204
163	0xbe5eecdd	-0.21770044
164	0x3d032cbc	0.032025084
165	0x3d4c88f6	0.049935304
166	0xbe11509b	-0.14190905
167	0xbe886fc6	-0.26647776
168	0xbd4cbb10	-0.049983084
169	0x3ca2c821	0.01987082
170	0xbe87ad62	-0.26499468
171	0x3e2e36fc	0.17013162
172	0x3cf76abe	0.030202266
173	0x3dd82a6f	0.105549686
174	0xbd03cd48	-0.032178193
175	0x3e1059db	0.14096777
176	0x3c8596c1	0.016307237
177	0xbd11eb5f	-0.035624858
178	0xbe917784	-0.28411496
179	0xbd90f77d	-0.07078455
180	0xbee3e70a	-0.44512206
181	0xbe570626	-0.20998439
182	0x3d5b5d3a	0.053555705
183	0x3e912978	0.2835195
184	0x3b08b8f2	0.002086219
185	0x3dc94393	0.09827342
186	0x3dba00bf	0.090821736
187	0xbd943129	-0.07235939
188	0x3ea66673	0.32500038
189	0x3e1b724e	0.15180323
190	0x3ca0c20f	0.019623784
191	0xbd223da6	-0.039609574
192	0x3e49604e	0.19665644
193	0x3da2306a	0.079193905
194	0x3e303ef8	0.1721152
195	0xb9488fa9	-0.00019127004
196	0x3e045613	0.1292346
197	0x3e35dd19	0.17760123
198	0x3de7cde8	0.113185704
199	0xbe082b23	-0.13297705
200	0x3e6ce4e3	0.23134188
201	0xbe08705d	-0.13324113
202	0x3d2bae64	0.04191436
203	0x3d1d04a8	0.03833452
204	0xbec46675	-0.3835942
205	0xbe6f9a5e	-0.2339873
206	0x3cacabb6	0.021077972
207	0x3e5d4960	0.21610022
208	0x3e70a539	0.23500527
209	0xbc6a3134	-0.0142939575
210	0x3c8643ed	0.016389811
211	0xbda6f8a9	-0.08152897
212	0xbd6a36a4	-0.057181016
213	0x3a410647	0.0007363301
214	0xb9c020b2	-0.00036645454
215	0x3e5c8c46	0.21537885
216	0xbebe3bc1	-0.37154964
217	0xbe8089be	-0.2510509
218	0x3e38075b	0.17971556
219	0x3e85bd31	0.26120904
220	0xbd20ec27	-0.039287712
221	0xbdb99d6b	-0.09063228
222	0xbb939403	-0.0045037284
223	0x3a9f99ad	0.0012176536
224	0x3e30d0d7	0.17267166
225	0xbe9a2f8c	-0.301144
226	0xbe475476	-0.19465813
227	0x3e6cefcd	0.23138352
228	0xbf0277c4	-0.50964
229	0xbc80a96f	-0.015705792
230	0x3d7c86ba	0.061651923
231	0x3dc5e4b0	0.09662759
232	0x3e355cc6	0.17711172
233	0x3dcdfa81	0.100575455
234	0xbe7a4132	-0.24438933
235	0xbc7d7c8d	-0.01547159
236	0x3dae0776	0.08497517
237	0x3d63a52c	0.055577442
238	0xbc678b30	-0.014132306
239	0xbc47cb85	-0.012194519
240	0x3debafb0	0.11508119
241	0x3dac0a38	0.084003866
242	0xbe4a83eb	-0.19776885
243	0xbe8d38b9	-0.27582338
244	0xbe85a200	-0.2610016
245	0xbe98bd19	-0.2983177
246	0xbca96f9a	-0.020683099
247	0xbd94dbc7	-0.07268482
248	0x3ed20c53	0.41025028
249	0x3d494ad9	0.049143646
250	0x3ceb5995	0.02872924
251	0xbe7650d4	-0.24054271
252	0x3da573a0	0.08078694
253	0xbca57b77	-0.020200474
254	0x3e54cd67	0.2078148
255	0x3d22aeb2	0.039717384

fc1.bias f4 [50]
0	0xbdf6c755	-0.12049738
1	0xbe34aa3b	-0.17643063
2	0x3e7365b6	0.23769268
3	0xbe92cc2c	-0.28671396
4	0x3e21f7b8	0.15817153
5	0x3b22b24b	0.002482551
6	0x3f185b31	0.5951415
7	0x3d747870	0.05968517
8	0x3de05af2	0.109548464
9	0x3dabc0ee	0.08386408
10	0x3e0c49b2	0.13699988
11	0x3e1e86ad	0.15481062
12	0x3ebc7acc	0.36812437
13	0x3f1c844c	0.6113937
14	0xbe4d7520	-0.20064211
15	0x3ee23540	0.44181252
16	0x3eb818ce	0.35956424
17	0xbe214eae	-0.1575267
18	0xbe9b4102	-0.30323035
19	0x3ec256aa	0.37956744
20	0x3e05594a	0.13022342
21	0x3bc763b2	0.0060848827
22	0x3f3c98cf	0.7367067
23	0xbe9bbfca	-0.3041976
24	0x3c76278e	0.015024079
25	0xbe0c6abc	-0.13712591
26	0x3e947879	0.28998163
27	0x3f528887	0.82239574
28	0x3e13fe52	0.14452484
29	0xbdb634a4	-0.08896759
30	0x3e7073f8	0.23481739
31	0x3f4701af	0.77736944
32	0xbd981aee	-0.074270114
33	0xbd6cfb24	-0.057856694
34	0x3e67a97d	0.22623248
35	0x3f39a306	0.7251438
36	0x3f34ae73	0.7057869
37	0xbed1ae65	-0.40953365
38	0x3e8c7c16	0.2743842
39	0x3dfa509f	0.122224085
40	0x3f290523	0.66023463
41	0x3ed46108	0.4148028
42	0x3d2f1eab	0.042753857
43	0xbe3f5637	-0.18685232
44	0xbc5a643b	-0.013329561
45	0xbe87ef53	-0.26549777
46	0x3ddf487c	0.10902497
47	0x3e2f3b8d	0.1711256
48	0x3f23ac40	0.6393471
49	0xbebc58a8	-0.3678639

fc2.weight f4 [10, 50]
0	0xbe015b06	-0.12632379
1	0x3da8d089	0.082429
2	0x3eb0ec33	0.34555206
3	0xbee5b686	-0.44865817
4	0x3ededf54	0.4352976
5	0xbdb40195	-0.08789364
6	0xbcd8fbb2	-0.026487205
7	0x3d546255	0.05185159
8	0x3ec75ba9	0.3893712
9	0x3ec84526	0.39115256
10	0x3df57da9	0.119868584
11	0x3ee40180	0.44532394
12	0xbd52ac8e	-0.051434092
13	0xbd0bff0d	-0.034178782
14	0xbe3eaf25	-0.186215
15	0xbefc69a6	-0.49299353
16	0x3e750919	0.23929252
17	0x3ec4a7f1	0.3840938
18	0xbd6dfa60	-0.058100104
19	0x3ebfd722	0.3746882
20	0x3e520065	0.20507963
21	0x3d0e729d	0.034777272
22	0xbe5b562b	-0.21419589
23	0xbef9f4c3	-0.4881955
24	0xbdfd9366	-0.1238163
25	0x3eeac106	0.4585039
26	0x3e9c2752	0.3049875
27	0xbf09f477	-0.5388865
28	0xbed8d9b2	-0.42353588
29	0xbe3cd795	-0.18441613
30	0xbe920aa2	-0.28523737
31	0x3ea0afc2	0.31384093
32	0x3e664511	0.22487284
33	0xbede4cef	-0.4341807
34	0xbedaff16	-0.4277274
35	0xbe789b26	-0.24277934
36	0xbe7dd5b6	-0.24788556
37	0x3d419a31	0.04726619
38	0xbe0dfc2a	-0.13865724
39	0xbeade26a	-0.33961803
40	0xbe519f88	-0.20471013
41	0xbcf919c3	-0.030407792
42	0xbeaf4688	-0.342335
43	0xbed4ce69	-0.41563728
44	0x3eb47cdf	0.3525152
45	0xbeb38fd1	-0.3507066
46	0xbe82ec02	-0.25570685
47	0xbee03ddc	-0.43797195
48	0xbeea4af2	-0.45760304
49	0xbc701267	-0.014652825
50	0xbe7842f6	-0.24244294
51	0xbd980bc4	-0.07424119
52	0xbe02f1e2	-0.12787583
53	0xbd1f29d5	-0.038858254
54	0xbebfef53	-0.37487277
55	0xbda1ff46	-0.07910018
56	0x3ee5d90c	0.44892156
57	0xbe9c0edc	-0.30480087
58	0xbe9de4aa	-0.3083852
59	0xbebbb301	-0.36660007
60	0xbeccad7b	-0.39976105
61	0xbecd874b	-0.40142283
62	0x3ecaf312	0.39638573
63	0x3f086835	0.5328401
64	0xbee4c621	-0.4468241
65	0x3ebc61e8	0.36793447
66	0xbe8bfdf9	-0.27342203
67	0xbf1fe8f7	-0.6246485
68	0xbed8a9a6	-0.4231693
69	0xbec44ee2	-0.38341433
70	0xbd87392e	-0.06602703
71	0xbe460169	-0.19336475
72	0x3ee2bb07	0.44283316
73	0xbe973c71	-0.295383
74	0xbec00212	-0.3750158
75	0xbf24e794	-0.6441586
76	0xbe77d8db	-0.24203818
77	0x3ec42f51	0.3831735
78	0xbe9241e9	-0.2856591
79	0xbe95f5ef	-0.29289195
80	0xbe9135d5	-0.28361383
81	0x3eb8a950	0.36066675
82	0xbf3159d9	-0.6927772
83	0xbebf7ab5	-0.37398306
84	0x3eda6d1f	0.42661378
85	0x3ec5b177	0.38611957
86	0x3ec7d247	0.39027616
87	0xbedd9ff3	-0.43286094
88	0x3e92b7e6	0.28655928
89	0xbebb5afc	-0.36592853
90	0x3e97a765	0.296199
91	0x3ea85371	0.3287616
92	0x3d50d433	0.05098362
93	0xbef641ce	-0.4809708
94	0xbedbc33d	-0.42922392
95	0xbe75ea54	-0.2401517
96	0xbe9c4020	-0.30517673
97	0x3e0971b4	0.1342228
98	0x3ed9ef99	0.4256561
99	0xbeb0979c	-0.3449067
100	0x3eca45c8	0.39506364
101	0x3e7ef51c	0.2489819
102	0x3ece7c65	0.4032928
103	0x3e69f522	0.22847417
104	0xbe705715	-0.23470719
105	0x3ebcdc9b	0.3688706
106	0x3e305ae8	0.17222178
107	0x3d30bb49	0.04314736
108	0x3d0b086a	0.03394357
109	0x3ed0a202	0.40748602
110	0xbec3f836	-0.38275307
111	0xbe84996f	-0.2589831
112	0x3e8348c8	0.25641465
113	0x3cae617b	0.021286717
114	0xbe3d19fb	-0.18466942
115	0xbcf8d511	-0.030375035
116	0x3da02693	0.078198574
117	0xbe8d9ff0	-0.27661085
118	0xbe1533e2	-0.14570573
119	0xbe12f828	-0.14352477
120	0x3eac085a	0.33600122
121	0x3ec50180	0.38477707
122	0xbdd4f615	-0.10398499
123	0x3c4759fe	0.012167452
124	0x3d037c17	0.032100763
125	0xbef3864b	-0.47563395
126	0x3e9ecad5	0.31014124
127	0xbdb39e89	-0.087704726
128	0xbdadd58d	-0.08487997
129	0xbdd644f4	-0.104623705
130	0xbdc826a4	-0.09772995
131	0xbe3664ab	-0.1781184
132	0x3d67eb3a	0.056620814
133	0x3e2d246e	0.16908428
134	0x3d847b2f	0.06468808
135	0xbe51ed71	-0.20500733
136	0x3e864a36	0.26228493
137	0x3e6caab1	0.23111989
138	0xbeb90a26	-0.36140555
139	0xbdef8245	-0.11694769
140	0xbdebbc82	-0.115105644
141	0x3f011f24	0.5043814
142	0x3eb2a1ee	0.34889168
143	0xbea4cc58	-0.32187152
144	0xbeab95aa	-0.33512622
145	0x3e897da1	0.2685366
146	0xbc57ee96	-0.013179442
147	0x3ee43012	0.44567925
148	0xbe634efe	-0.22198102
149	0xbe8d6d25	-0.27622333
150	0x3e6bfe6b	0.23046272
151	0xbde3168b	-0.11088284
152	0xbdb52fd6	-0.088470146
153	0x3e927fe1	0.2861319
154	0xbe98bf26	-0.29833335
155	0x3ccc5b5f	0.024945913
156	0xbe823c96	-0.25436848
157	0xbe87c119	-0.2651451
158	0x3ebf3fed	0.3735346
159	0xbdb7d601	-0.08976365
160	0xbebbceaf	-0.36681125
161	0xbe49cc8c	-0.19706935
162	0xbd524eb2	-0.05134458
163	0xbeda3b81	-0.42623523
164	0x3dabee47	0.08395057
165	0x3ee1ca07	0.44099447
166	0xbe4e32e0	-0.20136595
167	0xbda2effd	-0.079559304
168	0x3d7cf9d9	0.06176171
169	0xbe504dea	-0.20342222
170	0x3e6bd89d	0.2303185
171	0xbe13d7b6	-0.14437756
172	0xbe2d2ff8	-0.1691283
173	0x3ec4004a	0.3828147
174	0x3e92575b	0.28582272
175	0xbe233527	-0.15938245
176	0xbdfd1154	-0.12356821
177	0xbc8b92da	-0.017037798
178	0x3ee161dd	0.44019976
179	0x3f00dda6	0.5033821
180	0xbdacfded	-0.0844687
181	0xbe5f4aaf	-0.21805833
182	0x3eae7aa7	0.3407795
183	0x3eb023c8	0.344023
184	0x3eb2dbbc	0.3493327
185	0xbdd9aa9b	-0.106282435
186	0xbdaf7e42	-0.08569004
187	0x3d9f3ea5	0.0777562
188	0xbdd9071d	-0.1059706
189	0xbe0cf7da	-0.13766423
190	0xbe81b54c	-0.2533363
191	0xbd2c7624	-0.042104855
192	0x3eeb294f	0.45929953
193	0xbd66b23b	-0.056322318
194	0x3e56fdec	0.20995301
195	0x3e2fa0ea	0.17151228
196	0x3decf9ce	0.11571084
197	0x3ecfbd8a	0.40574294
198	0xbeda25e0	-0.4260702
199	0x3d731e35	0.05935498
200	0xbe14bcac	-0.14525098
201	0x3d4b6782	0.04965926
202	0x3dce5152	0.10074104
203	0xbe868843	-0.26275834
204	0xbe0a3dec	-0.13500184
205	0xbe5f292f	-0.21793054
206	0x3cd0c84c	0.025486134
207	0x3edc011f	0.42969605
208	0xbe6c2ca6	-0.23063907
209	0x3d9df687	0.07713037
210	0x3ee3a31a	0.44460374
211	0xbe58943b	-0.21150295
212	0xbd01fafc	-0.031733498
213	0xb9c1ff9c	-0.00037002272
214	0xbcc58af0	-0.024114102
215	0xbe1c142e	-0.15242073
216	0x3eca090a	0.3946002
217	0xbe92777b	-0.2860678
218	0x3caf8b30	0.021428674
219	0xbda9dc4f	-0.08293974
220	0xbe5e77ae	-0.21725342
221	0x3eb55738	0.35418105
222	0x3dd0a1b2	0.10187091
223	0x3d98eebc	0.0746741
224	0xbdb3ff6d	-0.08788953
225	0xbca68d23	-0.020330971
226	0xbe315e8b	-0.17321222
227	0x3ef13e93	0.47118053
228	0x3eab144b	0.3341392
229	0xbe9d2778	-0.30694175
230	0x3eee087f	0.46490857
231	0xbe5e5df6	-0.21715531
232	0xbd7a4edd	-0.061110366
233	0xbd8e7185	-0.06955246
234	0xbe1ca96f	-0.15299009
235	0x3ea89bfb	0.32931504
236	0x3edfa7c0	0.4368267
237	0xbe56497f	-0.20926474
238	0xbd757b07	-0.05993178
239	0x3f12e600	0.573822
240	0x3d0784c4	0.0330856
241	0xbd5307f7	-0.051521268
242	0xbe4b9f9c	-0.19885105
243	0x3eaf9770	0.34295225
244	0xbdd329d7	-0.10310715
245	0xbe70dcf3	-0.23521785
246	0x3e356ef0	0.177181
247	0xbec1f9e6	-0.3788597
248	0x3f128986	0.57241094
249	0xbe7c9e14	-0.24669677
250	0x3dad7fd5	0.08471648
251	0xbe60d6e1	-0.2195697
252	0xbe127b1f	-0.1430478
253	0xbe253f4c	-0.16137427
254	0xbd85788b	-0.06517132
255	0xbe6ec7b2	-0.23318365

fc2.bias f4 [10]
0	0x3eaff91a	0.34369737
1	0x3f51300f	0.81713957
2	0xbe917c83	-0.28415307
3	0x3ea169b2	0.31525952
4	0xbd9d2926	-0.07673864
5	0xbee0d5f5	-0.43913236
6	0xbf7fa5ce	-0.9986237
7	0xbea6dbfc	-0.3258971
8	0x3ed248b0	0.4107108
9	0xbe71e445	-0.23622234

momentum_buffer f4 [10, 1, 5, 5]
0	0xbdadc2d5	-0.08484427
1	0xbda612c9	-0.08109052
2	0xbd9867b2	-0.07441653
3	0xbe0a11da	-0.13483372
4	0xbd186668	-0.037207037
5	0xbdd52462	-0.1040733
6	0xbdbabc24	-0.09117916
7	0xbe17ac09	-0.1481172
8	0xbe16dc51	-0.14732482
9	0xbbc72624	-0.0060775448
10	0xbe011e30	-0.12609172
11	0xbe3db775	-0.18527015
12	0xbe234067	-0.15942536
13	0xbd2d8cde	-0.04237067
14	0x38a890b0	8.0378144e-05
15	0xbdbc6b40	-0.09200144
16	0xbe298eba	-0.16558352
17	0xbdb6c3d8	-0.08924073
18	0x3b15619a	0.002279377
19	0x3a207d6a	0.0006122204
20	0xbdb8fd7c	-0.09032723
21	0xbe102a60	-0.14078665
22	0x3bfc6910	0.007702954
23	0x3cadd345	0.021218905
24	0xb9cc1dc8	-0.000389321
25	0x3ce1811b	0.027527383
26	0x3cc859a2	0.024456803
27	0xbc583490	-0.013196126
28	0xbdc83962	-0.0977657
29	0x3d17e332	0.037081905
30	0x3d02ee65	0.031965632
31	0x3d74aecd	0.059737016
32	0xbc39c780	-0.011339068
33	0xbbf6b6d0	-0.007529117
34	0x3db602b9	0.08887238
35	0x3d21c913	0.0394984
36	0x3cafe050	0.021469265
37	0xbca420e4	-0.020035215
38	0x3c7f02ca	0.01556463
39	0x3d4c282b	0.049842995
40	0x3d61b688	0.055105716
41	0x3caa8fe8	0.020820573
42	0xbc89e430	-0.016832441
43	0x3b2f6304	0.0026761899
44	0x3c8af97e	0.01696467
45	0xbb82c86c	-0.0039911773
46	0xbda51206	-0.08060078
47	0xbcaf7599	-0.02141838
48	0xbb9204a0	-0.0044561177
49	0x3c21c026	0.009872472
50	0x3b4d8827	0.003136167
51	0x3ca78776	0.020450335
52	0x3b066328	0.002050588
53	0xbbb6f107	-0.005582932
54	0xbc91ae66	-0.017783355
55	0x3d74535d	0.059649814
56	0x3d2aab58	0.041667312
57	0x3b935aa8	0.004496891
58	0x3bb1d904	0.0054274816
59	0xbcce209c	-0.025162034
60	0x3d987efa	0.07446094
61	0x3d33534e	0.043780617
62	0x3c3add0e	0.011405243
63	0xbab8038c	-0.0014039143
64	0xbcda04a4	-0.026613541
65	0x3dac382a	0.0840915
66	0x3ce23732	0.02761421
67	0xbb9f1390	-0.004854627
68	0xbbc22ba3	-0.005925612
69	0xbcfbf66e	-0.030757155
70	0x3d94e149	0.07269532
71	0x3cb28b5a	0.021794964
72	0xbbc46bdb	-0.0059943027
73	0xbc07c18a	-0.008285889
74	0xbd1daedf	-0.03849685
75	0x3be4a886	0.0069780974
76	0xbbb19c96	-0.005420278
77	0xbd556eda	-0.05210767
78	0x3d49d9dc	0.049280033
79	0x3e54e917	0.20792042
80	0x370238ab	7.761798e-06
81	0x3c6b64b0	0.0143672675
82	0xbc15ba40	-0.009138644
83	0x3d8649a3	0.06557014
84	0x3e01dd3a	0.12682047
85	0xb662fbe5	-3.3823246e-06
86	0x3bb9f92a	0.0056754546
87	0x3c8ffe8c	0.017577432
88	0x3da5bf8a	0.08093174
89	0x3d0d25ff	0.034460064
90	0xbd022370	-0.031772077
91	0xbd6f205a	-0.058380462
92	0x3c5de838	0.013544135
93	0x3da3d524	0.07999638
94	0xbd358f60	-0.044326186
95	0xbd9ce7bc	-0.07661387
96	0xbdb10ccc	-0.08645019
97	0x3d1f6ef2	0.038924165
98	0x3d8501bf	0.06494474
99	0xbcfc025a	-0.03076284
100	0xbc374c88	-0.01118768
101	0xbbdcbef2	-0.0067366296
102	0x3c344a49	0.011004039
103	0x3dbdb566	0.09263115
104	0x3dc48594	0.095957905
105	0xbd1a6925	-0.03769793
106	0xbccaf748	-0.024776116
107	0xbb2e99a8	-0.002664188
108	0x3c7d4a42	0.015459599
109	0x3d31dd6e	0.043424062
110	0xbbb2bbd8	-0.0054545216
111	0xbd3c2aa4	-0.045939103
112	0xbbdc29ea	-0.0067188637
113	0xbb18ec17	-0.002333408
114	0x3d13faa4	0.0361277
115	0x3e08993c	0.13339704
116	0x3dbc0778	0.09181112
117	0x3e08deaa	0.1336619
118	0x3e072fa7	0.13201772
119	0x3dc7fab9	0.097646184
120	0x3e3f06d0	0.18654943
121	0x3daaf189	0.083468504
122	0x3dd3faae	0.10350548
123	0x3d3c3f92	0.045959063
124	0x3e0f4e82	0.13994792
125	0x3d2e03a2	0.042483933
126	0x3d12201f	0.035675164
127	0x3d88990f	0.066698186
128	0x3d999db1	0.075007804
129	0x3d1cf934	0.038323596
130	0xbbc213a7	-0.005922753
131	0xbbab4287	-0.0052264365
132	0x3cd1d511	0.025614293
133	0x3d28836a	0.04114095
134	0x3d906bc3	0.07051804
135	0xb8ce5474	-9.838576e-05
136	0xba82306e	-0.0009932646
137	0x3b3cf9fe	0.002883553
138	0x3bc41e84	0.005985083
139	0x3d229462	0.03969229
140	0xba44ab00	-0.00075022876
141	0xb500ecd5	-4.802835e-07
142	0x3b20ce9c	0.0024537211
143	0x3beb23bb	0.0071758903
144	0x3ca3ac00	0.019979477
145	0xbbeb31b2	-0.007177555
146	0xbb1e6190	-0.0024167039
147	0x3b2a7fac	0.002601604
148	0x3c059f11	0.0081556
149	0x3cd8d4b3	0.02646861
150	0x3e1f81ee	0.15576908
151	0x3d897e6a	0.06713565
152	0x3dfe3116	0.12411706
153	0x3e381da5	0.17980058
154	0x3decac26	0.11556272
155	0x3e94581f	0.2897348
156	0x3e8d00b0	0.27539587
157	0x3e78fe1f	0.2431569
158	0x3e441b67	0.19151078
159	0x3e5bd112	0.21466473
160	0x3e1d26f4	0.1534689
161	0x3da23ea2	0.079221025
162	0x3c59f522	0.013303073
163	0x3cdbf168	0.02684851
164	0x3df9640a	0.12177284
165	0x3d2eb7fc	0.04265593
166	0xbc77cad9	-0.015124046
167	0xbd5d9f1b	-0.054106813
168	0xbd8daa86	-0.069172904
169	0x3d2a351a	0.041554548
170	0xbca6d512	-0.020365272
171	0xbd542670	-0.05179447
172	0xbd859b72	-0.065237895
173	0xbc80621c	-0.015671782
174	0x3d452ef8	0.048140496
175	0xbd507304	-0.050890937
176	0xbd9087d5	-0.07057158
177	0xbdab89ba	-0.08375879
178	0xbd581c7e	-0.052761547
179	0xbd97b288	-0.07407099
180	0xbbf1e494	-0.007381985
181	0xbcba0e1c	-0.022711806
182	0xbd45259e	-0.048131578
183	0xbc0dc506	-0.008652931
184	0xbd692530	-0.05692023
185	0xbd8c4cb0	-0.068505645
186	0xbd79fc2d	-0.06103151
187	0xbd1434fd	-0.036183346
188	0xbb94c120	-0.004539624
189	0xbd70efa6	-0.058822297
190	0x3c116c68	0.008875944
191	0xbd017340	-0.03160405
192	0xbd984558	-0.07435101
193	0xbcddb123	-0.027062004
194	0xbd347e32	-0.04406566
195	0xbd99e87f	-0.07515048
196	0xbd914999	-0.07094116
197	0xbd800337	-0.06250613
198	0xbc9a4e6f	-0.018836228
199	0xbcb62fa4	-0.022239514
200	0xbc177013	-0.009243029
201	0xbcd2f0a1	-0.025749506
202	0xbcb1bb85	-0.021695862
203	0xbc43edd5	-0.011958559
204	0x3dc1d2e2	0.09464051
205	0xbc9d2b02	-0.019185547
206	0xbbfbc526	-0.007683414
207	0x3ad84526	0.00165001
208	0xb9bc39d0	-0.00035901228
209	0x3d6a978e	0.05727344
210	0x3c1fffd0	0.00976558
211	0xb85d02e6	-5.2693205e-05
212	0xbb734614	-0.0037120627
213	0xbc056e52	-0.008143978
214	0x3e8ecac5	0.27889076
215	0x39aaf35e	0.0003260625
216	0x3c12c4a7	0.008958018
217	0x3bd33a10	0.0064461306
218	0x3e23da3c	0.16001219
219	0x3eeaf4de	0.45889944
220	0x39b0f500	0.00033751875
221	0x3bb4c580	0.005516708
222	0x3c86ec38	0.01647006
223	0x3e90838e	0.28225368
224	0x3ef58f6a	0.4796098
225	0xaf022e81	-1.1839953e-10
226	0x80000001	-1e-45
227	0x83d2a773	-1.2381135e-36
228	0x92b079a9	-1.1137153e-27
229	0xb3e14282	-1.0489477e-07
230	0xb47fc5de	-2.382071e-07
231	0x80000001	-1e-45
232	0x2333e095	9.7511665e-18
233	0xb4911e8a	-2.7030575e-07
234	0xb570740a	-8.9575826e-07
235	0xb581fd3e	-9.684952e-07
236	0xaf022da8	-1.1839651e-10
237	0xaf424011	-1.7666958e-10
238	0xb4b83bb1	-3.4316102e-07
239	0xb5887cb3	-1.0169082e-06
240	0xb588ff38	-1.0207068e-06
241	0x263be5e5	6.5190223e-16
242	0x262fe43b	6.102463e-16
243	0x261f3ae9	5.5244045e-16
244	0xb4dac30c	-4.074758e-07
245	0xb5887498	-1.0166723e-06
246	0x237bd3fe	1.3651628e-17
247	0x213fde7c	6.5007773e-19
248	0x80011e24	-1.02648e-40
249	0x25d91394	3.7656766e-16

momentum_buffer f4 [10]
0	0xbe667a26	-0.22507533
1	0xbd0ea484	-0.034824863
2	0x3dabf2a4	0.083958894
3	0x3ddd9d1e	0.10820983
4	0x3e81afdb	0.2532948
5	0x3d3bf192	0.045884676
6	0x3eb31fc7	0.34985182
7	0xbd708145	-0.05871703
8	0x3f1844d3	0.5948002
9	0xb58a1c91	-1.0290115e-06

momentum_buffer f4 [20, 10, 5, 5]
0	0xbb7fab10	-0.0039011873
1	0x3b47526b	0.0030414115
2	0x3bd30168	0.0064393766
3	0x3b6df7fa	0.0036311136
4	0xbbdc553d	-0.0067240284
5	0xb9b66f30	-0.00034796586
6	0xb975d3c3	-0.00023443908
7	0x3c7a6a23	0.015284094
8	0x3bd9ca02	0.0066463957
9	0xbbfae6e3	-0.0076569184
10	0xb908fa83	-0.00013063294
11	0x3b592a5b	0.0033136818
12	0x3d091f72	0.033477254
13	0x3b8b8d59	0.0042587933
14	0xbbafde53	-0.0053670793
15	0x38cc8859	9.752875e-05
16	0x3cb0fdf3	0.021605467
17	0x3db8f9d3	0.09032025
18	0x3ccca228	0.024979666
19	0x3bcf2271	0.0063212444
20	0xbad4efd6	-0.0016245793
21	0x3cbc4e74	0.022986628
22	0x3de1b1bc	0.11020228
23	0x3d512896	0.051064096
24	0xbc6a0793	-0.014284032
25	0x3b1ac4b3	0.0023615777
26	0xbbeef697	-0.0072925794
27	0x35ab73a0	1.2774144e-06
28	0xbac23dec	-0.001481948
29	0x3b1e25ae	0.0024131346
30	0xbba97512	-0.0051714266
31	0xbb16cb30	-0.0023009293
32	0x3a6bc104	0.00089933
33	0x3ac6467c	0.0015127207
34	0xbb0010a0	-0.001954116
35	0xb6380a39	-2.7424087e-06
36	0x3aa4eb24	0.0012582284
37	0x3a8c03fa	0.0010682337
38	0xbbb18753	-0.005417743
39	0xbbc04d93	-0.0058686226
40	0x3aad2331	0.001320934
41	0x3bdabd78	0.0066754185
42	0x3a8c75b7	0.0010716234
43	0x3b4b8c92	0.0031059128
44	0x3a84d663	0.0010134693
45	0x3b8167ff	0.003949165
46	0xb991fa68	-0.00027843122
47	0x3c052c4a	0.008128235
48	0x3c3d9de4	0.011573289
49	0xbc53dc30	-0.012930915
50	0xba872e88	-0.001031355
51	0x3bd3981e	0.0064573428
52	0x3c296d6a	0.010341028
53	0x3c98bd04	0.018644817
54	0x3bdb7057	0.0066967416
55	0x3c4adac2	0.0123812575
56	0x3c0b3b43	0.008498016
57	0x3c0966e9	0.008386352
58	0x3ccb8eb4	0.02484832
59	0x3bd1efbd	0.006406753
60	0x3c95632e	0.01823577
61	0x3bb78883	0.0056009903
62	0x3cc432e0	0.02395004
63	0x3d14eaf9	0.0363569
64	0x3bc6d1e8	0.0060675032
65	0xb917b1f1	-0.0001446677
66	0xba2c524c	-0.00065735425
67	0x3cb202e5	0.021729896
68	0x3d8918ba	0.06694169
69	0x3b81bade	0.003959044
70	0xba89cbb6	-0.0010512981
71	0xbb16154c	-0.0022900878
72	0x3aebfa3e	0.0018003655
73	0x3d7cb7a6	0.06169858
74	0x3c33484d	0.010942531
75	0xbba153da	-0.004923326
76	0x398feaa5	0.0002744991
77	0x3b0d3ada	0.002154997
78	0xbc3901c5	-0.011291926
79	0x3a0f57d9	0.00054681074
80	0xbb8c9f4d	-0.004291451
81	0x3a296911	0.00064624945
82	0x3b01850d	0.0019763142
83	0xbc01a811	-0.007913605
84	0xb7a68806	-1.9852083e-05
85	0xba2034e8	-0.0006111399
86	0x39ab619a	0.0003268838
87	0x3b30b80a	0.0026965165
88	0xbc107758	-0.008817516
89	0xba968a50	-0.0011485312
90	0x398b9677	0.0002662425
91	0xb72e148c	-1.0375992e-05
92	0x3b077b64	0.0020672912
93	0xb9aeddda	-0.00033353159
94	0xbbc6c57b	-0.006066022
95	0xb97327c6	-0.00023189103
96	0x3a0194e8	0.0004943148
97	0xbace53ca	-0.0015741524
98	0x3b2763b7	0.0025541612
99	0x3accb348	0.0015617395
100	0x3a4568c8	0.0007530567
101	0x3ab700ab	0.0013961991
102	0x3b0e256f	0.0021689793
103	0x3b41f14c	0.0029593287
104	0xbc0f7e42	-0.00875813
105	0x3dc07c93	0.09398761
106	0x3da69987	0.08134752
107	0x3c470c38	0.012148909
108	0xba9afc24	-0.0011824411
109	0xb92a95e6	-0.00016268305
110	0x3d50cfcc	0.05097942
111	0x3d82eec0	0.06393194
112	0x3d5b0c94	0.053478792
113	0x3b615271	0.0034381414
114	0x3c5e4644	0.013566557
115	0xbc29c75b	-0.010362471
116	0x3d10e2f0	0.035372674
117	0x3d6d84aa	0.057987846
118	0x3bafa4aa	0.0053602057
119	0x3baf6bc7	0.005353424
120	0x3b27d5ee	0.002560969
121	0x392f8205	0.00016737737
122	0xba2ccb2e	-0.00065915554
123	0xba51f282	-0.0008008854
124	0x3ad241f4	0.0016041384
125	0x39d43277	0.0004047339
126	0xbae84bea	-0.001772282
127	0x3b30dee9	0.0026988334
128	0x3c72083e	0.014772473
129	0x3c6539f3	0.013990867
130	0x3bdfd004	0.0068302173
131	0xbbcd8377	-0.0062717753
132	0x3d5f4958	0.054513305
133	0x3b2b6030	0.0026149862
134	0x3be21654	0.0068996344
135	0x3b649f26	0.00348849
136	0xbc7b4a4d	-0.015337539
137	0x3d85136b	0.06497844
138	0x3d9fe726	0.0780776
139	0x3c868369	0.016420083
140	0xb943d64b	-0.0001867648
141	0x391ca37e	0.00014938225
142	0xb9ebecf2	-0.0004499923
143	0xba99a6d8	-0.0011722697
144	0x3b21c3e8	0.002468342
145	0x3c530dc2	0.012881698
146	0xbabe7753	-0.0014531411
147	0xba13854e	-0.0005627469
148	0xba31bd4e	-0.0006780223
149	0x3a86af32	0.0010275601
150	0x3c2e08f3	0.010622251
151	0x3ba928d1	0.0051623364
152	0x3b6342da	0.0034677298
153	0x3c12c871	0.008958922
154	0x3c1362b2	0.008995699
155	0x3c5bd32a	0.013417045
156	0xbc50039e	-0.012696175
157	0x3d85f20d	0.06540308
158	0x3db7dd8a	0.08977802
159	0x3e2bfdc8	0.16796029
160	0x39f931da	0.00047530123
161	0xbc201cc7	-0.009772486
162	0x3ce9b451	0.028528364
163	0x3d11af06	0.035567306
164	0x3d0d59fb	0.03450964
165	0xbc22db6f	-0.009940012
166	0xbbcc7147	-0.0062390896
167	0xbc8a7715	-0.016902486
168	0xbb888e39	-0.004167345
169	0xbb368849	-0.0027852228
170	0x3e7db16d	0.24774714
171	0x3e281c98	0.16417158
172	0x3c073cd8	0.008254252
173	0x3ce0ad8a	0.0274265
174	0x3c0daff9	0.008647912
175	0xba9bd8ad	-0.0011890136
176	0x3b82f8eb	0.0039969585
177	0x3ccc63c4	0.024949916
178	0x3b744937	0.0037275085
179	0xbc06c6ee	-0.0082261395
180	0x3b1a20d4	0.0023518102
181	0x3c46dc0d	0.012137425
182	0x3c6c54a8	0.0144244805
183	0x3b99d51b	0.0046945936
184	0x3c111702	0.008855583
185	0x3d2db2b9	0.04240677
186	0x3cad095a	0.021122623
187	0x3cca6d90	0.024710447
188	0x3d45e402	0.04831315
189	0x3b34715b	0.0027533385
190	0x3cfbb20b	0.030724546
191	0x3bc7fcb1	0.006103121
192	0x3d58b415	0.052906115
193	0x3d689016	0.056778036
194	0x3b9f7621	0.004866377
195	0x375672c0	1.2782111e-05
196	0xbb3cb900	-0.0028796792
197	0x3cfb2ad0	0.030660063
198	0x3d862899	0.06550712
199	0x3bbd9eb2	0.00578674
200	0xbadbeb0a	-0.0016778421
201	0x3ac2a7b0	0.0014851
202	0x3d7c6780	0.061622143
203	0xbc751a79	-0.014959925
204	0x3b56adf7	0.00327575
205	0x3c98f86c	0.018673144
206	0xbb6dbaee	-0.003627475
207	0xbc149cba	-0.00907057
208	0xba20821d	-0.0006122904
209	0x3b87380c	0.0041265544
210	0x3d52a13f	0.051423308
211	0xbacc6523	-0.0015594106
212	0x3acaa9e8	0.0015462013
213	0x3a9d0ef4	0.0011982606
214	0x3c161674	0.009160627
215	0xba251449	-0.0006297273
216	0xbac1c0c8	-0.0014782185
217	0x3ae9bcde	0.0017832776
218	0x3bca2678	0.0061691366
219	0x3dbe934e	0.0930544
220	0x3b806f2d	0.003919503
221	0x3a82475d	0.0009939481
222	0xbb985b9c	-0.0046495926
223	0x3d00507c	0.031326756
224	0x3db43078	0.08798307
225	0x80000001	-1e-45
226	0x00000001	1e-45
227	0x00000001	1e-45
228	0x00000001	1e-45
229	0x25651963	1.9871185e-16
230	0x00000001	1e-45
231	0x80000001	-1e-45
232	0x00000001	1e-45
233	0x00000001	1e-45
234	0x80000111	-3.83e-43
235	0x80000001	-1e-45
236	0x80000001	-1e-45
237	0x00000001	1e-45
238	0x00000001	1e-45
239	0x80000001	-1e-45
240	0x00000001	1e-45
241	0x80000001	-1e-45
242	0x00000001	1e-45
243	0x80000001	-1e-45
244	0x80000001	-1e-45
245	0x0e1ca4d9	1.9307856e-30
246	0x900a952a	-2.7330613e-29
247	0x00000001	1e-45
248	0x02c82091	2.940605e-37
249	0x80000001	-1e-45
250	0xbd853047	-0.06503349
251	0xbc8416d2	-0.016124163
252	0x3cee9f5c	0.029128723
253	0xbe34d7ee	-0.17660496
254	0xbda76123	-0.08172824
255	0xbd870498	-0.06592673

momentum_buffer f4 [20]
0	0x3e60bbfc	0.2194671
1	0xbe7dedcd	-0.24797745
2	0x3e31d4ff	0.17366408
3	0x3e0e24ac	0.13881177
4	0xbcd55199	-0.026039885
5	0x3c8d86bb	0.017276159
6	0x3e02dd85	0.12779815
7	0xbe144f5d	-0.144834
8	0xbca47b6e	-0.020078387
9	0x3dc00274	0.09375468
10	0xbdd51b2c	-0.10405573
11	0xbcc0b53b	-0.023523917
12	0x3e383e1e	0.17992446
13	0x3b5f5d64	0.0034082765
14	0x3c9e8463	0.019350236
15	0xbc72b39c	-0.01481333
16	0x3d3200b4	0.0434577
17	0xbc2bfa2a	-0.0104966555
18	0x3e5ec66a	0.21755376
19	0x3e17e574	0.14833623
