checkpoints/task-006.pth (torch, 179983 bytes, 16 tensors)

conv1.weight f4 [10, 1, 5, 5]
-0.6694893 0.40596837 0.7307895 -0.42379263 -0.8292812 -0.25655282 -0.06693568 0.33754116
-0.2709782 -1.0879987 0.10200003 0.52752244 0.14893508 -0.27891755 -0.76233643 0.37859824
0.017926842 -0.18953212 -0.66928273 -0.5700807 0.21037294 -0.16233596 -0.28363234 -0.4445449
-0.63863945 -0.27579018 -0.37241358 -0.19860731 -0.14836255 -0.12254045 -0.22339116 -0.40314728
-0.21708013 0.37816668 0.07338172 0.24823518 0.27049175 1.2277101 0.12572101 -1.2254417
0.5628775 0.4605077 -0.29437792 -0.42505476 -1.1268796 -0.4623456 -0.61066407 -1.2299975
-0.96846414 -0.29581642 -0.07049547 -0.44534916 -0.2722237 -0.20011245 0.14756414 0.27575
-0.14738944 -0.29620188 -0.19934396 -0.1174712 0.22008994 0.01799982 -0.033682313 -0.13075389
-0.13460742 0.27443075 0.039935384 -0.14188169 -0.29727447 -0.015596589 0.35426477 0.2038906
-0.47238785 -0.22646856 0.23565865 -0.7116986 -0.40519595 -0.06742954 0.55143934 0.48938316
-0.570075 -0.5689971 0.40338022 0.9039739 -0.07334194 -0.84609324 -0.6088745 -0.28580728
1.0886179 -0.43424895 -0.24381715 -0.13564168 -0.19357109 0.8170548 0.007963026 0.52507526
0.23958553 0.12820625 0.6166031 0.61958236 -0.49406418 -0.037261467 -0.29822576 0.061690822
0.94456965 -0.8868985 -0.97435117 -1.3594344 -1.244926 0.064728454 -0.1648231 0.44988936
-0.31638086 -0.3905829 -0.79737914 0.238267 0.46344388 -0.113795705 -0.7530804 -0.115429774
0.021539353 -0.10109159 1.2237153 0.71397954 0.89320934 -0.48098204 -0.068685964 0.3953703
0.9152835 0.48714378 -0.67942566 -0.45387945 -0.25336313 -0.03413695 0.23068187 -0.8227893
-0.32342625 -0.3078334 -0.35262054 -0.04689752 -0.5602629 -0.45438883 -0.72102755 -0.9233022
-0.5920639 -0.062311523 0.16966386 0.069581315 -0.17560777 0.26988295 0.42258012 -0.36031073
-0.6719019 0.141227 0.27689493 0.14582877 0.8260907 0.59405214 0.009160499 0.31968388
-0.5021881 0.19005279 0.004545398 0.5123786 -0.5549796 -1.3639653 0.5028866 0.961035
-0.06119326 -1.2006416 -1.549167 -1.4491388 -1.8566958 -1.6280848 0.11674665 0.44933134
-0.5239836 0.23935656 -0.1201047 0.11605201 0.5256628 -0.024934502 -0.9351873 -1.0992376
0.040677313 0.45556548 1.4323747 -0.37467757 -0.8215314 0.64001733 -1.0016292 1.3171989
0.39008245 -0.27093735 -0.12004589 -0.6256578 0.24518557 0.502452 0.29325277 0.19184329
-0.07429118 -0.33214927 -0.09049052 -0.5998164 -0.79067993 0.15229246 -0.3761861 -0.8152488
-0.5260542 -0.16925134 0.34775093 -0.91785 -0.7235743 -0.20053715 -0.04381934 -0.16233307
-0.8953063 -0.26146463 -0.10782261 0.69444925 -1.0717006 -0.47414175 -0.30811784 -0.11486865
0.844486 -0.07327361 0.017074928 -0.03240081 -0.03209778 0.052609265 -0.029894136 -0.19003725
-0.15513167 -0.18288456 0.06985433 0.16561997 -0.13428792 0.18792959 -0.044466756 0.047330525
-0.09542123 -0.008143586 0.043261398 -0.08560938 0.019783065 0.10798107 -0.15772259 0.022692852
-0.0289168 -0.06773086
00000000: a763 2bbf 16db cf3e 0515 3b3f 59fb d8be
00000010: c64b 54bf e45a 83be 9315 89bd 32d2 ac3e
00000020: a8bd 8abe 8b43 8bbf 64e5 d03d b60b 073f
00000030: 7082 183e 48ce 8ebe 7b28 43bf a1d7 c13e
00000040: 50db 923c b514 42be 1d56 2bbf cff0 11bf
00000050: 016c 573e 663b 26be 4238 91be 649b e3be
00000060: e07d 23bf 5f34 8dbe feac bebe b75f 4bbe
00000070: 5aec 17be 7df6 fabd a7c0 64be 5269 cebe
00000080: 414a 5ebe 109f c13e 2849 963d 5d31 7e3e
00000090: e57d 8a3e 9b25 9d3f 02bd 003e 46db 9cbf
000000a0: bd18 103f aac7 eb3e b4b8 96be c7a0 d9be
000000b0: 973d 90bf 90b8 ecbe 7b54 1cbf 8f70 9dbf
000000c0: 44ed 77bf 4075 97be ee5f 90bd ce04 e4be
000000d0: e860 8bbe 47ea 4cbe 0e1b 173e 1b2f 8d3e
000000e0: 42ed 16be c6a7 97be d320 4cbe be94 f0bd
000000f0: 425f 613e 5c74 933c 77f6 09bd 59e4 05be
00000100: 87d6 09be 3082 8c3e 4993 233d 6f49 11be
00000110: 5c34 98be d688 7fbc 3162 b53e b3c8 503e
00000120: d2dc f1be 60e7 67be 8050 713e e131 36bf
00000130: d875 cfbe 8018 8abd 212b 0d3f 6e90 fa3e
00000140: 6ff0 11bf cba9 11bf da87 ce3e d56a 673f
00000150: 4d34 96bd 9199 58bf 33df 1bbf 5555 92be
00000160: d557 8b3f e155 debe 34ab 79be a7e5 0abe
00000170: 8037 46be 812a 513f 5a77 023c 556b 063f
00000180: e955 753e 8048 033e b3d9 1d3f f39c 1e3f
00000190: fbf5 fcbe 7b9f 18bd 0cb1 98be 84af 7c3d
000001a0: 51cf 713f c80b 63bf 146f 79bf f201 aebf
000001b0: bc59 9fbf 5a90 843d 63c7 28be e657 e63e
000001c0: acfc a1be 7bfa c7be 0a21 4cbf 44fc 733e
000001d0: 8448 ed3e b90d e9bd e1c9 40bf 7266 ecbd
000001e0: 4c73 b03c 1c09 cfbd b4a2 9c3f 5dc7 363f
000001f0: 5ea9 643f 4743 f6be 3aab 8cbd fa6d ca3e
00000200: 0550 6a3f e96a f93e d7ee 2dbf e362 e8be
00000210: d0b8 81be 30d3 0bbd de37 6c3e 52a2 52bf
00000220: 2098 a5be 579c 9dbe ae8a b4be 9d17 40bd
00000230: 646d 0fbf a7a5 e8be 4395 38bf 885d 6cbf
00000240: 8091 17bf 5e3a 7fbd 5dbc 2d3e a680 8e3d
00000250: 86d2 33be 192e 8a3e 6c5c d83e a67a b8be
00000260: c301 2cbf d09d 103e 2cc5 8d3e 2354 153e
00000270: ae7a 533f cd13 183f eb15 163c 9bad a33e
00000280: 668f 00bf 339d 423e 90f1 943b 3e2b 033f
00000290: 2513 0ebf 6a96 aebf 2dbd 003f 6406 763f
000002a0: c9a5 7abd a0ae 99bf 1b4b c6bf 617d b9bf
000002b0: 35a8 edbf 1565 d0bf de18 ef3d c20e e63e
000002c0: ca23 06bf e319 753e 74f9 f5bd adac ed3d
000002d0: d691 063f 7143 ccbc 6f68 6fbf d1b3 8cbf
000002e0: 419d 263d e13f e93e 0e58 b73f bdd5 bfbe
000002f0: e24f 52bf 2dd8 233f 6335 80bf f999 a83f
00000300: e3b8 c73e 4db8 8abe 9fda f5bd 1c2b 20bf
00000310: ed11 7b3e b2a0 003f 3a25 963e 9172 443e
00000320: f925 98bd 780f aabe 1853 b9bd 918d 19bf
00000330: 006a 4abf 8ef2 1b3e 779b c0be 25b4 50bf
00000340: 7dab 06bf 3950 2dbe 690c b23e 38f8 6abf
00000350: 2a3c 39bf 9c59 4dbe e97b 33bd a43a 26be
00000360: cb32 65bf b1de 85be 1ad2 dcbd 6dc7 313f
00000370: 7c2d 89bf b5c2 f2be 9fc1 9dbe 4140 ebbd
00000380: 3c30 583f 7910 96bd b8e0 8b3c b6b6 04bd
00000390: f678 03bd d07c 573d 8ce4 f4bc 2099 42be
000003a0: d6da 1ebe 1746 3bbe c90f 8f3d 4898 293e
000003b0: c682 09be 9d70 403e c622 36bd a7dd 413d
000003c0: 356c c3bd ad6c 05bc dd32 313d f853 afbd
000003d0: 1810 a23c 2e25 dd3d 0882 21be 5ce6 b93c
000003e0: ede2 ecbc 7ab6 8abd

conv1.bias f4 [10]
-0.7773372 -0.8038194 -0.33648783 -2.4724689 -1.1078162 -0.42831594 -0.6366571 -1.466738
-0.5579172 -0.20958106
00000000: 92ff 46bf 1cc7 4dbf 2248 acbe ee3c 1ec0
00000010: eccc 8dbf 3a4c dbbe f6fb 22bf 12be bbbf
00000020: a9d3 0ebf 6b9c 56be

conv2.weight f4 [20, 10, 5, 5]
0.05645961 0.56115824 0.55218387 0.19033061 -0.2244403 0.101695605 -0.20146604 -0.4020676
-0.12144369 -0.28304547 -0.44657952 -0.31232598 0.15922008 -0.35428306 -0.4577479 -0.3987206
0.067260005 0.22068506 0.11547637 -0.012754156 -0.18560901 -0.14705521 0.12263613 0.28442547
0.063992426 0.3665861 0.1130296 0.28419524 0.20508231 0.25467056 -0.16754422 -0.53367984
-0.49479073 -0.12220434 0.05963599 -0.013622443 -0.2854644 -0.04164149 -0.041454997 -0.15091947
0.114338994 0.11901087 -0.06679344 0.12502436 0.18322882 0.1511335 0.034778163 0.13312267
0.10451752 0.09725033 0.05811263 -0.025806058 -0.0075149257 0.018625746 -0.046356298 -0.023047853
0.010489825 0.013796578 -0.022777768 0.0026886533 0.1199231 0.18138117 0.15242039 0.027220853
-0.07583102 -0.042686656 -0.06544682 0.11071331 0.121282086 0.094999254 0.030093111 -0.09515014
-0.065555245 -0.011529637 -0.07701119 0.41830716 0.379047 0.22680326 0.04529978 0.08152481
-0.44796658 -0.40723813 -0.15988544 0.08952291 -0.28313813 -0.5773116 -0.18685795 -0.19667606
-0.23653813 -0.12913209 -0.22777446 -0.2329507 -0.33163723 -0.1468099 0.010699163 -0.19204026
-0.2020635 -0.19670725 -0.31231394 -0.13893344 -0.056848403 -0.6050666 -0.33845153 -0.08940838
-0.21740055 -0.5440591 -0.26407102 0.15306689 -0.26289383 -0.35767874 -0.53939587 0.42305255
0.40152264 -0.20446812 0.20055518 0.28052458 0.33875385 0.1210891 -0.19129266 0.3479276
-0.4355833 -0.34404394 0.06053269 0.16180009 0.11313777 -0.4621492 -0.22978522 0.12457373
-0.2940441 0.0694173 -0.43453866 -0.115422554 0.20436698 0.20450388 0.57234704 -0.5823785
0.06980667 0.27990162 -0.2513158 -0.14806774 -0.10011276 -0.33676144 -0.4084759 -0.38092193
-0.38702443 0.12990971 -0.16012268 0.019585956 0.09310718 0.2897498 -0.4309196 -0.24839005
-0.3489516 -0.08414038 0.53202474 -0.29873943 0.11596198 -0.004535772 0.056197934 -0.006126207
-0.5000787 -0.26388454 0.12300513 0.007169262 -0.29109505 0.032924972 -0.24795042 -0.120388776
-0.05172851 0.011083575 0.2916596 0.2087855 0.35292473 -0.03554035 -0.07581199 0.16515523
-0.27127522 -0.07832565 0.05597995 -0.08568818 0.24289566 0.09197694 0.56981236 -0.02796351
-0.13519645 0.06683653 0.19589353 -0.2678084 0.087141514 -0.04318143 0.02224615 0.20722225
-0.2895675 -0.02558996 0.20170155 -0.17385161 -0.03185069 0.27877113 0.0861558 -0.019497747
-0.5443865 0.069338284 0.5984428 0.56659174 0.30304915 -0.5562781 -0.27818003 -0.15470815
-0.31333748 -0.4552612 -0.47595632 -0.35561007 -0.12049645 0.16289827 -0.32000744 -0.15017153
0.1840412 0.37260726 0.35181883 0.37386703 0.040010165 -0.27166167 -0.24194719 0.107614584
-0.023646714 -0.044701394 0.006503305 0.049915675 -0.036139913 -0.028536217 -0.005604053 0.017835485
-0.05722773 0.06113484 0.022631602 0.036780115 0.026133392 -0.053611856 -0.047367316 0.046821415
-0.053759977 0.041754168 -0.021954369 0.05427194 0.0023097289 -0.057221107 0.0071249204 0.060128786
-0.033134725 -0.030885704 -0.09384669 -0.43701392 -0.1460077 0.1044778 0.18320471 -0.2945888
00000000: 3142 673d 11a8 0f3f ec5b 0d3f 07e6 423e
00000010: aed3 65be c945 d03d 1d4d 4ebe cedb cdbe
00000020: 78b7 f8bd 56eb 90be 12a6 e4be 31e9 9fbe
00000030: 970a 233e 9764 b5be ef5d eabe 1b25 ccbe
00000040: 9dbf 893d 44fb 613e e07e ec3d cff6 50bc
00000050: 4a10 3ebe a495 16be a728 fb3d 37a0 913e
00000060: 760e 833d 2cb1 bb3e 107c e73d 0a82 913e
00000070: 1901 523e 2e64 823e b690 2bbe 3e9f 08bf
00000080: 3655 fdbe 4546 fabd de44 743d ab30 5fbc
00000090: 6428 92be 4490 2abd b7cc 29bd a28a 1abe
000000a0: 902a ea3d f9bb f33d 00cb 88bd 6306 003e
000000b0: 56a0 3b3e bdc2 1a3e 8c73 0e3d 4f51 083e
000000c0: 480d d63d 2e2b c73d 8207 6e3d 3a67 d3bc
000000d0: c43f f6bb 0595 983c 1ae0 3dbd dace bcbc
000000e0: 84dd 2b3c 0b0b 623c 7198 babc 1e34 303b
000000f0: 3e9a f53d fcbb 393e 1714 1c3e 44fe de3c
00000100: 4b4d 9bbd 34d8 2ebd fb08 86bd a9bd e23d
00000110: be62 f83d f88e c23d d485 f63c 14de c2bd
00000120: d441 86bd cde6 3cbc 0bb8 9dbd 5b2c d63e
00000130: 7312 c23e 1d3f 683e 438c 393d 7bf6 a63d
00000140: e05b e5be 8481 d0be 02b9 23be ca57 b73d
00000150: 7bf7 90be b1ca 13bf b157 3fbe 7365 49be
00000160: 0d37 72be 343b 04be b53d 69be a18a 6ebe
00000170: 5bcc a9be 5655 16be 8b4b 2f3c 34a6 44be
00000180: bce9 4ebe a06d 49be 9de7 9fbe 9144 0ebe
00000190: dfd9 68bd a5e5 1abf 8549 adbe be1b b7bd
000001a0: 409e 5ebe 7547 0bbf 5134 87be 91bd 1c3e
000001b0: 059a 86be ab21 b7be d915 0abf 589a d83e
000001c0: 6094 cd3e 1760 51be 565e 4d3e eba0 8f3e
000001d0: 2571 ad3e 90fd f73d 39e2 43be 9123 b23e
000001e0: c604 dfbe 8726 b0be 20f1 773d ecae 253e
000001f0: c6b4 e73d d29e ecbe d14c 6bbe 8320 ff3d
00000200: f38c 96be a82a 8e3d da7b debe a962 ecbd
00000210: 9445 513e 7769 513e 5685 123f c216 15bf
00000220: cdf6 8e3d 444f 8f3e 77ac 80be 129f 17be
00000230: eb07 cdbd ff6b acbe c123 d1be 3308 c3be
00000240: 1128 c6be 0d07 053e 33f7 23be ba72 a03c
00000250: faae be3d 165a 943e 7ea1 dcbe f659 7ebe
00000260: c9a9 b2be cb51 acbd c632 083f 60f4 98be
00000270: 797d ed3d d0a0 94bb ce2f 663d 59be c8bb
00000280: 2805 00bf e01b 87be 1dea fb3d 21ec ea3b
00000290: 690a 95be 56dc 063d b7e6 7dbe 648e f6bd
000002a0: 46e1 53bd e297 353c 6854 953e decb 553e
000002b0: 8db2 b43e c292 11bd 5143 9bbd 741e 293e
000002c0: 96e4 8abe 3369 a0bd 3b4b 653d 497d afbd
000002d0: a4b9 783e 685e bc3d 39df 113f bb13 e5bc
000002e0: f070 0abe 97e1 883d 5098 483e 2f1e 89be
000002f0: 4077 b23d 03df 30bd 8f3d b63c 1232 543e
00000300: 3142 94be 09a2 d1bc da8a 4e3e 2806 32be
00000310: de75 02bd 17bb 8e3e 7472 b03d bdb9 9fbc
00000320: ea5c 0bbf 3b01 8e3d 8c33 193f 280c 113f
00000330: 4229 9b3e 3e68 0ebf 9d6d 8ebe d06b 1ebe
00000340: c56d a0be ff17 e9be 8cb0 f3be 8612 b6be
00000350: d8c6 f6bd cece 263e 04d8 a3be 91c6 19be
00000360: 4c75 3c3e 61c6 be3e 9921 b43e 806b bf3e
00000370: b3e1 233d 3d17 8bbe 01c1 77be 0965 dc3d
00000380: c1b6 c1bc cf18 37bd ad19 d53b 6174 4c3d
00000390: 7207 14bd c9c4 e9bc 34a2 b7bb b91b 923c
000003a0: a067 6abd 8768 7a3d e965 b93c bfa6 163d
000003b0: b215 d63c 1b98 5bbd 3b04 42bd d0c7 3f3d
000003c0: 6c33 5cbd 6b06 2b3d a6d9 b3bc 414c 5e3d
000003d0: d25e 173b ae60 6abd 2a78 e93b 9a49 763d
000003e0: 47b8 07bd 0404 fdbc b232 c0bd 4ac0 dfbe
000003f0: 0b83 15be 75f8 d53d 049a 3b3e 58d4 96be

conv2.bias f4 [20]
-0.8594889 0.07930997 -0.4776009 -0.027337736 -0.18692267 -0.2896542 -0.56433153 -0.037324328
-0.11559213 -0.26592755 0.24424002 0.020217847 -0.514184 -0.3854428 0.0730389 0.26900876
-0.3845085 -0.17934856 -0.11370263 -0.18672349
00000000: 7707 5cbf 446d a23d 1b88 f4be 63f3 dfbc
00000010: a868 3fbe 8e4d 94be 0878 10bf 65e1 18bd
00000020: 91bb ecbd a827 88be 0e1a 7a3e e69f a53c
00000030: 90a1 03bf c258 c5be 6b95 953d 84bb 893e
00000040: 4cde c4be 26a7 37be eddc e8bd 7134 3fbe

fc1.weight f4 [50, 320]
0.30851012 0.14189361 0.18532564 0.0895235 0.17107962 -0.11066124 -0.15367162 0.16452335
-0.012485879 -0.37963355 0.16644906 0.05795514 -0.41808334 -0.2062987 0.16703239 0.11126975
-0.1962224 -0.02855383 0.105473556 0.046007715 -0.15389824 -0.013079318 -0.027413165 0.180406
-0.12507407 -0.050738167 -0.16464888 -0.14442913 0.0071351407 -0.04076795 0.1413898 0.013792746
-0.10412206 0.07997068 0.16917393 0.036616486 -0.06948631 0.18572159 0.1020355 0.1134685
-0.17548798 0.07143129 0.28731582 0.087874785 -0.17644936 -0.25944757 0.09714675 0.2714287
0.21424015 0.016290894 -0.052406233 -0.13990127 -0.27934587 -0.25404263 -0.06547198 0.025435144
0.2748824 0.054860067 -0.27205732 0.0044141235 0.18292321 0.3677756 -0.24160807 -0.09728006
-0.08397883 -0.35583428 -0.23090759 0.18106699 -0.1727701 0.25979415 0.07304931 -0.1983793
0.154574 0.10623962 -0.04986979 -0.14534776 -0.14301954 -0.03929417 0.07165355 0.18835638
-0.06706162 0.123884074 0.20228206 -0.02297457 0.032370802 0.0022641679 -0.022880085 0.038812418
0.14493681 -0.19993034 -0.14962493 -0.10562185 -0.29039854 -0.26551658 0.075681895 0.04483294
0.16415891 -0.07133734 0.16508435 -0.074979074 -0.06891137 -0.12605032 -0.19651915 0.12763493
0.32461044 0.04074264 -0.19618213 0.15754886 -0.2983936 -0.30387506 -0.21052486 0.03448204
-0.012103765 0.12699838 0.306874 -0.09468169 0.1596036 -0.21354778 0.08996411 0.027074948
-0.21732286 -0.28317052 0.016893277 0.44805 -0.15666176 -0.1824519 0.004933155 0.073558144
-0.021594226 0.20279445 -0.06533188 0.0038403808 0.04237493 0.027768673 -0.11796796 -0.24525249
-0.10774612 -0.02105618 -0.10177205 0.2132896 -0.17185438 -0.15831836 0.100168206 0.22059748
0.032251354 0.04980353 0.18679166 0.022915235 0.3688201 -0.14695513 0.08353982 -0.19697909
0.104965895 -0.18017389 -0.17783347 0.06235136 -0.10863085 -0.33837155 -0.12922226 0.078730814
-0.34039596 -0.18719274 -0.04501553 -0.1930173 0.07620135 0.05983651 -0.003597641 -0.10548507
0.015399635 0.009794174 -0.2667671 0.17296723 0.10257585 0.03708793 -0.036146354 0.10983561
0.05463661 0.017347889 -0.27791718 -0.20496929 -0.39122692 -0.14153074 0.0088985665 0.13758676
0.054077823 0.10010941 -0.06889738 -0.10424224 0.34839398 0.2536798 -0.12321793 -0.1388741
0.083284095 0.027591059 0.2937693 0.09903719 0.073434174 0.14549436 0.058884587 -0.15743054
0.21252306 -0.12516186 0.040610928 0.028112594 -0.4010099 -0.24700983 0.047955822 0.17937173
0.10476313 -0.04166229 0.024510162 -0.14728591 -0.02606032 0.0014791859 0.074115396 0.16364075
-0.3653601 -0.27652398 0.09887558 0.29594687 0.01591307 -0.13163306 -0.096068256 -0.041473266
0.17022583 -0.3506664 -0.22256713 0.21909015 -0.46056727 -0.036082968 0.058346484 0.0044251606
0.23429304 0.14789492 -0.25181273 -0.19889188 0.091722995 0.11523911 0.154172 -0.028095156
0.0048160166 0.0025848818 -0.14619997 -0.2336532 -0.28291607 -0.21044832 0.03729703 -0.07505277
0.3295139 0.11689802 0.10136825 -0.23986764 0.039609168 -0.011358205 0.27075812 0.051059455
00000000: 0af5 9d3e 8f4c 113e 01c6 3d3e 1958 b73d
00000010: 7f2f 2f3e 5ca2 e2bd 185c 1dbe cf78 283e
00000020: 9291 4cbc 545f c2be 9f71 2a3e 5e62 6d3d
00000030: 050f d6be f73f 53be 8a0a 2b3e 65e1 e33d
00000040: 86ee 48be b9e9 e9bc 8502 d83d 9672 3c3d
00000050: 8097 1dbe a34a 56bc 9391 e0bc 5abc 383e
00000060: 6b13 00be d3d2 4fbd b799 28be 3be5 13be
00000070: e6cd e93b 4bfc 26bd 7dc8 103e f8fa 613c
00000080: f23d d5bd abc7 a33d ee3b 2d3e 2bfb 153d
00000090: d74e 8ebd cd2d 3e3e fdf7 d03d 2c62 e83d
000000a0: 1fb3 33be 914a 923d 0f1b 933e b2f7 b33d
000000b0: 24af 34be 50d6 84be e0f4 c63d b4f8 8a3e
000000c0: c561 5b3e 7b74 853c eba7 56bd 4742 0fbe
000000d0: 6c06 8fbe e011 82be 2c16 86bd 5d5d d03c
000000e0: 63bd 8c3e f3b4 603d 194b 8bbe 5aa4 903b
000000f0: 3950 3b3e 154d bc3e 1b68 77be c53a c7bd
00000100: 18fd abbd e92f b6be 0a73 6cbe a069 393e
00000110: a5ea 30be bd03 853e e09a 953d f123 4bbe
00000120: a648 1e3e 2894 d93d 4444 4cbd 0bd6 14be
00000130: b773 12be ecf2 20bd 19bf 923d 7fe0 403e
00000140: 9a57 89bd efb6 fd3d 0723 4f3e 2a35 bcbc
00000150: 3f97 043d 6f62 143b 046f bbbc c5f9 1e3d
00000160: 516a 143e 8aba 4cbe 4737 19be 4550 d8bd
00000170: 1eaf 94be caf1 87be 1cff 9a3d bfa2 373d
00000180: 4619 283e 5019 92bd df0b 293e a18e 99bd
00000190: 6821 8dbd 5613 01be 513c 49be bbb2 023e
000001a0: 5733 a63e c1e1 263d f8e3 48be 7d54 213e
000001b0: 0cc7 98be 8395 9bbe d493 57be 0a3d 0d3d
000001c0: df4e 46bc dd0b 023e 971e 9d3e 79e8 c1bd
000001d0: 206f 233e 45ac 5abe 1a3f b83d 48cc dd3c
000001e0: e289 5ebe bafb 90be c563 8a3c cf66 e53e
000001f0: f16b 20be acd4 3abe 4ea6 a13b a7a5 963d
00000200: 60e6 b0bc 59a9 4f3e b8cc 85bd e6ae 7b3b
00000210: 5691 2d3d 217b e33c 3099 f1bd 7823 7bbe
00000220: ffa9 dcbd 037e acbc dd6d d0bd 9768 5a3e
00000230: 98fa 2fbe 351e 22be fd24 cd3d 4ee4 613e
00000240: ff19 043d c9fe 4b3d 5046 3f3e bbb8 bb3c
00000250: fdd5 bc3e 687b 16be ed16 ab3d e3b4 49be
00000260: 5cf8 d63d 817f 38be fa19 36be 2464 7f3d
00000270: da79 debd 093f adbe d752 04be 9f3d a13d
00000280: 6148 aebe 74af 3fbe 3462 38bd 54a6 45be
00000290: 740f 9c3d 2117 753d 66c6 6bbb 8e08 d8bd
000002a0: c04e 7c3c be77 203c b395 88be 521e 313e
000002b0: 4a13 d23d 83e9 173d 330e 14bd 7ef1 e03d
000002c0: a3ca 5f3d 291d 8e3c 294b 8ebe 78e3 51be
000002d0: e54e c8be 6fed 10be 4bcb 113c 8be3 0c3e
000002e0: b580 5d3d 2a06 cd3d 121a 8dbd f57c d5bd
000002f0: b260 b23e 52e2 813e af59 fcbd 0335 0ebe
00000300: da90 aa3d a506 e23c ee68 963e 03d4 ca3d
00000310: a864 963d 79fc 143e f730 713d 7935 21be
00000320: a59f 593e 6e2a 00be a557 263d 624c e63c
00000330: 2b51 cdbe 25f0 7cbe 536d 443d 39ad 373e
00000340: 0d8e d63d 14a6 2abd 89c9 c83c 1ed2 16be
00000350: 747c d5bc 3ee1 c13a d0c9 973d 7191 273e
00000360: 7b10 bbbe 8d94 8dbe 487f ca3d 5986 973e
00000370: 205c 823c d1ca 06be 6fbf c4bd dfdf 29bd
00000380: ae4f 2e3e 8c8a b3be a3e8 63be 2b59 603e
00000390: 79cf ebbe bccb 13bd b9fc 6e3d f000 913b
000003a0: 84ea 6f3e c471 173e 99ed 80be 50aa 4bbe
000003b0: 44d9 bb3d 7c02 ec3d 44df 1d3e d027 e6bc
000003c0: adcf 9d3b 1f67 293b 72b5 15be c942 6fbe
000003d0: 60da 90be c47f 57be c5c4 183d 44b5 99bd
000003e0: 0cb6 a83e 3b68 ef3d 289a cf3d dd9f 75be
000003f0: 393d 223d c417 3abc cfa0 8a3e b823 513d

fc1.bias f4 [50]
-0.09855706 -0.19203827 0.28148317 -0.26465032 0.2069821 -0.018416494 0.6050193 0.14903872
0.08950961 0.019989848 0.18071873 0.1805256 0.40748563 0.69530743 -0.24248314 0.5327966
0.36650687 -0.11852376 -0.31003717 0.36813697 0.07523158 0.028006658 0.7911457 -0.36746088
0.0030521094 -0.25587225 0.29198146 0.77809167 0.19039886 -0.10952345 0.30927968 0.9138802
-0.11813103 -0.053315736 0.26617798 0.7528004 0.6403768 -0.39894766 0.29028118 0.08139227
0.73681927 0.38282862 0.0037230796 -0.1640024 -0.02850542 -0.26016927 0.10415741 0.13869685
0.658055 -0.31246182
00000000: 49d8 c9bd aea5 44be 901e 903e 3f80 87be
00000010: 1ef3 533e 30de 96bc 8be2 1a3f 9b9d 183e
00000020: d050 b73d c0c1 a33c 550e 393e b4db 383e
00000030: f5a1 d03e abff 313f 804d 78be 5c65 083f
00000040: caa6 bb3e 96bc f2bd 31bd 9ebe 737c bc3e
00000050: 0413 9a3d 386e e53c 8688 4a3f d523 bcbe
00000060: e605 483b b001 83be 987e 953e 0431 473f
00000070: ebf7 423e d54d e0bd e859 9e3e 0ef4 693f
00000080: aeee f1bd 9a61 5abd 7b48 883e 87b7 403f
00000090: bcef 233f de42 ccbe bc9f 943e feb0 a63d
000000a0: 30a0 3c3f 1d02 c43e e9fe 733b 3ff0 27be
000000b0: 3384 e9bc e834 85be 7b50 d53d 8c06 0e3e
000000c0: 4b76 283f fffa 9fbe

fc2.weight f4 [10, 50]
-0.33654323 -0.18004067 0.40837595 -0.49613625 0.43191692 -0.22794959 -0.061490994 -0.054239944
0.34909946 0.46345392 0.12026907 0.55310637 -0.08920886 -0.023306156 -0.27784303 -0.52153707
-0.0705116 0.44596598 -0.10582016 0.36362258 0.20253862 0.0012898815 -0.17331249 -0.4294894
-0.15090585 0.30118662 0.53812706 -0.5848575 -0.38122606 -0.20732452 -0.33408216 0.40167496
0.29667854 -0.47323877 -0.44046327 -0.29046878 -0.3217112 0.052012157 -0.2747637 -0.2670938
-0.19887713 -0.088532396 -0.29618838 -0.4646443 0.2734545 -0.25373065 -0.3029451 -0.3943236
-0.3871755 -0.09458026 -0.2660496 -0.17901954 -0.25873393 -0.24843436 -0.39106244 -0.028038997
0.45969564 -0.2845044 -0.235665 -0.29352513 -0.41774738 -0.37088224 0.25759247 0.50694966
-0.39833716 0.36916485 -0.25821966 -0.6048818 -0.4386719 -0.3476731 -0.152545 -0.26817974
0.33937818 -0.28516686 -0.32529527 -0.6521068 -0.05766928 0.39622113 -0.2695523 -0.20567171
-0.21412551 0.2508434 -0.5384634 -0.34973457 0.20942825 0.3151682 0.40788427 -0.38168627
0.43679065 -0.2840564 0.1853397 0.4246679 0.15781648 -0.46342108 -0.3705931 -0.21195798
-0.36441976 0.15501472 0.38634568 -0.37575278 0.32411626 0.1537436 0.41678357 0.30917448
-0.22186592 0.6274987 0.23144023 0.08484697 0.0028627554 0.28374696 -0.23853453 -0.3323148
0.35302576 -0.030020712 -0.045714017 0.10149758 0.053982846 -0.14757076 -0.12589641 -0.15614328
0.38716748 0.44138023 0.05436097 -0.20201376 0.093195476 -0.45625502 0.18389347 -0.02988137
-0.08817296 -0.18485516 -0.2322709 -0.06600713 -0.046956148 0.054444175 0.12258924 -0.18717517
0.39884675 0.34036234 -0.23137791 -0.05795594 0.009679389 0.44259202 0.51987386 -0.3427491
-0.29976586 0.09924962 0.0130031565 0.38409293 -0.27425736 -0.21360514 0.22154503 -0.07617325
-0.15509741 0.27734435 -0.32197526 -0.041837353 -0.2899578 -0.28176987 0.18567792 -0.104883336
-0.41530257 0.071432 -0.10765113 -0.45721975 0.055308983 0.36975563 -0.16327669 -0.018298145
0.068062924 -0.3151671 0.32268837 -0.16782151 -0.013961731 0.32744813 0.26649585 -0.08701087
-0.14363696 0.046834543 0.4883477 0.57601464 -0.12054683 -0.20603094 0.19543573 0.4386851
0.57496905 -0.19378035 -0.1296919 0.120877594 -0.14030418 -0.22794399 -0.36240324 -0.045488756
0.5369186 -0.1021113 -0.04314007 0.12111175 -0.040550824 0.43177542 -0.41444293 0.15341273
0.17120874 0.06365434 0.1297711 -0.1971941 -0.11778415 -0.085858725 -0.054882366 0.4437454
-0.030289643 0.081953846 0.45988002 -0.2845621 -0.02723649 -0.06444286 0.05365686 -0.26323035
0.379798 -0.27096602 -0.09386372 -0.10482515 -0.13005058 0.2946302 0.11126769 0.35307556
-0.07886906 0.18308638 -0.036743626 0.3926814 0.27649236 -0.31899074 0.5836936 -0.28110483
-0.061071996 0.014206749 -0.23047215 0.38558885 0.3667801 -0.18685037 0.012654229 0.5124685
0.20599066 -0.07388066 -0.16220269 0.24017857 -0.13643652 -0.22882411 0.2941722 -0.43971294
0.55946213 -0.14820027 0.011039603 0.0057292343 -0.20989144 -0.10614435 -0.20183471 -0.17547593
00000000: 654f acbe 955c 38be a716 d13e 9205 febe
00000010: 3724 dd3e 9e6b 69be fbdd 7bbd b42a 5ebd
00000020: 2abd b23e d549 ed3e a14f f63d 6198 0d3f
00000030: 23b3 b6bd 8dec bebc 7141 8ebe 7483 05bf
00000040: 6368 90bd a755 e43e 3db8 d8bd bd2c ba3e
00000050: 4966 4f3e 3e11 a93a d478 31be 09e6 dbbe
00000060: 1087 1abe 2235 9a3e b2c2 093f 39b9 15bf
00000070: 1030 c3be e14c 54be d10c abbe 57a8 cd3e
00000080: 40e6 973e 5a4c f2be 6784 e1be 53b8 94be
00000090: 55b7 a4be b30a 553d d4ad 8cbe 85c0 88be
000000a0: 72a6 4bbe 7950 b5bd 01a6 97be dce5 edbe
000000b0: 3a02 8c3e fce8 81be 9f1b 9bbe c8e4 c9be
000000c0: de3b c6be 4cb3 c1bd a737 88be e650 37be
000000d0: c678 84be 9465 7ebe 5639 c8be 0ab2 e5bc
000000e0: 3a5d eb3e 90aa 91be 2a52 71be ed48 96be
000000f0: fce2 d5be 47e4 bdbe 29e3 833e 74c7 013f
00000100: d9f2 cbbe 2d03 bd3e 5e35 84be 89d9 1abf
00000110: 9a99 e0be 3502 b2be c234 1cbe db4e 89be
00000120: fac2 ad3e 6401 92be 1a8d a6be 79f0 26bf
00000130: 9f36 6cbd 7fdd ca3e c202 8abe 9b9b 52be
00000140: b843 5bbe 8c6e 803e bdd8 09bf 6910 b3be
00000150: 5c74 563e ba5d a13e 35d6 d03e 626c c3be
00000160: 06a3 df3e d76f 91be b1c9 3d3e 126e d93e
00000170: a59a 213e 8745 edbe 61be bdbe 830b 59be
00000180: 3a95 babe 2ebc 1e3e 1acf c53e ab62 c0be
00000190: 91f2 a53e f66e 1d3e a864 d53e 1e4c 9e3e
000001a0: d230 63be c1a3 203f abfe 6c3e 40c4 ad3d
000001b0: 119d 3b3b 4847 913e 6542 74be 2a25 aabe
000001c0: cbbf b43e ffed f5bc 9f3e 3bbd f7dd cf3d
000001d0: 1e1d 5d3d ca1c 17be fdea 00be 06e4 1fbe
000001e0: d13a c63e 97fc e13e 9ca9 5e3d b2dc 4ebe
000001f0: 45dd be3d 429a e9be 924e 3c3e c6c9 f4bc
00000200: 0694 b4bd ac4a 3dbe 6cd8 6dbe bf2e 87bd
00000210: 1755 40bd db00 5f3d 1110 fb3d d9aa 3fbe
00000220: a435 cc3e f943 ae3e 55ee 6cbe 3563 6dbd
00000230: 4d96 1e3c 6c9b e23e 7416 053f cf7c afbe
00000240: e97a 99be 6343 cb3d 310b 553c d4a7 c43e
00000250: 766b 8cbe 4ebb 5abe b3dc 623e b900 9cbd
00000260: dbd1 1ebe 1400 8e3e f1d9 a4be a55d 2bbd
00000270: 5975 94be 2444 90be 5a22 3e3e 13cd d6bd
00000280: 8aa2 d4be f14a 923d 3278 dcbd b518 eabe
00000290: ac8b 623d 9c50 bd3e 0132 27be fee5 95bc
000002a0: 9364 8b3d 955d a1be 6937 a53e 67d9 2bbe
000002b0: bfbf 64bc 48a7 a73e 2572 883e c132 b2bd
000002c0: 9115 13be 94d5 3f3d b608 fa3e b275 133f
000002d0: 42e1 f6bd c6f9 52be 4e20 483e 559b e03e
000002e0: 2c31 133f 5b6e 46be f4cd 04be ac8e f73d
000002f0: e6ab 0fbe 266a 69be eb8c b9be 6b52 3abd
00000300: 7f73 093f bb1f d1bd a4b3 30bd 7009 f83d
00000310: 9f18 26bd ab11 dd3e dd31 d4be 3a18 1d3e
00000320: 5851 2f3e 355d 823d b7e2 043e 40ed 49be
00000330: d138 f1bd b3d6 afbd 55cc 60bd 9932 e33e
00000340: fc21 f8bc 6bd7 a73d 6575 eb3e 20b2 91be
00000350: 0f1f dfbc 9efa 83bd 4cc7 5b3d 21c6 86be
00000360: e274 c23e 0fbc 8abe 9f3b c0bd 91ae d6bd
00000370: fb2b 05be c5d9 963e 51e0 e33d 52c6 b43e
00000380: 1a86 a1bd ff7a 3b3e 7c80 16bd 890d c93e
00000390: 6890 8d3e c152 a3be f26c 153f f9ec 8fbe
000003a0: a126 7abd 6dc3 683c e400 6cbe e76b c53e
000003b0: 9aca bb3e b455 3fbe af53 4f3c 2331 033f
000003c0: 37ef 523e be4e 97bd 7618 26be 5ff1 753e
000003d0: 04b6 0bbe de50 6abe bd9d 963e 0e22 e1be
000003e0: e938 0f3f d0c1 17be 73df 343c 4dbc bb3b
000003f0: c8ed 56be 3562 d9bd c2ad 4ebe f6af 33be

fc2.bias f4 [10]
0.42197996 0.7370009 -0.27919874 0.42668414 -0.11255267 -0.4542708 -1.1449062 -0.4454724
0.56851345 -0.19173653
00000000: c20d d83e 17ac 3c3f 23f3 8ebe 5876 da3e
00000010: 0482 e6bd 2f96 e8be 498c 92bf f514 e4be
00000020: 198a 113f 9556 44be

momentum_buffer f4 [10, 1, 5, 5]
-0.058169313 -0.15811735 -0.18371299 -0.05221733 -0.005373935 -0.112143315 -0.19612148 -0.13917062
0.0028412724 0.0003617082 -0.19961652 -0.19652885 0.000110361725 0.011636877 2.0664693e-06 -0.20812854
-0.11035132 0.024056666 0.00021022104 0.0005146933 -0.12849556 -0.018165614 0.0062340638 0.00797107
0.004565843 -0.00236281 0.0018826635 0.0013119103 -0.033094563 -0.030236786 -0.0040790853 0.015217678
0.00050187425 -0.002963677 0.019998852 -0.01673075 -0.00018026866 -0.053135306 -0.0114567205 0.01963853
0.031802136 0.0193793 -0.010027221 0.0023925214 0.005457492 0.034815453 0.0040699826 -0.0019258421
-9.165396e-05 0.0014369882 -0.032462776 -0.015844075 -0.0007743171 0.0046923044 0.013089121 -0.024632704
0.0035818182 0.010401464 0.004628535 0.00739997 -0.017524999 0.020283978 0.013629384 0.0027852175
0.0046805018 0.003039915 0.018897837 0.005718429 -0.0021741977 0.0013449793 0.015964478 0.015956521
0.0085364375 -0.0016234443 0.007142985 -0.0008197194 -0.0044677593 -0.012161156 0.009549661 0.058355596
-0.006277995 -0.02668899 -0.019614365 0.0357459 0.052998465 1.7866492e-05 -0.040464666 -0.04794226
0.036384523 0.044260897 0.04926143 0.017695677 0.08341202 0.14560929 0.12668297 0.15418072
0.15306929 0.19516297 0.19301628 0.09827561 0.006796945 0.005523936 0.00069719716 0.04054776
0.12051789 0.033095893 0.0139133055 0.0012986775 0.008857515 0.06816978 -0.019237097 -0.008181905
-0.012420958 -0.007930052 0.009959952 -0.01860876 0.0081826085 -0.03391279 -0.0009761825 0.064741835
0.049474552 0.08614126 0.075335026 0.071356066 0.08551167 0.058411364 0.08544232 0.046996154
0.06647779 -0.022115605 0.020232398 0.029856741 0.034923345 0.035718128 -0.04419721 0.0012940831
0.0004844513 -0.0031292925 -0.022969086 -0.07701209 -0.00016734037 -5.7370158e-05 -5.879561e-05 -0.0050013224
-0.044394135 -0.015152495 -0.0065781446 -0.0022230095 -0.011827059 -0.05381405 -0.034244608 -0.062203508
-0.076192975 -0.08442655 -0.07206469 -0.07854289 -0.063885815 -0.06550666 -0.070855744 -0.05846091
-0.087650165 -0.0127520235 0.038176335 0.033972137 0.051657777 0.0026560044 0.025706083 0.0038129874
-0.012061996 0.0009254534 0.0003313259 -0.00239488 -0.0001954925 0.0013043963 -0.03430046 0.06921442
0.03707636 0.031054951 0.030399134 -0.013140079 0.004232928 0.019168489 0.013671171 0.023770435
-0.010231044 -0.0061115585 0.00029038638 0.0007537082 0.026641916 0.0077174604 -0.026688151 -0.011991292
-0.04928556 -0.047219228 -0.043379948 0.030083016 0.043578103 -0.016345806 -0.028475225 -0.031324953
-0.07358134 -0.05665614 -0.0019156123 0.003492859 -0.0020199618 -0.05453574 -0.004333769 0.0005528265
0.0027689168 0.020927358 -0.013546588 0.007312021 0.0020334786 0.02059063 0.027403507 -0.0008596854
-3.2686185e-05 0.0023937754 0.009018239 -0.042564 0.004013346 -0.0021392468 -0.0076342393 -0.04887515
-0.022496216 5.677024e-38 -1e-45 -5.133482e-07 -4.2094543e-06 -7.919964e-06 -2.387708e-08 2.313867e-12
-2.607303e-07 -1.1800054e-06 -8.114826e-06 -6.6019347e-06 -6.5324834e-06 -8.396708e-06 -6.7128844e-06 -7.698847e-06
-3.3317754e-06 -3.3339054e-06 -6.77098e-06 -4.20055e-06 -3.3441777e-06 3.3213716e-08 4.1685233e-09 -1.7547977e-06
-1.8633933e-06 -1.0503777e-06
00000000: f242 6ebd 84e9 21be 421f 3cbe d7e1 55bd
00000010: d617 b0bb 65ab e5bd 12d4 48be be82 0ebe
00000020: a434 3a3b a7a3 bd39 4668 4cbe dc3e 49be
00000030: 0072 e738 9aa8 3e3c acad 0a36 a61f 55be
00000040: dfff e1bd 7c12 c53c c86e 5c39 7cec 063a
00000050: 5794 03be 0ed0 94bc 1e47 cc3b 1799 023c
00000060: 119d 953b 60d9 1abb b4c3 f63a 68f4 ab3a
00000070: 2a8e 07bd 23b3 f7bc d9a9 85bb 9153 793c
00000080: 3690 033a 403a 42bb a2d4 a33c ed0e 89bc
00000090: 8006 3db9 68a4 59bd f8b4 3bbc fce0 a03c
000000a0: f542 023d 56c1 9e3c 3749 24bc d9cb 1c3b
000000b0: c3d4 b23b a69a 0e3d 7d5d 853b 8a6c fcba
000000c0: 5836 c0b8 5359 bc3a b0f7 04bd 6fcb 81bc
000000d0: 8afb 4aba e7c1 993b c173 563c 86ca c9bc
000000e0: f0bc 6a3b e76a 2a3c f7aa 973b 737b f23b
000000f0: 9690 8fbc 962a a63c c84d 5f3c 3288 363b
00000100: e55e 993b 5039 473b a3cf 9a3c a961 bb3b
00000110: fc7c 0ebb 044a b03a f0c7 823c 40b7 823c
00000120: 6adc 0b3c c0c9 d4ba b30f ea3b 70e2 56ba
00000130: 4866 92bb 963f 47bc 2e76 1c3c 4706 6f3d
00000140: a4b7 cdbb dea2 dabc 4eae a0bc 4b6a 123d
00000150: eb14 593d 00e0 9537 47be 25bd 1a5f 44bd
00000160: f007 153d ea4a 353d 5ac6 493d 86f6 903c
00000170: ecd3 aa3d 9a1a 153e 2eb9 013e 8de1 1d3e
00000180: 32be 1c3e cdd8 473e 0fa6 453e b944 c93d
00000190: e8b8 de3b 2202 b53b 1cc4 363a 6815 263d
000001a0: 15d2 f63d 8f8f 073d a2f4 633c 6338 aa3a
000001b0: 1c1f 113c 999c 8b3d 1e97 9dbc 660d 06bc
000001c0: 4681 4bbc 0ced 01bc 112f 233c 6671 98bc
000001d0: 5910 063c 23e8 0abd 80e6 7fba 5e97 843d
000001e0: d4a5 4a3d d46a b03d 4049 9a3d 2123 923d
000001f0: be20 af3d c140 6f3d 62fc ae3d 0a7f 403d
00000200: 8225 883d c92b b5bc 6abe a53c 2096 f43c
00000210: c80b 0f3d 2c4d 123d 2208 35bd 399e a93a
00000220: f4fd fd39 d114 4dbb aa29 bcbc 84b8 9dbd
00000230: 1778 2fb9 bda0 70b8 4e9b 76b8 22e2 a3bb
00000240: a0d6 35bd 2c42 78bc 7a8d d7bb e9af 11bb
00000250: 48c6 41bc 1f6c 5cbd 1344 0cbd 1bc9 7ebd
00000260: 100b 9cbd d4e7 acbd a796 93bd 18db a0bd
00000270: 91d6 82bd 5b28 86bd d11c 91bd b574 6fbd
00000280: ee81 b3bd dded 50bc ca5e 1c3d 5e26 0b3d
00000290: 1b97 533d 5c10 2e3b 9095 d23c 50e3 793b
000002a0: ae9f 45bc 209a 723a cfb5 ad39 6bf3 1cbb
000002b0: 1efd 4cb9 47f8 aa3a a47e 0cbd 4ac0 8d3d
000002c0: 62dd 173d f466 fe3c 9b07 f93c 7c49 57bc
000002d0: 60b4 8a3b 3c07 9d3c 0cfd 5f3c 37ba c23c
000002e0: 1ca0 27bc 7843 c8bb 003f 9839 8094 453a
000002f0: 2640 da3c c0e2 fc3b 1ca1 dabc 2077 44bc
00000300: a8df 49bd f368 41bd 2caf 31bd a870 f63c
00000310: f47e 323d a4e7 85bc e044 e9bc 984e 00bd
00000320: d0b1 96bd 4510 68bd 4815 fbba 73e8 643b
00000330: 5661 04bb de60 5fbd 4a02 8ebb 8feb 103a
00000340: b776 353b da6f ab3c 82f2 5dbc ae99 ef3b
00000350: 1c44 053b aead a83c 527d e03c 835c 61ba
00000360: 8618 09b8 e3e0 1c3b 3cc1 133c 9757 2ebd
00000370: 6382 833b 9b32 0cbb a428 fabb 4f31 48bd
00000380: fc49 b8bc 158b 9a01 0100 0080 05cd 09b5
00000390: f03e 8db6 fddf 04b7 411a cdb2 ecd2 222c
000003a0: 80fa 8bb4 ad60 9eb5 ea24 08b7 3086 ddb6
000003b0: 9b31 dbb6 96df 0cb7 3d3f e1b6 4c2a 01b7
000003c0: 7797 5fb6 0fbc 5fb6 4632 e3b6 73f2 8cb6
000003d0: 896c 60b6 dea6 0e33 b83a 8f31 6486 ebb5
000003e0: b519 fab5 b4fa 8cb5

momentum_buffer f4 [10]
-0.23968028 -0.06978203 0.023869246 0.1161438 0.19553684 -0.014705376 -0.07784779 -0.0105610415
-0.019364666 -8.81669e-06
00000000: bf6e 75be e2e9 8ebd 7089 c33c cddc ed3d
00000010: cf3a 483e d1ee 70bc aa6e 9fbd 3808 2dbc
00000020: a6a2 9ebc 65eb 13b7

momentum_buffer f4 [20, 10, 5, 5]
0.0013693251 0.014283137 -0.0020187777 -7.909579e-06 -7.879593e-05 0.00081821927 0.02123426 1.4886559e-06
3.79519e-06 1.5755559e-05 0.0024499656 0.0037385477 -0.0015645724 0.006767278 9.357749e-05 0.00059084897
-0.001886347 -0.0034961577 0.006511408 -0.0010392979 -0.0008949688 -0.0013588323 -0.0005185926 0.0018323022
-0.00037609364 -3.945731e-05 0.0020954967 0.0024547277 0.002775049 -0.0014891052 0.00022307954 5.012721e-05
0.0001485096 0.0011626168 0.001995275 -5.319927e-06 -2.51353e-05 -6.8565804e-08 0.007814465 0.0033284603
-0.00010474818 -0.0055636354 0.0064079165 0.032270376 0.00096386875 0.002266721 -0.00064020714 0.0011592162
0.0071294117 0.00026787072 -0.0007214537 -0.00025647948 0.013808552 0.0014521717 0.0011286543 0.0010686076
0.0005799532 -0.0008523008 -0.0015261852 0.0019671724 0.0005442664 0.0008464301 -0.0032780145 0.009700593
0.011662939 0.00020136805 0.00037049805 -0.0020910623 0.006751384 0.009180346 0.00024572742 0.00078570074
-0.00043269704 0.0035495292 0.0021346356 0.026035083 -0.014878152 0.0022738902 -0.0023743275 -0.00054293586
-0.0055057066 -0.0037097516 0.003311584 -0.00029710156 0.0015330092 -0.0012367142 -0.0063982164 0.005157655
0.00063372543 0.0036086952 -0.0065178564 -0.014670142 0.00074017246 -0.0024719264 0.0071368376 0.0016070891
-0.00027899188 -2.7170458e-05 0.0013528183 0.0073746983 -0.0017331484 8.5898006e-05 0.00054926384 0.004332642
-7.444301e-05 -0.0006200066 -0.004685502 0.02217422 0.006231405 0.0014663346 0.002327959 0.0035692186
0.03275808 0.028291479 0.005878672 -0.0026271062 -0.0030096062 0.007310165 0.0042247246 -0.00021235683
0.0005213568 -0.00021060303 0.0004052314 0.00059317186 0.0004927649 3.3424087e-05 -0.0001787621 -0.000119187425
-9.95981e-05 0.0027403461 4.7488655e-05 0.0008894155 0.0028730563 0.00035829167 0.008718856 8.816833e-06
-0.000183364 0.0023280133 0.0016931532 0.007764843 -0.00026544151 0.0010771011 0.00021526655 3.662105e-05
0.00018318556 0.0025603585 0.0063682287 0.0023120383 0.003050426 0.0025279014 -7.198674e-06 0.0005164564
0.0016973675 0.0021538027 -0.00097574707 -3.3863875e-05 0.0038013803 0.007244699 0.0067466754 0.0030829743
-0.00015486301 0.0011237233 0.0025514863 0.00062066555 0.00020499075 0.016386233 0.011137847 0.035554737
0.002829557 0.0028104798 0.011911815 0.01959614 0.032891944 0.0044677556 0.0034729952 -0.005591303
0.012495103 0.0039123627 0.0067544105 0.0033765521 -0.0042758286 -0.006958556 0.0024448796 0.007250648
0.0017484216 0.046345 0.020011049 -0.009381364 0.0051969923 0.00028495514 0.010675791 0.010288874
-0.004766695 0.0021195784 0.001558344 0.000914738 -0.001527641 -0.00064373994 0.00057915977 0.000698337
-0.001609773 0.00020186328 0.00086475286 -0.0016871049 0.0024519106 -1.641954e-05 5.1987878e-05 -0.0013107784
-0.0015768397 0.00050383515 0.0011431271 0.0016543198 -0.0006094361 0.0017515408 0.00020557719 0.00205403
0.0003071229 0.00024976447 0.005979127 0.001756421 -0.0013855741 -0.00060969475 0.0020963633 0.0020100512
0.0026681558 -1e-45 -1e-45 1e-45 -2.4962428e-32 -2.578093e-32 -1e-45 -1e-45
-1e-45 1e-45 1e-45 -1e-45 -1e-45 -1e-45 1e-45 -1e-45
-1e-45 1e-45 2.866e-42 1e-45 1e-45 1e-45 -6.6950876e-28 2.48e-43
1e-45 1e-45 -7.485781e-06 0.00092070457 0.0006064667 0.0014399991 -0.0046008704 1.1820152e-05
00000000: ed7a b33a d203 6a3c 784d 04bb 62b3 04b7
00000010: 3e3f a5b8 c47d 563a 79f3 ad3c d4cd c735
00000020: deb0 7e36 ce2a 8437 9a8f 203b 6c02 753b
00000030: 5712 cdba 0bc0 dd3b 083f c438 34e3 1a3a
00000040: 4d3f f7ba cb1f 65bb a65d d53b 0d39 88ba
00000050: 579c 6aba d91a b2ba 29f2 07ba dc29 f03a
00000060: 6f2e c5b9 f77e 25b8 9a54 093b 7fdf 203b
00000070: 99dd 353b 142e c3ba 75ea 6939 af3f 5238
00000080: 3eb9 1b39 f262 983a 29c3 023b d381 b2b6
00000090: a5d9 d2b7 733e 93b3 3e08 003c 4c22 5a3b
000000a0: 40ac dbb8 284f b6bb 80f9 d13b f12d 043d
000000b0: 23ac 7c3a 458d 143b 93d3 27ba d7f0 973a
000000c0: d79d e93b 0071 8c39 f01f 3dba 1878 86b9
000000d0: 443d 623c cc56 be3a 5bef 933a 8510 8c3a
000000e0: 0008 183a f06c 5fba 470a c8ba adeb 003b
000000f0: 1aad 0e3a f6e2 5d3a f5d3 56bb 3cef 1e3c
00000100: e915 3f3c 5326 5339 683f c239 340a 09bb
00000110: b73a dd3b 2969 163c fad4 8039 7cf7 4d3a
00000120: 9ddb e2b9 389f 683b 3ee5 0b3b 8747 d53c
00000130: 7ec3 73bc 8c05 153b 9b9a 1bbb cf53 0eba
00000140: 3769 b4bb 4e1f 73bb 2907 593b 4cc4 9bb9
00000150: 41ef c83a 3e19 a2ba 21a8 d1bb 8c01 a93b
00000160: 9820 263a dc7f 6c3b be93 d5bb 095b 70bc
00000170: 2208 423a 0b00 22bb 22dc e93b f6a4 d23a
00000180: a845 92b9 1dec e3b7 0d51 b13a 74a7 f13b
00000190: cf2a e3ba 2424 b438 79fc 0f3a d6f8 8d3b
000001a0: 491e 9cb8 f087 22ba d788 99bb b6a6 b53c
000001b0: d030 cc3b 0632 c03a ac90 183b 8de9 693b
000001c0: 562d 063d 88c3 e73c e0a1 c03b 872b 2cbb
000001d0: d03c 45bb 1c8a ef3b 8f6f 8a3b 1aac 5eb9
000001e0: aaab 083a 52d5 5cb9 3d75 d439 177f 1b3a
000001f0: e52c 013a d730 0c38 1672 3bb9 43f4 f9b8
00000200: 53df d0b8 6197 333b 8e2e 4738 aa27 693a
00000210: e349 3c3b 18d9 bb39 88d9 0e3c 02ec 1337
00000220: 6645 40b9 9591 183b cbec dd3a 3970 fe3b
00000230: f52a 8bb9 842d 8d3a 2db9 6139 8e99 1938
00000240: 8015 4039 b0cb 273b 93ac d03b 9185 173b
00000250: a8e9 473b 26ab 253b 248c f1b6 cd62 073a
00000260: 347a de3a d026 0d3b 47c9 7fba 0f09 0eb8
00000270: 9420 793b f164 ed3b 3713 dd3b ba0b 4a3b
00000280: b962 22b9 e649 933a d636 273b 29b4 223a
00000290: c9f2 5639 6c3c 863c 847b 363c d8a1 113d
000002a0: 1770 393b 0730 383b c629 433c 1688 a03c
000002b0: b4b9 063d 4066 923b 319b 633b 4037 b7bb
000002c0: 43b8 4c3c 4733 803b 1a54 dd3b 2549 5d3b
000002d0: 401c 8cbb 9904 e4bb 463a 203b d896 ed3b
000002e0: 4b2b e53a 41d4 3d3d 36ee a33c 4bb4 19bc
000002f0: 884b aa3b 0866 9539 83e9 2e3c aa92 283c
00000300: f031 9cbb a0e8 0a3b 5941 cc3a 07cb 6f3a
00000310: 203b c8ba a8c0 28ba c1d2 173a 9a10 373a
00000320: 05ff d2ba 43ab 5339 95b0 623a d921 ddba
00000330: 3cb0 203b b2bc 89b7 8f0d 5a38 6dce abba
00000340: f6ad ceba ce13 043a fbd4 953a c3d5 d83a
00000350: 90c2 1fba f593 e53a 3590 5739 e89c 063b
00000360: 5605 a139 d2f2 8239 8dec c33b b637 e63a
00000370: 279c b5ba ecd3 1fba 2463 093b 10bb 033b
00000380: 3adc 2e3b 0100 0080 0100 0080 0100 0000
00000390: c29c 018b bcdc 058b 0100 0080 0100 0080
000003a0: 0100 0080 0100 0000 0100 0000 0100 0080
000003b0: 0100 0080 0100 0080 0100 0000 0100 0080
000003c0: 0100 0080 0100 0000 fd07 0000 0100 0000
000003d0: 0100 0000 0100 0000 012d 5492 b100 0000
000003e0: 0100 0000 0100 0000 5f2e fbb6 705b 713a
000003f0: 4bfb 1e3a 5abe bc3a e6c2 96bb 2b4f 4637

momentum_buffer f4 [20]
0.052761286 -0.05468714 -0.067128405 0.072583884 0.0018294659 0.05219826 -0.013884969 -0.08241656
0.04603438 0.074137166 -0.02067617 0.018252475 0.06616767 -0.008174811 -0.029806685 -0.08261022
0.025561644 0.07040918 -0.028118353 -0.024881221
00000000: 381c 583d 9fff 5fbd 9e7a 89bd dca6 943d
00000010: b0ca ef3a d8cd 553d c87d 63bc 03ca a8bd
00000020: 8c8e 3c3d 3ad5 973d 1261 a9bc 3786 953c
00000030: ea82 873d a4ef 05bc 262d f4bc 8c2f a9bd
00000040: a766 d13c b032 903d 7658 e6bc b4d3 cbbc

momentum_buffer f4 [50, 320]
0.00041566545 0.0029411053 0.00089240196 -6.0113493e-05 0.0023539974 -2.2746904e-07 -2.7157888e-05 0.0014670267
0.0028853957 -4.1987183e-05 -1.0035369e-07 -0.00016729724 -1.9991248e-05 -1.7310531e-06 0.0008127456 -0.0013706937
-1.9324623e-05 -2.2719012e-06 -0.000111197936 -0.00087802956 -3.7631824e-07 -9.738205e-05 -0.0007801661 0.00039048467
-0.000111304005 -0.0006854379 -0.00038776122 -2.4499444e-05 -0.00014173603 -0.00245714 -0.0004113767 3.7490972e-05
-0.00041825383 -0.0036004372 -0.00020879509 -6.1203944e-05 -0.00012266793 -6.0267226e-05 -9.981216e-05 0.00067845837
-6.609849e-05 0.0002737109 0.00012194408 -1.1549358e-06 -4.8282254e-06 4.597048e-08 -5.7848752e-05 -3.0568888e-05
-0.0015721086 -0.003957505 -2.6156715e-05 -3.348084e-05 -0.0022096394 -0.004037389 -0.00028172508 -0.0003072084
-0.0019750833 -0.0006947134 -0.000107397515 -0.0009299723 -0.0047921366 -0.001829234 -0.0014068952 -0.0015420065
-0.0040773465 -0.00010794713 -0.00012523815 0.00054939196 -0.0033934629 -0.0041094073 -0.000111750465 1.836486e-06
-0.0021069925 -0.011902494 -0.0031514834 -0.000350351 -0.004684236 -0.0024816594 -0.00076347945 -0.00046907703
0.00053286226 -0.00044702587 -7.515133e-06 -6.601622e-06 -0.00038470762 -9.431334e-05 0.0006663442 -3.920325e-06
-0.00014576432 0.0010033725 0.00055361644 2.540111e-06 0.0016587677 -3.639819e-06 0.00033428802 0.0001298272
0.00043928684 0.0040362068 0.0013884975 0.00028359925 0.0004323008 -2.7339047e-05 -1.0570995e-07 0.0023086593
0.002404848 0.0016759799 0.001344369 -5.083938e-07 -1.3166839e-07 -0.0005820636 -2.13195e-06 -7.843216e-05
-0.0015685563 -6.8085035e-05 -0.0006270922 -1.9033329e-06 -0.00038401212 -0.00011897023 -3.0889884e-09 -1.8968872e-07
-0.0002216837 4.647244e-05 -5.268894e-08 3.0365186e-06 -7.540806e-07 -6.5730026e-05 1.0552877e-06 -1.0833591e-05
-0.00012865219 -0.00012650005 -0.00020904292 -0.00031561832 0.0017385669 -9.420274e-05 0.0002179748 -1.2026518e-06
-0.00016839772 -0.00012165612 -0.00018781495 -0.00040362802 -0.00012597651 -3.0650517e-05 9.150773e-06 -9.439264e-05
-0.0035373438 -0.00767103 -0.0026988115 -3.5268974e-07 -0.00016605212 -0.003461182 -0.0034385363 -0.00011858758
-0.0013923582 -0.00015609302 -8.30648e-05 -0.000107173444 -8.300832e-05 7.2379307e-06 1.9315509e-07 -6.9113975e-07
-0.00052794465 -2.423547e-06 -6.822226e-06 -0.0011925425 -3.114884e-05 -0.0006719242 -0.00014790651 -0.003339777
-0.0059343264 -0.0051234793 0.0008335632 -0.0011234555 -0.006435763 -0.001199459 0.00020363185 -0.0032458364
0.00029282752 -4.501125e-06 0.0005677133 0.00048548865 -3.9267965e-05 -0.0016308047 -0.0049499646 -0.0029246109
-3.371645e-05 -0.0006361367 -0.005842256 -0.003188313 -0.0015074047 -0.0020455315 -0.0013120013 -0.00020440096
0.003968394 0.0016088585 -0.0009908807 -0.0005731454 -1.0328097e-06 -5.7552068e-05 0.001805065 0.0011635169
0.0005627264 -1.9464293e-05 -5.673862e-07 -1.9539895e-05 -7.7736746e-05 -0.00015965855 -6.980102e-07 4.521545e-06
-0.0015171334 -0.0002991479 -4.7760335e-05 -5.0756007e-06 -0.00027156228 -0.00010595622 -0.0004723322 -0.00017337484
4.7039593e-05 0.0010085832 1.9710606e-05 -0.0005166931 -0.00040663403 -6.524368e-05 -7.2523985e-06 -0.00019529648
6.2646695e-06 -6.7427663e-07 -7.221739e-06 0.0012289162 -0.0010959086 -4.080699e-07 -9.8380086e-05 -0.0030174274
-0.00012525416 -0.00049659394 -0.0016179912 -0.0020417445 -0.0013427818 -0.0029861585 -0.0012262856 -0.0013113071
2.2533746e-05 -0.0021265822 1.7110464e-05 -0.0006225794 4.0543367e-07 1.2214132e-05 -0.0025701816 -0.0047890656
-0.00015751392 -0.0024998628 -0.0089770155 -0.0036200907 -0.0009927995 -0.006321603 -0.0075649587 -0.0011368652
00000000: aced d939 8fbf 403b 15f0 693a 5f22 7cb8
00000010: 8645 1a3b 373e 74b4 1fd1 e3b7 3f49 c03a
00000020: e818 3d3b 651b 30b8 0682 d7b3 836c 2fb9
00000030: e1b2 a7b7 8856 e8b5 6f0e 553a d9a8 b3ba
00000040: 501b a2b7 f776 18b6 f032 e9b8 912b 66ba
00000050: c908 cab4 9739 ccb8 1084 4cba f7b9 cc39
00000060: e26b e9b8 f5ae 33ba 6e4c cbb9 2884 cdb7
00000070: fa9e 14b9 f807 21bb 0cae d7b9 a03f 1d38
00000080: 1449 dbb9 50f5 6bbb 01f0 5ab9 9e5a 80b8
00000090: 6ca0 00b9 71c7 7cb8 3f52 d1b8 92da 313a
000000a0: 5b9e 8ab8 db80 8f39 3bbc ff38 4b03 9bb5
000000b0: 2402 a2b6 1471 4533 a0a2 72b8 1837 00b8
000000c0: 360f ceba f5ad 81bb 1e6b dbb7 c76d 0cb8
000000d0: 99cf 10bb 134c 84bb 80b4 93b9 d010 a1b9
000000e0: 6670 01bb 6d1d 36ba 9a3a e1b8 62c9 73ba
000000f0: 5b07 9dbb e8c2 efba 9267 b8ba 271d caba
00000100: 439b 85bb ad61 e2b8 5c52 03b9 1205 103a
00000110: dc64 5ebb 35a8 86bb 935b eab8 2e7d f635
00000120: 7815 0abb ae02 43bc 1e89 4ebb 51af b7b9
00000130: 387e 99bb 56a3 22bb 3d24 48ba 74ee f5b9
00000140: c8af 0b3a cc5e eab9 802a fcb6 8083 ddb6
00000150: 95b2 c9b9 17ca c5b8 9aad 2e3a 568b 83b6
00000160: 50d8 18b9 9883 833a 9220 113a c676 2a36
00000170: 026b d93a 9d43 74b6 6143 af39 3922 0839
00000180: 1550 e639 2842 843b 3ffe b53a 0cb0 9439
00000190: 6ea6 e239 2856 e5b7 a902 e3b3 e04c 173b
000001a0: a89a 1d3b 8eac db3a 8a35 b03a 8e78 08b5
000001b0: bb60 0db4 a195 18ba 9f12 0fb6 f27b a4b8
000001c0: 0498 cdba e0c8 8eb8 7263 24ba 0576 ffb5
000001d0: 3c55 c9b9 a87f f9b8 0f46 54b1 3dad 4bb4
000001e0: c473 68b9 67eb 4238 1a4c 62b3 fec6 4b36
000001f0: 066c 4ab5 8ad8 89b8 69a3 8d35 ebc1 35b7
00000200: cfe6 06b9 19a5 04b9 8832 5bb9 9379 a5b9
00000210: a0e0 e33a b68e c5b8 2a90 6439 cd6a a1b5
00000220: eb93 30b9 a221 ffb8 31f0 44b9 099e d3b9
00000230: 9018 04b9 be8e 00b8 4586 1937 aaf4 c5b8
00000240: c8d2 67bb 435d fbbb 8bde 30bb 4f59 bdb4
00000250: 471e 2eb9 ffd4 62bb 1159 61bb 39b2 f8b8
00000260: ca7f b6ba e7ac 23b9 1333 aeb8 4ec2 e0b8
00000270: c114 aeb8 5add f236 1166 4f34 c386 39b5
00000280: c465 0aba 38a4 22b6 7aea e4b6 164f 9cba
00000290: d0a5 02b8 1224 30ba 5a17 1bb9 29e0 5abb
000002a0: bd74 c2bb dce2 a7bb 7b83 5a3a e940 93ba
000002b0: 18e3 d2bb 2a37 9dba 0286 5539 19b8 54bb
000002c0: a586 9939 5f08 97b6 98d2 143a 2f89 fe39
000002d0: a8b3 24b8 bac0 d5ba 5033 a2bb d4aa 3fbb
000002e0: c36a 0db8 69c2 26ba 6570 bfbb 04f3 50bb
000002f0: 1c94 c5ba 530e 06bb 75f7 abba 7754 56b9
00000300: 4d09 823b 55e0 d23a 70e0 81ba 233f 16ba
00000310: 129f 8ab5 1064 71b8 ee97 ec3a 2681 983a
00000320: ee83 133a 4047 a3b7 7c4e 18b5 9be9 a3b7
00000330: 9906 a3b8 046a 27b9 e55e 3bb5 c7b7 9736
00000340: 8dda c6ba f4d6 9cb9 4552 48b8 144f aab6
00000350: 7960 8eb9 d034 deb8 5ba3 f7b9 f4cb 35b9
00000360: 614c 4538 7032 843a 3458 a537 b072 07ba
00000370: 7f31 d5b9 6fd3 88b8 a159 f3b6 80c8 4cb9
00000380: 1a35 d236 f0ff 34b5 4452 f2b6 9613 a13a
00000390: 97a4 8fba b314 dbb4 6851 ceb8 08c0 45bb
000003a0: a856 03b9 db2d 02ba c712 d4ba cace 05bb
000003b0: 4800 b0ba 6db3 43bb 51bb a0ba 2ae0 abba
000003c0: da06 bd37 215e 0bbb 7188 8f37 9934 23ba
000003d0: 61aa d934 4ceb 4c37 7e70 28bb 98ed 9cbb
000003e0: 522a 25b9 bdd4 23bb 5514 13bc 0b3f 6dbb
000003f0: d320 82ba 7325 cfbb 79e3 f7bb de02 95ba

momentum_buffer f4 [50]
-0.0035850941 -0.004077201 -0.006738401 0.0010784408 0.0002164059 0.0021961725 -0.0016557013 0.0060427273
-0.015886536 -0.0048888824 0.0060182307 0.022458622 0.009291737 -0.0017295175 -0.0055075902 0.00035038742
0.015310706 -0.013458254 -0.0033736874 -0.024652291 -0.011049736 0.0058292556 -0.0028755546 -0.0018175868
-0.004019033 -0.01555215 -0.019761711 -0.020317063 -0.0020546415 -9.459631e-05 -0.021493904 0.0028678374
-0.009315387 -0.04542783 -0.0077756196 -0.0095398035 0.02741325 -0.010253999 0.015372138 -0.009185066
-0.002233818 0.0048956284 -0.0019006927 -0.013102872 0.043420605 0.011808432 -0.020557258 -0.006288098
-0.019955419 0.007568732
00000000: e6f3 6abb 0a9a 85bb cecd dcbb 785a 8d3a
00000010: 04eb 6239 a9ed 0f3b 1e04 d9ba 1202 c63b
00000020: 7b24 82bc eb32 a0bb 9434 c53b 25fb b73c
00000030: 5f3c 183c fab0 e2ba 0479 b4bb 34b4 b739
00000040: c1d9 7a3c 0280 5cbc 1519 5dbb 9af3 c9bc
00000050: f409 35bc 5703 bf3b cd73 3cbb 183c eeba
00000060: 18b2 83bb 72ce 7ebc 50e3 a1bc f86f a6bc
00000070: 2aa7 06bb 0262 c6b8 fc13 b0bc 54f2 3b3b
00000080: 919f 18bc 8812 3abd a0ca febb d64c 1cbc
00000090: c191 e03c 6400 28bc 6bdb 7b3c f67c 16bc
000000a0: 3f65 12bb 826b a03b aa20 f9ba 6ead 56bc
000000b0: ced9 313d 2778 413c b267 a8bc 640c cebb
000000c0: 8c79 a3bc 2003 f83b
