checkpoints/task-005.pth (torch, 179983 bytes, 16 tensors)

conv1.weight f4 [10, 1, 5, 5]
00000000: e321 d3be 8f48 5c3f aef0 123f 2899 bfbc
00000010: 54be 58bf 2e5d 253e a69d 6a3e 8ca9 913e
00000020: ab80 35bd 1982 bbbf bdcf b93e 980b 833e
00000030: 2a39 4f3c 573b afbe f746 5dbf 542a f43e
00000040: 7947 0cbe b59c b4be afb9 60bf 1905 30bf
00000050: ff49 eabe 85cc 38bf 8750 2cbf 3912 27bf
00000060: 5b2d 34bf ee4a d0be 978e 2dbf 0275 78be
00000070: 723e 6fbc e1cd 92bd 03e3 17bf 6db5 45bf
00000080: 3b9f febe 18a2 dc3e 34e6 853b a223 273e
00000090: 2f85 523e 6149 913f 67ea 1cbe 8578 a6bf
000000a0: ef7e 633f 685e 5e3f d5c6 74bd 716d 3cbd
000000b0: 8a24 97bf 6179 31bf ad1d 91bf 72db 97bf
000000c0: 379b 87bf 6285 99be f176 cdbe 4cce 73bf
000000d0: 7323 30bf d52d dbbe 42d8 2b3c 7bb1 903e
000000e0: a3b9 09be ee5e ddbe 05f1 e9be 226b 8bbe
000000f0: 7aa9 843e 11b2 933e 5be1 8cbe efdb dabe
00000100: ca3c 1cbe 8d6a e73e 5de4 983e 4ae9 c0be
00000110: 87cd 25bf 1a37 a2bd 4de8 613f ad00 3a3e
00000120: cddf 2dbf 9c4a 9dbe 8e7a 023f e5e1 4dbf
00000130: 46e4 2dbf dd95 30bd 5c1d ca3e 01cb f03d
00000140: 3a0d f3be bc90 d0be e833 ac3e 204b 8b3f
00000150: 728f 96be c527 36bf ba9e 33bf e40a 70bd
00000160: 9be8 913f 3e0e d1be 95d3 dfbe 317b 01bf
00000170: 1e29 2dbf a287 5d3f 484b 893e 833b 663f
00000180: f258 a13d b004 52be 22de 023f c7d4 433f
00000190: 4766 61be 5491 e53d cbf9 8fbe 9395 a73e
000001a0: 0636 7a3f 600b 6fbf 791b 71bf 05ab acbf
000001b0: 9db3 babf 926f 1a3e b0a1 703d 869e 003f
000001c0: 7eb5 0ebe bd47 52bf b3d7 a9bf 257c 083e
000001d0: b844 333f c987 be3d d89e 67bf b375 52be
000001e0: 6c06 58be a51a dcbe de87 a63f 2c6a 763f
000001f0: 971e 2f3f 7db5 f6be f224 05bf 0e15 aa3e
00000200: df1e 693f 44ee 3e3f 07a0 d6be 1d9b 1dbf
00000210: 8ce3 aabe 8a32 1cbe eae9 593e e1d5 32bf
00000220: 107d cebe 6ef3 00bf d177 cabe bc67 0ebe
00000230: f57e 1dbf b5a3 f6be 7b7e 55bf 87a0 69bf
00000240: e89a 3fbf f63d a0be f658 51be 0cc9 8dbd
00000250: d037 cd3c 6b8d 453e 9164 aa3c b82e aebe
00000260: 5e25 a5be 0b07 b13e 4e34 303f e66e 9a3e
00000270: 0b8c 733f 9424 1f3f fa5f 02be c42d af3e
00000280: 1902 49be 37c8 3e3e 5ccf f0bd 3fa7 033f
00000290: 0388 19bf 3fc5 a4bf 5f05 713e 60b3 1f3f
000002a0: 80bb 80be 0793 86bf ad91 b5bf b875 c8bf
000002b0: 4bde e2bf 0013 ccbf e8dd f83e 4fdf 2f3e
000002c0: d5e2 0dbf 01dc 4f3e 4e55 a1be 4c96 08bf
000002d0: 9222 ba3d 73b6 05bf ec65 32bf c908 c5bf
000002e0: bdd5 17bf 713f 5d3e af63 793f 099b adbe
000002f0: bc25 34bf c1f1 043f d64b 8fbf 66b2 823f
00000300: fa7e 51be 7d8f 4ebf 0ff7 32be fc38 3fbf
00000310: 1fe7 373e ce54 2f3e 1793 913e cf8a 2a3e
00000320: 40ba 3d3c c0e3 89be 2d4b 2c3e 6a71 04bf
00000330: c33e 85bf c21f cc3d 0c85 b0bc b294 87bf
00000340: eb2a 12bf 42b0 95be 6bbd c23d efb6 91bf
00000350: 7476 2cbf e4de 7fbc db86 51be c588 e5be
00000360: f327 5bbf f8d9 b83d 2aaa b6be 9bea 243f
00000370: 0713 aabf 21eb dcbe 9438 2cbe 026d aebd
00000380: 0376 893f cfe6 9fbd 26c6 833c ec5c 06bd
00000390: 3390 0cbd d294 513d 7d11 05bd 63c2 43be
000003a0: 742f 1fbe 3055 3abe 851b 9b3d c38f 383e
000003b0: 36c2 f5bd 344a 4d3e 5ada c9bc 9a1c 713d
000003c0: 1e00 cabd 8469 0abc fe82 1b3d 85a3 b4bd
000003d0: 28be bc3c f6e8 c53d 7589 23be 4973 a73c
000003e0: 3f84 f4bc 7f03 98bd
-0.4123679 0.86048216 0.573985 -0.02338846 -0.8466542 0.16148826 0.229117 0.28449667
-0.04431216 -1.4649078 0.36291304 0.25594783 0.012647906 -0.3422496 -0.8643641 0.47688544
-0.1369914 -0.35275808 -0.8778333 -0.6875778 -0.4575958 -0.7218707 -0.67310375 -0.6526218
-0.70381707 -0.40682167 -0.677957 -0.24263385 -0.0146022905 -0.071681745 -0.5933077 -0.7722996
-0.49730858 0.43092418 0.0040862802 0.16322187 0.20558618 1.1350518 -0.15323792 -1.300553
0.8886556 0.868628 -0.059759934 -0.04600281 -1.1808026 -0.69325835 -1.1337181 -1.1863844
-1.0594243 -0.29984576 -0.40129808 -0.9523666 -0.6880409 -0.42808405 0.010488572 0.28260407
-0.13449721 -0.43236488 -0.45691696 -0.27230173 0.2591055 0.2884679 -0.27515683 -0.4274592
-0.15257564 0.4519848 0.29861727 -0.37677985 -0.64766735 -0.07920666 0.8824509 0.1816432
-0.6791962 -0.30720985 0.50968254 -0.8042281 -0.6792644 -0.04311167 0.39475524 0.1175747
-0.4747103 -0.40735424 0.3363335 1.0882301 -0.29406315 -0.71154433 -0.7016407 -0.058604136
1.139911 -0.40831178 -0.43716112 -0.505786 -0.67640865 0.86535084 0.26815248 0.8993456
0.07878293 -0.205096 0.511202 0.7649655 -0.22011672 0.1120936 -0.28120264 0.32731304
0.97738683 -0.9337673 -0.94182545 -1.3489691 -1.4586064 0.15081623 0.058747947 0.5024189
-0.13936421 -0.82140714 -1.3268951 0.13328607 0.7002673 0.09303243 -0.9047675 -0.20552711
-0.210962 -0.42989078 1.3010213 0.96255755 0.6840605 -0.4818534 -0.520095 0.33219188
0.9106273 0.74582314 -0.41918966 -0.6156481 -0.3337673 -0.15253654 0.21280637 -0.69857603
-0.4032979 -0.50371444 -0.39544538 -0.13906759 -0.61521846 -0.48171774 -0.8339612 -0.9126057
-0.74845743 -0.31297272 -0.20444092 -0.06923112 0.025051028 0.19292228 0.020799907 -0.3402002
-0.3225507 0.34575686 0.6882981 0.30162734 0.95135564 0.6216519 -0.12731925 0.34214604
-0.19629706 0.18631063 -0.11758301 0.5142707 -0.5997316 -1.2872695 0.23537205 0.6238308
-0.2514305 -1.0513619 -1.4185082 -1.5660925 -1.7724088 -1.5943298 0.486068 0.17175029
-0.55424243 0.20298769 -0.31510395 -0.53354335 0.09088625 -0.5223152 -0.6968677 -1.5393306
-0.59310514 0.21606232 0.9741773 -0.33907345 -0.7037008 0.5193139 -1.1195018 1.0210693
-0.20458594 -0.80687696 -0.17477058 -0.74696326 0.1795926 0.17122194 0.28432533 0.16654514
0.01158005 -0.26931572 0.16825552 -0.51735556 -1.0409778 0.09966995 -0.021547817 -1.0592253
-0.5709674 -0.29236037 0.09508785 -1.1383952 -0.67368245 -0.015617106 -0.204616 -0.4483091
-0.8560783 0.09025949 -0.356767 0.6442048 -1.3287057 -0.4314814 -0.16818458 -0.08516885
1.0739139 -0.07807695 0.016085695 -0.03280346 -0.034317207 0.051167317 -0.03248738 -0.19117121
-0.15545446 -0.18196559 0.07573608 0.1802359 -0.119999334 0.20047837 -0.024640251 0.058865167
-0.098633036 -0.008448008 0.03796672 -0.088202514 0.023039892 0.096635744 -0.15970404 0.020440714
-0.029848216 -0.07422542

conv1.bias f4 [10]
00000000: c27d 5bbf 75f0 eabe 29d2 e6be d7db 21c0
00000010: eb44 7abf ba27 10bf 86f2 2bbf 3925 0ac0
00000020: 4d35 08bf 288d 4ebe
-0.85738766 -0.4588658 -0.45082214 -2.529043 -0.9776141 -0.5631062 -0.67166936 -2.158522
-0.5320633 -0.20171034

conv2.weight f4 [20, 10, 5, 5]
00000000: fb8a 673e f2fb bd3e 95a4 c13e 9c1b ca3d
00000010: 383a b6be 9ef0 aebc b965 52be 4ddd f0be
00000020: b1ea b4be c827 03bd 9da1 d5be 69c6 acbe
00000030: 31d4 a53d b494 31be 0185 6dbe d2b3 06bf
00000040: 9224 5f3c df32 953e 5bf5 723e aefb e5bc
00000050: d244 9bbe e78c 8dbe 366c febd 1257 133e
00000060: 80d1 2a3e 91f0 fa3c a691 c1bb 6b05 8f3e
00000070: 230d 523e 68ee 0cbe d63d e239 6b95 0fbf
00000080: 6045 d8be 1925 3dbe dda5 5ebe c082 803d
00000090: acf7 9dbe b299 6cbe 2b98 60be 0bf7 25be
000000a0: 7d18 183e b0ad fc3e 0c14 b7bb 45c2 4a3c
000000b0: 50d4 aa3e 4367 003e e298 b63d 0c4a 823d
000000c0: 00ab f6bd 70c9 d53c 0faa b73d c34d 1fbb
000000d0: 88d1 03bd b3ce 2cbd 9c81 5ebe 86a8 aebc
000000e0: 5a6c 75bc 45c0 3abc c31e 713e 05fd bebd
000000f0: de09 893e d3c1 5b3e 7c73 94bd a422 4f3e
00000100: 7338 c83d 13f2 22bd 2122 fc3c 8a15 9a3d
00000110: d060 2d3d 3a59 a23e f044 58bb a66c e0bd
00000120: 4c61 703c 2fde 6cbd 1ba5 26bd 040d cc3e
00000130: 2537 4e3e 9a86 c93e b6cd ef3d e633 f9bc
00000140: 1ff8 c8be 50a6 02bf 8ca7 0dbe 5373 8b3d
00000150: 18fe a1be 0eb0 2cbf c09e 9dbe 2606 98bd
00000160: 3bbc 77be 0df5 4fbe 8f90 02be 50c6 c6be
00000170: ad81 03bf f5ef fbbd 3d09 b8bd 3eb5 bfbd
00000180: 728c 90bd ab7e 12bd 4a0a a7be 3e9b 8abe
00000190: ca9f cebe 8918 2fbf 44d1 dbbe 6820 423c
000001a0: 1cdd ce3d 58a9 06bf eb36 d1be 2fff 603e
000001b0: 0489 39be af99 3abe 0c03 05bf bc1f d93e
000001c0: c950 a33e 71be 543c ea4e 463d 5d96 8fbd
000001d0: 144d 933e 51f7 9a3c 2986 e33d 5d53 0a3f
000001e0: 051b 0cbf d6f8 10bf 8d39 10be a7e7 16be
000001f0: c8d6 d3bd d3b6 2ebf 8de5 23be 937a c73d
00000200: b740 6ebe 4e5f c23e cda8 06bf ec24 cdbd
00000210: bf94 463e 38a0 bb3e 5177 b73e 9ab6 2ebf
00000220: 3dc7 c93d 6c51 0c3f 5a01 95be d157 58bd
00000230: f2bd 20be 8b25 d3be a28d ffbe a533 edbe
00000240: 7a9d 80be cb8f 71be 388d c13d 0171 543d
00000250: 0faa 37bd edad 453e eaec fabe 107a 8dbe
00000260: 64b3 cf3c 08e2 5a3e a614 243f 54c3 66be
00000270: 5cf6 b63b 242c 99ba 7fcf fe3e aefd 11be
00000280: 67c6 08bf 749d c3be 8010 04bc 9adf d13d
00000290: c3c0 c6be 969e 2b3d 7617 683d aa61 00be
000002a0: ef07 c23d f519 8ebe 6786 ae3e 905f 773e
000002b0: e1d5 793e a5a7 683e cc39 22be 03f3 643c
000002c0: dedd a0be 29ef 0c3e c39f c83d d7a6 e4be
000002d0: 761a 00be bd78 c6bd 77b9 1c3f a548 8abe
000002e0: fad3 a5be 991c a2bd eb00 cfbd 8453 d9be
000002f0: 76b9 42be 3efa 90bd 15b9 8b3e 7309 df3c
00000300: 4a92 c0be 853a bebd ba73 363c cf6d b3bd
00000310: 4ff3 543e 38f1 e53e 1426 c63d 795b ce3d
00000320: 7830 32bf 9b0f 913d 4eb3 103f ac53 a53e
00000330: b9ab c03d 8e8c 16bf 906c b2be 043e aabe
00000340: 2060 97be 4a64 fbbe 5a8e afbe 160f f1be
00000350: fb79 2ebe 0881 b83e 8ea5 a8bc cfaf b8bd
00000360: 48f0 ad3d d736 c63e 510e d53e ae13 923e
00000370: 372c 403e 61d0 5dbe 4b4c 97be a68b d23b
00000380: d488 ddbc 91bd 31bd 97b8 003c 441c 4d3d
00000390: d9a6 0fbd 2d34 d6bc a469 8abb c3bf 913c
000003a0: dc08 6abd 4a43 773d ee34 b53c 406c 173d
000003b0: feeb dc3c eb85 5bbd 3a8b 41bd 1613 403d
000003c0: 82f3 59bd ab65 303d f206 b9bc 8d08 5d3d
000003d0: c0dd 073a d370 70bd 6e90 d53b 1245 7e3d
000003e0: 65ef 05bd 8a21 fcbc fb2e 083e 781e cfbe
000003f0: 151b 04bf 03e6 2f3d 4cba 153e 3d8a 1ebf
0.2261161 0.37106282 0.3782088 0.09868547 -0.35591292 -0.02135497 -0.20546617 -0.4704384
-0.35335305 -0.03202036 -0.41724864 -0.33745125 0.08097113 -0.17341882 -0.23195268 -0.52618134
0.013619559 0.29140374 0.23726408 -0.028074112 -0.30325943 -0.27646562 -0.12422983 0.14388683
0.1668148 0.03063229 -0.005907255 0.2793382 0.20512824 -0.1376282 0.0004315215 -0.5608737
-0.4224043 -0.18471183 -0.2174296 0.062749386 -0.3085302 -0.23105505 -0.21933047 -0.1620752
0.14853092 0.49351263 -0.0055871066 0.012375419 0.33365107 0.12539391 0.08915879 0.063617796
-0.120443344 0.02609703 0.08967983 -0.0024307824 -0.032182246 -0.04218931 -0.2172913 -0.021320593
-0.014979446 -0.01139838 0.23546891 -0.093256034 0.2676534 0.21460657 -0.072485894 0.20228058
0.09776392 -0.03978164 0.030777993 0.075236395 0.042328656 0.317087 -0.0033000074 -0.10958223
0.014671635 -0.05782908 -0.0406848 0.3985368 0.20138223 0.39360505 0.11709158 -0.030420255
-0.392518 -0.5103502 -0.13833445 0.06809106 -0.3163917 -0.6745614 -0.3078518 -0.07423048
-0.24192898 -0.20308323 -0.12750457 -0.38823175 -0.51369745 -0.123016275 -0.08986137 -0.09360741
-0.07058038 -0.03576533 -0.32625037 -0.27071565 -0.40356284 -0.6839681 -0.42933095 0.011848547
0.10100767 -0.5260215 -0.40862212 0.21972345 -0.18118674 -0.18222688 -0.51957774 0.42407024
0.31897572 0.012984858 0.048415102 -0.070111014 0.28769743 0.018916758 0.111095734 0.5403345
-0.5472873 -0.56629694 -0.14084454 -0.14736806 -0.10343701 -0.6824772 -0.16005535 0.09740176
-0.23266874 0.37963337 -0.5260132 -0.10016808 0.1939268 0.36645675 0.3583322 -0.6824738
0.09852455 0.5481174 -0.29102594 -0.052818123 -0.15697458 -0.4123958 -0.49912745 -0.46328464
-0.25120145 -0.23590009 0.094507635 0.05186558 -0.044839915 0.19304629 -0.49008876 -0.2763219
0.025354095 0.21375287 0.64094007 -0.2253545 0.0055835675 -0.0011686129 0.49767682 -0.14256927
-0.5342774 -0.38206065 -0.0080605745 0.10247727 -0.3881894 0.041899286 0.056663 -0.12537256
0.094741695 -0.2775418 0.34086916 0.24157548 0.24397995 0.22720201 -0.1584236 0.013973954
-0.3141927 0.13763107 0.09796097 -0.4465854 -0.12510094 -0.09690998 0.61220497 -0.27008548
-0.32388288 -0.07915611 -0.10107597 -0.4244653 -0.1901606 -0.0707898 0.27289644 0.027226185
-0.3761161 -0.092885055 0.01113599 -0.08761179 0.2079594 0.44910598 0.096752316 0.10076041
-0.6960521 0.07083055 0.565236 0.322904 0.094077535 -0.5880822 -0.34848452 -0.3325044
-0.29565525 -0.49099952 -0.34288293 -0.47081822 -0.1703872 0.36035943 -0.020586755 -0.09017908
0.08493096 0.38713714 0.41612485 0.2853064 0.18766867 -0.21661521 -0.29550394 0.006425339
-0.027042784 -0.043393675 0.00785651 0.050075784 -0.035071228 -0.026147926 -0.004224019 0.017791634
-0.057137355 0.060366906 0.022119965 0.03696847 0.026967999 -0.05359451 -0.047251917 0.0468932
-0.053210743 0.043065708 -0.02258632 0.053963233 0.00051828846 -0.058701348 0.0065174615 0.06207759
-0.032699008 -0.030777711 0.13299172 -0.40452933 -0.51603824 0.042943966 0.14621848 -0.61929685

conv2.bias f4 [20]
00000000: c30a 8bbf f213 653e 227d 18bf cac5 12be
00000010: e9fe 643b 75ea 86be af0b 20bf 3732 72be
00000020: ce43 cfbd 13bb 8dbe 5c8d c83d 0b4e 23be
00000030: 8015 f8be 2ec5 7bbe 2f96 96be 1c46 8b3e
00000040: e71b f2be 53f5 39be 1a8d fabd eb91 acbe
-1.0862659 0.2237089 -0.5956594 -0.14333263 0.0034941977 -0.26350752 -0.6251783 -0.23651968
-0.101203546 -0.2768179 0.09792587 -0.1594774 -0.48453903 -0.24586937 -0.29411456 0.27201927
-0.47286913 -0.1815999 -0.12233944 -0.33705077

fc1.weight f4 [50, 320]
00000000: 9d0d 003e c0eb b33d 7bc1 803e 861d 003e
00000010: 8b93 563e 1a54 91be de18 35be 16d4 0dbe
00000020: 260e 10be d88e f1be 66bb 34be 0637 943d
00000030: 6792 b7be 95bc 84be 8707 ddbd 14c0 26be
00000040: 9e44 65be 5d92 dabd aa3a 97bc 2812 773d
00000050: 5a2c a8be 2a09 af3d 8689 103c 96d6 ca3d
00000060: b154 3dbd df92 8c3e 163f a7be fcc1 95bd
00000070: 0845 e8bd d227 aabc c17c 0dbd 8eb7 f5bd
00000080: 45d0 19bd 565b 023e d09e dc3d 01db 1d3d
00000090: 4575 43bd a001 843e 1e81 743e 90dc 963d
000000a0: a20b e5be b7ea 193d f401 1b3e 49b1 853e
000000b0: 70c9 28be 1351 7ebd 380d a33d 2c89 ac3e
000000c0: c8c2 38bd 483f e03d d28a 30be 1a01 893d
000000d0: 4d78 aebe cef8 54be ca97 ae3d 108a 80be
000000e0: 5842 6c3e 1138 303e b328 50be 411d 81be
000000f0: d56a 803e de4c 933e dbac 86be e94e c5bb
00000100: eee2 e9bd 536d bfbe 08be 91be 2d1f d33d
00000110: 50e2 cfbc 9432 2c3e 97c6 6f3d 37b3 16be
00000120: 6bf2 a63e 2215 0f3e ca26 203c b200 5cbe
00000130: 4cc3 95bd 8a7f c83c e18d 983e 3fb9 9d3d
00000140: 9670 623c 2963 ec3d a13b ae3d 0a0d 2dbc
00000150: b162 7fbc fbd7 01be 19b3 f5bc 5485 493e
00000160: e1ba 743e 9710 933d 1e3c 3bbe 14fe f9bc
00000170: 58fd e8be 7d9e 9fbe 3f0f 5a3c e2f7 503e
00000180: eea0 053e 82af 84be 199d 3d3e e273 29be
00000190: aa20 9f3d 98f4 bcbd cb75 01be 83f5 0b3e
000001a0: f746 8d3e fc6f 0bbc b56f 7dbe 3fa8 5c3e
000001b0: cd84 01be c172 a9be 3dc3 45be 8bf6 f63d
000001c0: b1e9 fcbc 8b9a 9a3d 40d2 473e e148 4cbd
000001d0: 9fa2 bd3e f6c3 84be c26e 293d 8e5d 8f3d
000001e0: 500b d6be 4af2 bbbe fef8 afba 8b81 b33e
000001f0: f430 61be f5ff f6bd 7005 363e 0327 253d
00000200: c82d a53c b844 18bd ff58 54bd b576 11bd
00000210: 6b30 c63d d935 e53d 5c41 84bd eba3 66bc
00000220: 0bab b8bc ca39 48bd 923d 49bd fbef 593e
00000230: 73f0 663c 479a 12be def7 853d 03a7 6b3e
00000240: d1e9 2f3d b203 c6bc d4a8 2e3e b2ac d93d
00000250: cf7e 093f 00d6 d83d 2c8d aa3e 54ad 73be
00000260: 22e3 53be 0533 b4be a448 6cbe 64aa 88bd
00000270: 6760 eebd 7f6e b1be a01e 7fbe d641 553e
00000280: b8aa babe 3049 a3be 9dea 17be 0042 24be
00000290: 82d5 193e 9c2b bf3d 84e0 01be 1dd1 59be
000002a0: d9a0 303e b126 d9bd 8895 abbe 01af ff3d
000002b0: 34fb d93d c545 c0bd b11b 21be fee2 ad3e
000002c0: 291a 9b3d 9948 333e fd8d e8bd 9a70 50bd
000002d0: 65bd febe 49da 82be 8fa1 49bd 6cfb 6a3e
000002e0: 99b0 f73d d506 863e 7615 b3bd 9ef0 0abe
000002f0: 9701 ea3e 3bc4 803e 118a e2bd 504b 0fbe
00000300: db0e 163e 5109 043e 0c26 ca3d d6bb 83bd
00000310: 00fd 473d 8a1d 9f3e c7b9 5f3e f36c 8f3c
00000320: 1d93 bb3d aed9 5ebe 385e 593c 1b37 863e
00000330: 96be 03bf d384 73be 0546 8d3d d362 b33d
00000340: 1060 b8bc 3905 80bd c9b2 413d 7163 03be
00000350: 6c74 78be cd7e bf3d 5164 7f3d 0ad7 733e
00000360: 73a2 eebe 47cf 63be 5f38 5f3e da2e de3e
00000370: dd3d e73c c9a2 96bc 6179 88bd 5021 bc3d
00000380: 473c 7c3d 0d2c 59be ae91 1bbe 78b5 183d
00000390: 2664 d0be f010 1bbd 3918 c33d a9a1 963d
000003a0: d729 863e 04ad b13d 03b4 4abe f103 1abe
000003b0: 3855 263e 52ac 323e 9ba7 1f3e d488 903d
000003c0: f868 a0bd 9213 d63d 3b86 ebbd ea2b c2be
000003d0: 7414 d5be 94a2 82be f35c 133e fedf fcbd
000003e0: b251 fd3e 7c3b e2bd ff2b dd3d f5ee bcbe
000003f0: 8a00 c83d 98cd b4bc de13 be3e 21b3 6e3d
0.12505193 0.087852 0.25147614 0.12511262 0.2095472 -0.28384477 -0.17685267 -0.13850436
-0.14067897 -0.47179294 -0.17649612 0.072370574 -0.35853884 -0.25925127 -0.10792451 -0.1628421
-0.22389457 -0.10672448 -0.01846059 0.06032005 -0.32846338 0.0854667 0.008821851 0.0990421
-0.046223346 0.27455804 -0.32665318 -0.0731239 -0.11341292 -0.02077094 -0.034542803 -0.11997901
-0.037552137 0.12730154 0.107724786 0.038538937 -0.04771926 0.2578249 0.2387738 0.07366288
-0.44735438 0.037577357 0.15137464 0.2611182 -0.16483092 -0.062089037 0.07961506 0.33698404
-0.045107633 0.1094957 -0.17240456 0.06689663 -0.34076157 -0.20798036 0.08525045 -0.25105333
0.23072183 0.17208888 -0.20328026 -0.2521763 0.25081506 0.28769583 -0.26303753 -0.0060213697
-0.114202365 -0.37388095 -0.28465295 0.10308681 -0.025376469 0.16816169 0.058539 -0.14716803
0.32606825 0.13972905 0.009774873 -0.2148464 -0.073126405 0.024474878 0.29795745 0.077013485
0.013820788 0.11542351 0.08507467 -0.010562191 -0.015587495 -0.12680046 -0.029992627 0.19679767
0.23899414 0.07180899 -0.18284652 -0.030516662 -0.45505786 -0.31175604 0.013309299 0.2040706
0.13049671 -0.25915152 0.18516959 -0.16548112 0.07769902 -0.0922634 -0.1264259 0.13667874
0.27593204 -0.008510586 -0.24749644 0.21548556 -0.12648316 -0.33095363 -0.19312759 0.12058743
-0.030873151 0.07549008 0.19513798 -0.04987419 0.37038133 -0.25930756 0.041365393 0.07000266
-0.41805506 -0.3670829 -0.0013425646 0.3505977 -0.2199133 -0.12060539 0.17775512 0.040320408
0.020163432 -0.03717491 -0.051842686 -0.0355136 0.09677204 0.11191911 -0.06457779 -0.014077167
-0.022542497 -0.048883237 -0.049130984 0.21282952 0.0140954135 -0.14316665 0.065414175 0.23012929
0.042947594 -0.024171684 0.1705659 0.10628642 0.5370912 0.10587692 0.3331083 -0.23796588
-0.20692113 -0.35195175 -0.23074585 -0.066731244 -0.11639481 -0.34654614 -0.24914026 0.20825896
-0.36458373 -0.31891775 -0.14835592 -0.16040802 0.15022853 0.0933449 -0.12683302 -0.21271177
0.17248859 -0.10603083 -0.3351252 0.12484551 0.10643616 -0.093883075 -0.1573322 0.33962244
0.07573349 0.17508163 -0.11355207 -0.050888635 -0.49753872 -0.25557163 -0.04922634 0.22947472
0.1209423 0.26177087 -0.08744328 -0.1356835 0.45704338 0.25149712 -0.1106149 -0.13993573
0.14654104 0.12894179 0.09870538 -0.06432311 0.048825264 0.31077224 0.21848212 0.017508006
0.09158919 -0.21762726 0.013267092 0.26213917 -0.51462686 -0.23781137 0.06898121 0.087590836
-0.022506744 -0.06250996 0.047289643 -0.12830903 -0.24263161 0.09350357 0.06235153 0.238125
-0.46608314 -0.22247039 0.21798848 0.4339512 0.02822774 -0.018388169 -0.06663776 0.09186041
0.061580922 -0.2120821 -0.15192291 0.037282437 -0.40701407 -0.03785795 0.095261045 0.07355053
0.26203796 0.08675578 -0.19795232 -0.15040566 0.16243446 0.17448547 0.1559128 0.07057348
-0.07832521 0.104529515 -0.11500212 -0.3792413 -0.41617167 -0.25514662 0.14390926 -0.123474106
0.4947639 -0.11046502 0.10799407 -0.3690106 0.09765728 -0.022070691 0.37124532 0.0582763

fc1.bias f4 [50]
00000000: caac 403d 48f6 10be 4e9c 193e 5ea2 6fbe
00000010: ee86 803e 33f2 813d d439 4b3f 422a 043e
00000020: 51fb 423e dc40 e63d d749 e53d d38e bb3d
00000030: 1999 9c3e 3353 423f 402e 7abe 6f30 153f
00000040: 24ca b73e 686c d8bd 44d4 9cbe 6a92 fe3e
00000050: 5dca 89bc f4f2 bd3d d273 7e3f 6585 6bbe
00000060: eeed e0bd 2cdf fbbd b41c aa3e b0f4 693f
00000070: 9b68 f53d 6297 36be 1b60 573e 7029 7c3f
00000080: 03e2 42bd 333e 5bbe 9a57 163d 764c 4e3f
00000090: f763 513f a744 99be a455 df3e f861 323a
000000a0: cbd5 543f 7569 d23e 6cc7 773d 64a6 9ebd
000000b0: bcc7 ef3d beb0 9bbe cf80 393d 0f97 363e
000000c0: 75b0 463f 2978 a3be
0.047039784 -0.14156449 0.15001032 -0.23401782 0.25102943 0.06345024 0.79385114 0.12906745
0.19041182 0.1124284 0.111957245 0.09158101 0.30585554 0.759082 -0.24431705 0.5827703
0.3589641 -0.10567552 -0.30630696 0.4972108 -0.016820127 0.09274855 0.9939548 -0.23000105
-0.109828815 -0.12298426 0.33225024 0.9138899 0.119828425 -0.17831185 0.21032755 0.9850073
-0.047578823 -0.21410446 0.036704637 0.8058542 0.8179316 -0.2993519 0.43620026 0.00068047596
0.8313872 0.41096082 0.060492918 -0.0774658 0.11708018 -0.3040828 0.045288857 0.17831062
0.77613 -0.31927612

fc2.weight f4 [10, 50]
00000000: 7cc7 40be 1d17 44be 85fb b43e f7fd bbbe
00000010: 4487 e43e 7bcd 4fbe 88a2 853c 3560 7c3d
00000020: 6d7a ad3e b235 ef3e b53c d23d a874 0d3f
00000030: 58aa b63c 6e05 de3c dc8c 46be 73f6 e2be
00000040: 353e 11bc 3d23 d53e 7b87 2abd b28e b53e
00000050: 12c6 5d3e cc67 c53d c469 1dbe f53d d2be
00000060: 6345 14be 03d8 b43e a791 c53e defa d3be
00000070: d0f0 b8be 37fc 82be b801 4ebe 8c83 d43e
00000080: 7d77 953e 52e3 e4be d163 f0be 38b9 cfbe
00000090: 3f9d 79be a5a6 babd a700 62be 7f38 8abe
000000a0: 4a1b e9bd b306 a5bd e360 dcbe 179a 12bf
000000b0: 59c9 af3e 7600 4fbe bec6 5cbe 2a98 f4be
000000c0: ca42 80be a496 1bbd bcc4 3bbe 6aa9 31be
000000d0: 982e ac3d b433 32be 6381 ebbe 299b 7f3d
000000e0: 5787 023f 9960 f4be 0c42 c8be b0f1 b6be
000000f0: e3e5 04bf 72fd d8be c895 823e f9d0 f93e
00000100: 00f5 98be c763 c33e b43a 90be 3c03 bfbe
00000110: 0838 afbe 7b43 99be 01e6 5abe fc42 87be
00000120: 1a82 ba3e 807d a7be b1a1 b9be 9f3c 21bf
00000130: 8801 89be b638 c93e 2f4a 38be 5fa2 9cbe
00000140: 043b 86be 0ac1 9f3e 8caf 47bf 36f1 ecbe
00000150: 08fd 943e 2bae d63e 4246 c93e 6096 bcbe
00000160: ed80 a43e 732e 1abe 93e5 243e 5c23 c53e
00000170: b1cf f0bc 86b0 02bf 2311 ccbe 2c8c c8be
00000180: c562 8abe fb11 c33d 9cd6 f63e 008f 8dbe
00000190: 1f4c 103f 6d9c a33e 4c98 943e 0d47 b23e
000001a0: 4cd0 78be 9e59 123f 58f5 4d3d 5180 bcbc
000001b0: eb6f 133e f098 8b3e 4b4f 98be ea2a 9ebe
000001c0: 033c e13e b7d5 32bd eaba d2bd 5fea 353e
000001d0: af23 57be 02e2 84be 0bd6 49bd 77e3 78bd
000001e0: 48b5 d33e b8fc 373e 7c01 0f3d 9f5f 9bbe
000001f0: 56a5 d63c 4fa0 d0be 3dd7 973e 60f7 bf3d
00000200: aa1a c8bd c5a2 54bc ec25 513d 32f4 dbbd
00000210: 504b a0bb eebd d53c c025 183e 9bfc 9cbe
00000220: 1610 8f3e 4d55 6f3e f59c 85be 4719 21be
00000230: 6e9a 2abe 6eea d83e 1974 8a3e 9c15 5fbe
00000240: f628 b9be 9c27 d53e cee9 08bd 2912 ac3e
00000250: 9488 debe 0ce8 76be 2e52 393e ce36 e23b
00000260: 8f9d 553d 3383 4c3e 9830 68be cf55 9fbb
00000270: 7a30 c0be 6461 5abe 9807 5b3e 547d 09be
00000280: 7da1 e7be c304 67bc 4c0b 233d 78ec efbe
00000290: 260f 33be 3f55 c83e 1011 84be 3b8e 113d
000002a0: f982 883d 6d55 aabe 1034 c53e d712 5dbd
000002b0: d00f 23be a918 ba3e 7011 e73d 9499 38be
000002c0: 5663 1dbe 85f2 69be 0da4 043f 3f13 0c3f
000002d0: 226c 0abe 3251 6cbe ce5f 843e 68c9 d53e
000002e0: a42b e23e 78e9 1cbe 6fd2 14be 4602 4b3e
000002f0: ea35 1a3d d543 98be 4a4d 86be 0816 a73b
00000300: 5a1c 223f b67d 32be a799 903e b367 ce3d
00000310: 6b56 9dbd fc89 dc3e c98d e2be b73a bcbd
00000320: df7c dcbd d616 013e babf 7a3d edf1 c5be
00000330: f92e 44bd f69e 00be 1a74 b6bd e992 bf3e
00000340: 6eac 0ebe e382 193e 0d98 e63e 8583 6ebe
00000350: 0d19 1ebe f943 853c 020d 35bd 188a 77be
00000360: 9306 d33e aa87 00bf 865b b03d 9509 36be
00000370: bb47 57be e7bb 8a3e 2d79 223e cfc1 733e
00000380: fb25 70bd 8a11 e0bc 460b 32be 7b73 0f3f
00000390: 66bd a93e e554 88be 078d de3e 8d7a 8bbe
000003a0: 719f 49be 1586 ccbd dc16 67be 74c0 b73e
000003b0: 00a2 b33e 0962 35be d362 5ebe 4b35 193f
000003c0: dcf1 ca3d 7851 8dbd 28d2 8bbd e556 b03e
000003d0: 9204 3ebe 58e5 47be ece8 533e 1ab4 a8be
000003e0: 711a ec3e 9d3f 23be 858c 063d aad2 7ebe
000003f0: 79ca 60be 70e5 86bd 40e1 f53c 2266 7bbe
-0.18826097 -0.19149442 0.35348144 -0.36717197 0.4463445 -0.20293228 0.016312853 0.061615188
0.33882466 0.46720654 0.10265485 0.5525613 0.022298023 0.027102198 -0.19389671 -0.4432865
-0.008864929 0.41628447 -0.04163311 0.3546043 0.21657589 0.09638938 -0.15372378 -0.41062894
-0.14479594 0.35321054 0.38587686 -0.41402334 -0.36121225 -0.2558305 -0.20117843 0.41506612
0.29192725 -0.44704682 -0.46951154 -0.40570998 -0.24376391 -0.09113816 -0.22070561 -0.26996228
-0.11382158 -0.080579184 -0.4304267 -0.5726637 0.34333304 -0.2021502 -0.21560189 -0.47772342
-0.25050956 -0.03798546 -0.18336767 -0.17349783 0.084073246 -0.17402536 -0.45997152 0.06240383
0.5098776 -0.47729948 -0.3911289 -0.35731268 -0.5191328 -0.42380863 0.255049 0.48792246
-0.2987442 0.38162062 -0.28169787 -0.37307155 -0.34222436 -0.29934296 -0.21376802 -0.26418293
0.36427385 -0.32712936 -0.36256173 -0.62983125 -0.2675898 0.3930108 -0.17997049 -0.3059263
-0.262169 0.31201965 -0.7800224 -0.4627778 0.29099298 0.41929755 0.39311415 -0.36833477
0.32129613 -0.15056781 0.161032 0.3850354 -0.02939591 -0.51050603 -0.39856824 -0.39169443
-0.2702848 0.09524914 0.4821061 -0.27648163 0.5636615 0.3195528 0.29022443 0.34819832
-0.24298209 0.57167995 0.050282806 -0.023010405 0.14398162 0.2726512 -0.29747996 -0.30892116
0.43991098 -0.043660846 -0.10289557 0.17765187 -0.21009706 -0.2595368 -0.049276393 -0.060763802
0.41349244 0.17967498 0.034913525 -0.3034639 0.026201885 -0.40747306 0.296564 0.09373355
-0.09770711 -0.01297826 0.051061556 -0.10739936 -0.0048917904 0.026091542 0.1485815 -0.30661473
0.2794196 0.23372383 -0.2609631 -0.15732299 -0.16660473 0.42366356 0.270417 -0.21785587
-0.36164063 0.41631782 -0.0334261 0.33607605 -0.43463576 -0.24111956 0.18097755 0.006903506
0.052152213 0.19971924 -0.22674787 -0.004862524 -0.37536985 -0.21326214 0.21389616 -0.13426715
-0.45240393 -0.014100256 0.039805695 -0.468601 -0.17486247 0.39127538 -0.25794268 0.035536032
0.06665606 -0.332683 0.38516283 -0.053973045 -0.15924 0.3634694 0.11282623 -0.18027335
-0.15369925 -0.2284642 0.5181282 0.5471687 -0.13517812 -0.23077849 0.25854343 0.41755223
0.4417392 -0.15323436 -0.14533399 0.19825086 0.037649073 -0.29739252 -0.26230842 0.005099062
0.6332451 -0.17430767 0.28242227 0.10078373 -0.076824985 0.43074024 -0.44248798 -0.091908865
-0.10766005 0.12606367 0.061218 -0.38661137 -0.04789636 -0.12560639 -0.08908863 0.3741677
-0.13932964 0.14991336 0.4503788 -0.23292358 -0.15439244 0.016267763 -0.04420186 -0.24173772
0.41215953 -0.50207007 0.08611207 -0.17777093 -0.21023457 0.27096483 0.15866537 0.23804401
-0.05862997 -0.027352113 -0.17387113 0.56035584 0.33152312 -0.2662727 0.4346697 -0.27241936
-0.19689728 -0.099865116 -0.22567314 0.35889018 0.35084534 -0.17713179 -0.21717386 0.59846944
0.09909412 -0.069003046 -0.068271935 0.34441295 -0.18556431 -0.19521081 0.20694321 -0.32949907
0.46113923 -0.15942235 0.032848854 -0.2488505 -0.21952237 -0.065867305 0.030014634 -0.2455068

fc2.bias f4 [10]
00000000: ab9c 913e 6d39 583f fc91 7dbe 5669 433e
00000010: 75c4 4dbd aa76 86be 190d a0bf 4cf4 e3be
00000020: c318 003f 6502 1cbd
0.2843984 0.84462625 -0.2476272 0.19083151 -0.050236184 -0.26262408 -1.2503997 -0.4452232
0.50037783 -0.03808822

momentum_buffer f4 [10, 1, 5, 5]
00000000: 435d 1e3c 709d 9e3d 4264 6d3e 8c20 2b3d
00000010: c85c 0f3a c7b1 893d 74f4 543e 1630 7f3e
00000020: 0e1c 093c ebb1 063b 35f0 213e ea93 6a3e
00000030: f856 b73d 75ab 73bb 37f6 0e3a fa39 3a3e
00000040: 1577 ff3d b15b 2d3c d663 8b3a f8f8 fc39
00000050: b9fd cc3d de39 f83d fe6b 0b3d 68ff d63c
00000060: b1bf 5f3d a0d0 40ba 5143 6cbc 7d28 78bd
00000070: ab7e 89bd aeae 9dbd 46ff f6bc e107 98bd
00000080: ce65 c1bd 266e e4bd 2c5c c1bd c03e c4bd
00000090: 9421 02be 8ef2 1cbe 3275 c5bd 4fe4 57bd
000000a0: 48fe 9ebd 8898 22be 4dce a3bd 56aa cdbc
000000b0: 709a 8bbc c478 5cbd 12a5 4cbd d8b4 0ebb
000000c0: e7c0 c83a f87e 5fbb ef05 17be 63ab 89bd
000000d0: 384a 9bbd 0752 41bb f449 bdba d571 c9bd
000000e0: eca3 aabd d652 0cbd 4ef7 9aba 587b efb7
000000f0: 404e 5cbe bf95 08be 5aa0 1fbc ffe6 813b
00000100: a183 9a3a 7c4a 35be 1487 67bd a250 1abb
00000110: 4adb fc3a fe01 db3b 59cc 45be c51b 4cbd
00000120: 01e5 0c3c 1053 4aba b4f5 5dbc cb41 a33d
00000130: 129d a83d 7635 093e 428c 213e 7f19 b03d
00000140: 8b54 0b3c 4c3f 19bc ad53 983d ad53 c23d
00000150: a437 013e 10e3 bb3b d9d5 99bc 88dd a6bc
00000160: f1ca d63d 2e08 f63d d67e 92ba 7697 6ebc
00000170: 7f59 cf3c 432d 093e 6273 4a3d f664 86bc
00000180: 2527 c0bc 7f61 8c3d 2920 b63d f8e6 b3bc
00000190: d504 7ebc 58b1 28bd e6a6 7fbc c863 f2bb
000001a0: a25f 26bd c772 80bc cd46 88bc 1987 bdbb
000001b0: 5682 ebba 405a 59bd c0fa 13bb ed85 9abc
000001c0: 1ff8 debc 4d84 9abc a1ed 13bd 5c8d 2fbe
000001d0: bcdf 31be d031 0abe 4e0d acbd 56e2 02be
000001e0: 6d32 6bbe d5a4 86be 06f2 8fbe 3a00 83be
000001f0: 3522 5ebe c339 3c3d 4d8c 313d c33f 293d
00000200: 84be 5d3c 16f9 05bd 4e4e cb3c 0fbc cc3b
00000210: b13a 043d 2887 883c 7639 25bd c66e 9e39
00000220: 890e c8bb 4fa4 b83b 27db 2abc 0685 82bd
00000230: bfeb a4ba a745 5639 2cef 043a 8c4b 39bc
00000240: df7f 75bd ed93 23bc fb61 b1bb 27fa 253b
00000250: 21c9 cebc 8b87 16bd 47cb ddbd d24a 7abd
00000260: 3624 d4bd b4e1 34be e35a 6abe 5cab 95bd
00000270: e3c9 81bd 5f71 0cbe 1675 0ebe 9b95 53be
00000280: 93c8 32bd 00ee 02ba 1e94 203d b0f8 a3ba
00000290: a3c6 a7bd bbac 0e3d a661 473d a604 853d
000002a0: 2659 243c 20db edbd 076f ea3b fe3d 13bb
000002b0: f903 5abb 773e fdbc 5d28 1dbe fded 4037
000002c0: dc36 3720 0200 0000 0200 0000 2e45 0080
000002d0: f13e 3038 eced c036 0a4d 741f 0200 0000
000002e0: 0200 0000 d5b2 5738 f0b2 5738 0bed c036
000002f0: 0200 0000 8532 132e a7ec c036 3ec7 7f38
00000300: d619 e037 1f4c 392d 562e 902e f880 951a
00000310: 9ca9 6738 d23e 3038 c72b c037 29ed c036
00000320: 6e18 cd3d 1cb5 883d 28f2 3d3d e65b 833c
00000330: c283 323c 1bc3 9d3c 1b46 2e3c ec34 423a
00000340: 1f32 8dbb 79b0 47bd 40d2 ed3a db95 4538
00000350: 3744 783a eb6c 0a3c 7ce2 c5bc 2c51 9eba
00000360: b4a3 883a 55ea 5f3c 0c73 743d 50c8 b83d
00000370: 3487 edba dc47 2bbc 3e2a 7e3c e623 d43d
00000380: ae5a 973d df08 4eb2 f370 82ae 00b4 ba33
00000390: 0181 0535 2ea1 af36 fcce 4fb7 e873 2134
000003a0: 3e4d 4c34 eac3 a5b6 06cc c9b7 3a3d a4b8
000003b0: 3982 f8b8 c453 ccb9 896a 91b9 03c8 85b9
000003c0: a4ff 6cb8 1f04 aab8 7776 aeb9 4973 a7b7
000003d0: c3c4 fb37 f886 4db8 383b 96b8 0a47 afb9
000003e0: f1d0 0fb8 f856 1733
0.00966579 0.077448726 0.23182777 0.041779086 0.00054688426 0.067233615 0.20796376 0.24920687
0.008368505 0.0020552825 0.15814288 0.22907987 0.08952135 -0.0037181054 0.0005453559 0.18186179
0.12473885 0.010580943 0.0010634612 0.00048250682 0.10009331 0.12120412 0.034038536 0.026244834
0.05462617 -0.00073553063 -0.014420346 -0.060585488 -0.06713613 -0.07699333 -0.03015102 -0.07423378
-0.09443246 -0.11153822 -0.094414085 -0.09582281 -0.12708122 -0.15326902 -0.09641494 -0.052707966
-0.07763344 -0.15878499 -0.07998333 -0.025105637 -0.017041415 -0.05382611 -0.04996211 -0.0021775272
0.0015316278 -0.003410278 -0.14748357 -0.067221425 -0.075825155 -0.0029498355 -0.0014441595 -0.09836165
-0.08332047 -0.034258686 -0.001182297 -2.8548457e-05 -0.21514225 -0.13338374 -0.009742821 0.0039643045
0.0011788496 -0.17704195 -0.056525305 -0.0023546596 0.0019291427 0.006683587 -0.19316234 -0.04983117
0.008599521 -0.0007718066 -0.01354735 0.079715334 0.08233084 0.133993 0.1577616 0.08598613
0.008504043 -0.00935347 0.07437835 0.09488616 0.12618881 0.005733855 -0.018778728 -0.020369306
0.10487927 0.12013279 -0.0011176716 -0.014562478 0.02531123 0.13396172 0.049426444 -0.016405564
-0.023456166 0.068545334 0.08892853 -0.02196072 -0.015504082 -0.041184753 -0.0156037565 -0.0073971488
-0.040618546 -0.01567973 -0.016635323 -0.005783927 -0.001796792 -0.053064585 -0.0022579879 -0.018862689
-0.027217923 -0.018861914 -0.036115292 -0.17143768 -0.17370504 -0.13495564 -0.08400975 -0.12781653
-0.22968455 -0.26297632 -0.28114337 -0.2558611 -0.21692736 0.045953523 0.043346692 0.041320574
0.013534192 -0.03270825 0.024817612 0.0062480043 0.032282535 0.01666601 -0.040338002 0.0003021864
-0.0061052484 0.0056348215 -0.010428227 -0.063730285 -0.0012582465 0.00020434578 0.000507104 -0.011309516
-0.0599364 -0.009983999 -0.0054132915 0.0025326104 -0.02524239 -0.036750358 -0.10829788 -0.06110651
-0.10358469 -0.17664224 -0.22886233 -0.07308075 -0.06337335 -0.13715123 -0.13911852 -0.20662539
-0.043648314 -0.0004994571 0.039203756 -0.0012510028 -0.08192184 0.034832697 0.04867711 0.06495027
0.01003102 -0.116140604 0.007154349 -0.002246737 -0.0033266528 -0.030913575 -0.15347429 1.1499503e-05
1.5518854e-19 3e-45 3e-45 -2.4817e-41 4.202029e-05 5.7497437e-06 5.1732735e-20 3e-45
3e-45 5.1426545e-05 5.1426643e-05 5.7496413e-06 3e-45 3.34688e-11 5.749596e-06 6.0982296e-05
2.6714912e-05 1.0532935e-11 6.556593e-11 6.1833316e-23 5.5232653e-05 4.2020176e-05 2.2908569e-05 5.749655e-06
0.10014425 0.06675169 0.046373516 0.016035032 0.010895671 0.019258073 0.010636832 0.00074083987
-0.0043089534 -0.04875228 0.0018144324 4.7108024e-05 0.0009470614 0.00844882 -0.024155848 -0.0012078634
0.0010424764 0.013666709 0.05968003 0.090225816 -0.0018121959 -0.010454144 0.015513001 0.103584096
0.07390343 -1.1992795e-08 -5.9317794e-11 8.694042e-08 4.9734086e-07 5.23417e-06 -1.2386354e-05 1.503646e-07
1.9027081e-07 -4.9401906e-06 -2.4056073e-05 -7.831534e-05 -0.000118498174 -0.00038972322 -0.0002773593 -0.00025516757
-5.650487e-05 -8.106999e-05 -0.0003327613 -1.9961635e-05 3.0013156e-05 -4.9001508e-05 -7.163588e-05 -0.0003343153
-3.428845e-05 3.5236525e-08

momentum_buffer f4 [10]
00000000: 389e df3d 13f7 0dbe 40d7 78be dced c23d
00000010: 7236 9abe 04b2 c9bc d201 81be 3ec7 7f38
00000020: 80c3 813a e547 ddb9
0.1091885 -0.13863783 -0.24300861 0.09518024 -0.30119663 -0.024621017 -0.251967 6.0982296e-05
0.0009900182 -0.0004220597

momentum_buffer f4 [20, 10, 5, 5]
00000000: 7175 a4bc 0805 a3bb 8a1f 73bc 4967 72bc
00000010: d8f2 25ba 413e 0ebd b838 b7ba 3d6d b6ba
00000020: df94 e9bb 2c2f a439 c785 38b9 1a72 1839
00000030: 39f7 46b8 0b83 df38 ad3b 1ebc 0175 d039
00000040: 1227 0eb7 a108 e1b9 fd98 c3bb 52d7 1dba
00000050: 98db bbba 6ceb 39bb 5f95 aebb ea73 733b
00000060: b0db 0dbc 5dfc 7a39 05da 0e39 51f8 2a3a
00000070: 8676 b5bb 73a7 c5ba b437 6a3a 49c3 6339
00000080: a6a3 20b5 14bb aeb6 c41a 7cb7 a617 6838
00000090: 48a4 7c36 1540 ac36 2827 8cb9 033a 87b9
000000a0: becf 4c3b 5c36 563a 8685 41b9 3159 573c
000000b0: 84d5 fa3b 9d41 b6b9 d9a9 453b 4bdb 103c
000000c0: f7c4 9c3b cc5d a0bb 4a12 863a 7352 013a
000000d0: 2ad5 f538 623f c7b9 f1fc 4dbb d13f 8e3a
000000e0: 80d5 5bb9 7de3 da39 9b56 223a 7bd5 343a
000000f0: dc69 8f3b 8057 663a 749e 8cbc b556 30bc
00000100: 0877 ca3b 8bdc 493a 007a 413b a0a7 acbc
00000110: 7800 28bd 0030 d53b 849e 9538 93e8 fc3a
00000120: 2677 ddb8 1c05 51bd 10a1 cf38 91c7 f8ba
00000130: 02e0 583b bf4f dbbb f82d a639 e191 31bb
00000140: 3158 0837 09d0 8138 878d e73a 8177 de3b
00000150: 8789 623b 63d3 48b8 06ba 5ab9 2ca7 84ba
00000160: 84e4 7cba 264b 063b 482e c7bb 17d9 04ba
00000170: c51a 9d3a 5b3e c93b fe78 26ba b7b6 8a3a
00000180: baf1 57bb 5cde 313c 4046 6db8 b51b 0fb9
00000190: 1016 2c37 6e3a 613a 3cb3 dfba b178 babb
000001a0: 0dbc 0e3b 9579 cb39 3811 7ab9 0737 743b
000001b0: 3ed0 feba f89e bdb9 ac5e c0bb 4318 2bbd
000001c0: 1f4e 613c 327a 92ba 82a7 19bb 09f5 b53b
000001d0: d666 3dbd ae01 3bbd ac69 89bc d5b0 98bc
000001e0: 61c3 a03b b000 0239 1860 76b8 2d04 03bc
000001f0: 823f bdbb 769a 00ba f2f4 753b f976 bbbc
00000200: c17c f7ba c872 b73b a85e d338 d3e6 823b
00000210: 5e00 36bb 9540 27bc 87c2 8cbc dc27 7539
00000220: e655 273b 48c8 b03b fc1f c63b 2aa0 daba
00000230: a88e 15b8 76e8 8e39 8a27 9237 875c 3239
00000240: 326e 5bb9 e187 12bc 74ff 583a 0429 513a
00000250: ea95 b73a 0140 06ba f6e0 bc3a b51a babb
00000260: 0d68 68bc e881 5fbb 825e 8fbc e767 deba
00000270: c0b8 dcbb 14e2 3abb 60b9 ae3a cedf b0bb
00000280: 4ef9 2eb9 ec4d 583a bd85 ac3a 60a0 ec3a
00000290: 2483 20bb e844 db3a 5427 0dba ab9c aabb
000002a0: 1e06 0abc 4ae1 35bb 6972 49bd 272a d3bc
000002b0: 2087 b4bb a899 68bb 17d1 fcbb 0200 0080
000002c0: 0200 0000 0200 0000 0200 0000 0200 0080
000002d0: 0200 0080 0200 0080 0200 0080 0c41 8a03
000002e0: a8c1 6603 0200 0080 e9de 5c91 0200 0080
000002f0: 0200 0000 0200 0000 4328 ae1c 24b7 bd0e
00000300: 0200 0000 0200 0080 423d d806 0200 0080
00000310: 0200 0080 ed8e 091a 329f 0a06 bd90 099b
00000320: 4a5a 8b38 4c87 90b9 7fd6 bf3b c826 5138
00000330: 5516 a7ba 21ea 0739 ac98 2b39 605e ecbb
00000340: 0166 203b 7c9f a5b9 cf2c 8eb9 220e 003b
00000350: 9095 733c 0b58 dabb 72f8 16bc 1403 a23b
00000360: b450 a43c be42 8c3b bc5e 52bc 2bc7 66bb
00000370: cfda ee3b 9027 ed3b 8b6e 4fbc 2f58 c0ba
00000380: 23c9 033a d7c5 2896 db01 ebae 0b43 c3ae
00000390: c17d 03af 7497 2535 0200 0080 faae 0591
000003a0: 0133 e821 61ab 510c 9620 2299 d4f2 2e95
000003b0: 9afa de20 0200 0080 6335 0c15 df04 0080
000003c0: 5c86 f4aa a9f7 f6af 0cb4 73b5 12d9 5ab1
000003d0: 8c34 42b6 bf92 e3aa 35e9 e72c 20ff 67b4
000003e0: e494 bbb0 653f 5837 7eef 503d 895b 343d
000003f0: 8bfb 0abc e770 233c 35b8 003d 67f5 6f3b
-0.020075532 -0.004974965 -0.0148390625 -0.014795133 -0.0006330437 -0.03472734 -0.0013978695 -0.0013918054
-0.0071283425 0.00031315663 -0.00017597443 0.00014538356 -4.7437123e-05 0.00010657877 -0.0096577825 0.00039760026
-8.472956e-06 -0.00042921773 -0.0059691654 -0.000602116 -0.0014332412 -0.0028369082 -0.005327865 0.0037147948
-0.008658335 0.0002393587 0.00013623394 0.00065219874 -0.0055378107 -0.0015079811 0.0008934692 0.00021721156
-5.9842785e-07 -5.207383e-06 -1.5026602e-05 5.5335135e-05 3.764655e-06 5.1334596e-06 -0.00026732055 -0.0002579243
0.0031251754 0.00081715523 -0.00018455656 0.0131438235 0.0076548476 -0.0003476263 0.0030161052 0.008841346
0.004784222 -0.004893994 0.0010228839 0.00049332454 0.00011722215 -0.00038003462 -0.0031431282 0.0010852759
-0.00020965002 0.00041749692 0.0006192715 0.0006898266 0.004376633 0.0008786842 -0.0171654 -0.01076286
0.0061787404 0.0007700405 0.002952218 -0.021076024 -0.041016072 0.006505966 7.1343995e-05 0.0019295387
-0.00010560294 -0.051030263 9.9005294e-05 -0.0018980374 0.0033092503 -0.006692856 0.00031696237 -0.0027095007
8.126765e-06 6.189949e-05 0.001766608 0.0067891483 0.0034566836 -4.7880585e-05 -0.00020859399 -0.0010120622
-0.00096470886 0.002049157 -0.006078515 -0.00050677493 0.0011986127 0.0061414666 -0.00063504267 0.0010583018
-0.0032950477 0.010856237 -5.657063e-05 -0.00013647864 1.0257136e-05 0.00085917755 -0.0017066966 -0.005690657
0.0021779567 0.00038809763 -0.00023848272 0.0037264244 -0.0019440723 -0.0003616733 -0.0058706608 -0.041771185
0.013751536 -0.0011175333 -0.002344579 0.005552892 -0.04624065 -0.0456559 -0.016774021 -0.018639008
0.0049061035 0.00012398022 -5.8740465e-05 -0.007996601 -0.005775393 -0.0004905829 0.0037530032 -0.022883879
-0.0018881784 0.0055984 0.00010078895 0.0039948015 -0.0027771215 -0.010208269 -0.017182602 0.0002337987
0.0025533377 0.005394969 0.0060462933 -0.0016679813 -3.5657227e-05 0.00027257547 1.7422968e-05 0.00017009872
-0.00020926518 -0.008943529 0.00082778116 0.0007978829 0.001400647 -0.00051212317 0.0014410305 -0.0056794533
-0.014184964 -0.003410453 -0.01750112 -0.0016968221 -0.006735891 -0.00285161 0.0013330393 -0.0053977733
-0.00016686806 0.00082513574 0.0013162416 0.0018053167 -0.0024492228 0.001672891 -0.00053845835 -0.0052066646
-0.00842431 -0.002775269 -0.049181376 -0.025776936 -0.005509272 -0.0035491977 -0.007715355 -3e-45
3e-45 3e-45 3e-45 -3e-45 -3e-45 -3e-45 -3e-45 8.125845e-37
6.781323e-37 -3e-45 -1.742363e-28 -3e-45 3e-45 3e-45 1.1524762e-21 4.6768455e-30
3e-45 -3e-45 8.134018e-35 -3e-45 -3e-45 2.844639e-23 2.6071874e-35 -1.1379142e-22
6.644854e-05 -0.00027566624 0.0058544273 4.98656e-05 -0.0012747744 0.00012961823 0.00016364706 -0.007213399
0.0024474862 -0.00031590078 -0.00027117736 0.0019539674 0.014867201 -0.0066633276 -0.009214507 0.0049442146
0.020058013 0.004280417 -0.012839969 -0.0035213928 0.0072892676 0.0072373822 -0.012660633 -0.0014674718
0.0005027225 -1.3633359e-25 -1.0686892e-10 -8.8794826e-11 -1.1959057e-10 6.1687683e-07 -3e-45 -1.0545769e-28
1.5734432e-18 1.6152347e-31 -8.381784e-24 -3.5330578e-26 3.7774097e-19 -3e-45 2.831489e-26 -1.747e-42
-4.3436337e-13 -4.4923112e-10 -9.0786557e-07 -3.1846565e-09 -2.893884e-06 -4.0425126e-13 6.591306e-12 -2.1606365e-07
-1.3648358e-09 1.28893635e-05 0.051009648 0.044032607 -0.008482824 0.0099756485 0.031425674 0.0036614777

momentum_buffer f4 [20]
00000000: 5f0a 1dbd c7a3 a13d 7d9b f43c 4a41 f7bd
00000010: 8366 e53d 952c 8bbc 725b 8f3c aa6d 8bbd
00000020: 945f c63c 9669 393d 6433 02bc 1051 01bc
00000030: 7485 093c e58c 97bd 2ee9 73be c0da 22bb
00000040: 8a4b 923d 53b8 9f3d d8a4 17be 1775 4d3d
-0.03833997 0.07892566 0.029859299 -0.12073 0.11201193 -0.016989032 0.01749966 -0.06808026
0.024215497 0.04526671 -0.007946823 -0.007892862 0.008393634 -0.073999204 -0.2381942 -0.0024849623
0.07143314 0.07798829 -0.14808977 0.050160494

momentum_buffer f4 [50, 320]
00000000: c99e 7e37 7ea1 9a36 07e0 9637 e918 1eb3
00000010: 3c59 e83c 66a1 c7b9 36b9 8bb7 dd72 6eb4
00000020: 2f9d 5138 d9ee 16b4 1588 0db7 f462 27b6
00000030: 7ce0 aa39 bcd9 273d f8ac 4db6 cb9a 25b8
00000040: 7c9f 3f37 68a8 fbba 6803 83bb f5ee feb9
00000050: f6d5 98ba 502b a3ba c34c 8c3a baa8 60ba
00000060: 3969 4aba 7a14 ebba 5422 503b c012 09b9
00000070: 3d78 14b9 0dc8 22ba 7b15 32b9 ad3d 55b9
00000080: 466f 39bb ecef 17bb 6f8b e43c 9b04 39b7
00000090: f610 febb 55c8 fdb9 e4af 9ebb b5b2 a439
000000a0: 1d0b 4fba 6caf 0bb8 63f2 cdb8 79de a1b8
000000b0: a123 c5bb 8f1c 323d 0d95 b0b7 f61a d7b6
000000c0: 324e 1d3d fcb4 3238 e1ed 83b6 b387 3f35
000000d0: c6bf bdb9 ad72 65b9 50a4 bdb8 694a 02b9
000000e0: 05da df3c 7a0f e8b8 e427 d83b cb2d d1b9
000000f0: fa12 bdba 908a 49b9 d509 e1b7 fc45 7a3b
00000100: 963e 10bb ebaf 0638 abbc 37b4 c164 1a3b
00000110: 629a cfb9 95d9 9038 350b e0b8 650a 0a3b
00000120: bc32 aa3a 3018 3a3b e62a 5739 1f6f 0739
00000130: f551 b03a e2b4 0d39 255f d939 e52e 0b39
00000140: 378c 1b39 4a9f 0f3c e18a ae3c f800 8e3c
00000150: 4706 1aba ac61 7e3a 62e4 05b8 faf5 4c39
00000160: cc86 18ba de6b 8ab9 961b 1a36 5865 78bb
00000170: 33cd d9b3 14f5 88b4 09fc bd39 83cb 633a
00000180: bcc6 483c 82cd 4d3b 60b3 f2b9 0f45 863a
00000190: a053 d033 bcd1 f2b3 0548 a139 8623 b2ba
000001a0: ffa1 1537 4f77 4f38 c668 c33a eb4f 67bc
000001b0: 293b 45ba 7117 35ba 08a9 b0b9 a3d9 04ba
000001c0: ec92 bebb 2adf 8f3b e145 253c 0ca6 91b8
000001d0: 7371 8a3b 44ea 1836 7741 703d 7a6e e6b7
000001e0: 2fea 92b8 3751 653b 7f4a 8037 5344 8a3a
000001f0: 55b3 8d3b 6aa1 c83c d8cd 1dba 6449 1ab9
00000200: 3ba7 f5ba d3f1 abb7 750e ed39 6b1b 5e38
00000210: f3e3 adbc 9dca 7f39 860d 8ab5 b2f5 71b5
00000220: 963f e0bc db16 b338 a3a3 a5bb 451e d4bc
00000230: b067 89bc d107 9338 b9ba b739 17f8 13bb
00000240: 1118 f9b8 84e3 bfba 4eff 023d b3b1 193c
00000250: 39d8 2b3c daa1 cb3b de68 8b3d 8e15 3f3c
00000260: 2b07 5539 1589 a53b ccb3 c5b9 b7ce db36
00000270: 747c 303c 58b8 22bb 6088 91b6 8fbf dfb6
00000280: 16f8 1fb9 fd72 71bb 5a57 4bb8 2390 1ab9
00000290: 8637 963c f735 c23c 61de 003e 7896 69ba
000002a0: a3a6 db3c f4df 893c 65fb 453a 2a38 1b3d
000002b0: b879 3cba 142d 2c39 6e3f 9c3a 3484 793d
000002c0: 8724 af36 10ea 7dbd 7164 4abb 4bfd aabc
000002d0: 5cde 10b4 0f91 033d ea3f 56bc 3e4f 3c3d
000002e0: b9dd 413d caca 6bbc 4d16 a6bb d7d0 083d
000002f0: c3ea af3b 1cf5 d93a 66a9 1ebb 4bbb 50bc
00000300: 7260 0c3c 872f c03a 5089 dc3b 11d7 3c3d
00000310: 0037 1239 02a7 a739 d5b5 a33b 8ef2 f839
00000320: 8058 c43b fb81 9eb9 1a03 9d39 6fa1 e9bb
00000330: 00ef 1936 6cc0 80b9 7082 ecb8 ee88 d53a
00000340: f9b7 8fb7 1098 c8b7 c5b0 a2b6 f4cb 11b5
00000350: b133 223b e8b2 5aac fa70 88ba 325c 223a
00000360: ec20 76b8 4857 8537 0eab d838 8f98 cbb8
00000370: 951e bfbb 5b05 523a e670 d8ba 6826 6bb7
00000380: 5e34 5dba 017a 9e36 c2e7 a5ba 8aa5 11bb
00000390: 43d9 073a 9161 1b3d 15ef a03b 1069 083c
000003a0: 4295 d73a 657d 013d d5b1 f7b6 7afa 8c3a
000003b0: d915 efba 3358 0cba 3fc7 11ba 57e6 26bb
000003c0: 2916 9e3d cdc6 a9bc eb0a 17bd 3e2a 2abd
000003d0: 11c5 8b3d 67b3 9cbb d87c a2bc 659b 5aba
000003e0: 0ec4 8d3b e4d5 16bd e375 2abc 1549 033d
000003f0: f61f 8d38 65c9 14b9 7673 663a e906 ca3b
1.517655e-05 4.608358e-06 1.7985714e-05 -3.6809897e-08 0.028362863 -0.0003807649 -1.6656337e-05 -2.2207264e-07
4.997587e-05 -1.4056731e-07 -8.435939e-06 -2.4942537e-06 0.0003259218 0.040979132 -3.0648062e-06 -3.9483228e-05
1.142162e-05 -0.0019199969 -0.003998209 -0.00048624692 -0.0011660445 -0.0012448821 0.0010704029 -0.0008570064
-0.0007721368 -0.001793518 0.0031758742 -0.00013072323 -0.00014159172 -0.00062096195 -0.00016983405 -0.00020336239
-0.0028295084 -0.0023183776 0.027898518 -1.1027932e-05 -0.0077534867 -0.0004840518 -0.004842745 0.00031413665
-0.00078980793 -3.3303557e-05 -9.82031e-05 -7.718517e-05 -0.00601621 0.043484267 -2.1050242e-05 -6.410638e-06
0.03840465 4.2607062e-05 -3.931797e-06 7.1350513e-07 -0.00036191772 -0.00021881862 -9.042828e-05 -0.00012425486
0.02732564 -0.00011065505 0.006596552 -0.00039897705 -0.0014425211 -0.00019220472 -2.6826669e-05 0.0038188687
-0.002200996 3.2111926e-05 -1.711184e-07 0.002355859 -0.0003959714 6.906983e-05 -0.0001068324 0.0021063325
0.0012985091 0.0028395765 0.00020519979 0.00012915999 0.001345216 0.00013514192 0.00041460354 0.00013273543
0.00014834186 0.008766005 0.021306457 0.017334446 -0.0005875569 0.00097038853 -3.192237e-05 0.0001954659
-0.0005818426 -0.00026401778 2.2963845e-06 -0.0037902202 -1.01421755e-07 -2.5510292e-07 0.0003623667 0.00086896884
0.012254413 0.003140301 -0.00046291482 0.001024397 9.700966e-08 -1.13071536e-07 0.00030761972 -0.0013590909
8.91881e-06 4.946376e-05 0.0014908544 -0.014118175 -0.0007523769 -0.0006908095 -0.00033695274 -0.0005067831
-0.0058158543 0.004390617 0.010087461 -6.9450674e-05 0.00422495 2.2786126e-06 0.058656182 -2.7469581e-05
-7.0054426e-05 0.0034991035 1.5293479e-05 0.0010548927 0.0043243566 0.02449103 -0.0006019748 -0.00014713925
-0.0018741855 -2.0497397e-05 0.00045214934 5.295446e-05 -0.021226859 0.00024394174 -1.0285737e-06 -9.013703e-07
-0.02737407 8.539642e-05 -0.0050549074 -0.02589334 -0.016773075 7.010962e-05 0.000350436 -0.0022578293
-0.00011877728 -0.0014639948 0.03198176 0.009380746 0.010488563 0.0062143626 0.06807111 0.011662854
0.00020315933 0.005051742 -0.00037708727 6.5507734e-06 0.010771859 -0.0024829116 -4.337213e-06 -6.6682182e-06
-0.00015255841 -0.003684222 -4.8480324e-05 -0.0001474028 0.018337023 0.023707373 0.12584831 -0.0008910666
0.026812857 0.016830422 0.00075524143 0.03789536 -0.00071897684 0.00016419991 0.0011920759 0.060917094
5.2196588e-06 -0.061990798 -0.0030882622 -0.020872733 -1.3491939e-07 0.03212076 -0.013076762 0.04597401
0.04733059 -0.01439161 -0.0050685764 0.03340229 0.005368562 0.0016628834 -0.0024209856 -0.012739967
0.008567916 0.0014662602 0.006730236 0.04610354 0.00013944134 0.00031977153 0.0049960413 0.00047482963
0.0059919953 -0.0003023295 0.00029947684 -0.00712984 2.2937893e-06 -0.00024557428 -0.00011277653 0.0016291419
-1.7132597e-05 -2.3912668e-05 -4.848555e-06 -5.43135e-07 0.0024750049 -3.1078976e-12 -0.0010409646 0.0006193548
-5.868163e-05 1.5895479e-05 0.00010331544 -9.7082106e-05 -0.005832503 0.0008011662 -0.0016513139 -1.4016034e-05
-0.0008438284 4.72297e-06 -0.001265757 -0.0022223913 0.0005182216 0.037934843 0.0049113133 0.00832583
0.001644768 0.031613726 -7.381876e-06 0.00107558 -0.0018240764 -0.0005353719 -0.0005561001 -0.0025466883
0.077190705 -0.020724678 -0.036875647 -0.04154419 0.06824697 -0.0047821286 -0.01983492 -0.00083391956
0.00432635 -0.036825076 -0.010404083 0.03205212 6.729357e-05 -0.00014189405 0.0008791009 0.0061653745

momentum_buffer f4 [50]
00000000: 0e14 bf3c af47 2fba 4ddf 9fbc 136c af3b
00000010: 1193 8fbc c38e a1bc 4ecf 9bbc 520f 063c
00000020: 3450 bbbb 57b5 68bc 2c2c ee3b 125a 923b
00000030: 8b74 30bc e019 6dbb b8a8 a53c 1dbb 933b
00000040: e916 9bbb 052f 14bd d133 7cbc d052 c2bb
00000050: 0a82 dc3b 12d6 1f3d 2d0f 2c3b 72d0 623d
00000060: 158f f93b 094e 08bc ef6d c5bc 0745 f53b
00000070: 0806 0d3b 0e80 b33c 8d56 4f3d 754e a33a
00000080: 4c8e 60bd a4d2 4d3b df56 ba3b d16e a33c
00000090: b2e3 063c 33bb 9bbc 708e dfbb ec92 493d
000000a0: 1c7e 9c3b aea7 16bc 6d76 37bc 420c 46bc
000000b0: d661 12bc fce2 05bb 2219 913c 8877 333d
000000c0: 9634 f63b fb49 11bc
0.023324993 -0.0006686402 -0.019515658 0.0053534596 -0.017526181 -0.019721394 -0.019019749 0.008182364
-0.005716348 -0.014203391 0.0072684493 0.0044663036 -0.0107699735 -0.0036178753 0.020222053 0.0045083896
-0.0047329557 -0.036177654 -0.015393213 -0.005930282 0.006729369 0.039022513 0.0026254163 0.05537457
0.0076159337 -0.008319386 -0.024100272 0.0074850353 0.0021518487 0.021911647 0.05061965 0.0012459295
-0.054823205 0.003140607 0.0056866254 0.019950302 0.008232998 -0.019010162 -0.0068224 0.04921238
0.0047757756 -0.009195251 -0.0111976685 -0.012087883 -0.008934459 -0.0020429483 0.01771218 0.043815166
0.007513593 -0.008867736
