checkpoints/task-001.pth (torch, 179983 bytes, 16 tensors)

conv1.weight f4 [10, 1, 5, 5]
000000 06 d4 14 bf 4c 51 9b 3e c9 d8 21 3f c1 8a 6a 3c
       -0.5813602 0.30335462 0.6322141 0.014315308
000010 66 34 13 bf 43 97 7f be 4d bf c7 3d b7 88 c5 3e
       -0.5750183 -0.24960046 0.097532846 0.38580868
000020 95 73 24 3e ef e9 75 bf b8 d8 37 3e 7e 19 94 3e
       0.16059716 -0.9606008 0.17953765 0.289257
000030 f0 06 93 3e 03 be 51 be 6b 7a 40 bf ad 44 ec 3e
       0.2871623 -0.2048264 -0.75186795 0.46146145
000040 31 e6 2d bc a4 04 0c bc ae 23 88 be 47 4c 1f bf
       -0.010613964 -0.008546028 -0.2658972 -0.62225765
000050 6f 7f 19 3e 22 1c 69 be ea 8c b2 be 35 0e c0 be
       0.14990018 -0.22764638 -0.34873134 -0.3751084
000060 73 11 05 bf 9d 2f 0d bf ac ac 3e be e9 00 a6 bd
       -0.5197975 -0.5515078 -0.18620557 -0.08105642
000070 c6 04 ec bd 59 65 3f 3e 56 59 11 bf 5f 3b b4 be
       -0.11524348 0.18691005 -0.5677694 -0.35201547
000080 f3 2f 45 be d0 04 80 3d 13 3a e2 bd 49 9d c7 3d
       -0.19256572 0.06250918 -0.11046233 0.09746797
000090 35 f8 2d 3f e2 1c 0f 3f d8 54 8e bd e0 e7 96 bf
       0.6795686 0.55903447 -0.069497764 -1.1789513
0000a0 7c e1 71 3f b8 0c 2e 3f 8c 69 95 be 14 c7 cc be
       0.94484687 0.6798816 -0.29182088 -0.39995635
0000b0 00 62 6c bf f8 79 d4 be 6a 03 6b bf 98 80 4d bf
       -0.92337036 -0.41499305 -0.91802084 -0.80274343
0000c0 6b 20 4e bf 7c a9 e3 be 4c 0c af bd 7f 88 cd bd
       -0.80518216 -0.44465244 -0.08547267 -0.100358
0000d0 69 bb 6e bd 4b e6 c6 bb 10 ed 4c 3e 98 b0 23 3e
       -0.058284197 -0.0060699335 0.20012307 0.15985334
0000e0 86 e1 18 bc d7 d7 e8 bd f2 97 e5 bc b8 fc eb bd
       -0.009331113 -0.11369293 -0.028026555 -0.11522812
0000f0 08 ef 52 bc 6a 20 c9 bd c9 4d d4 bc f2 69 67 bd
       -0.012874372 -0.098206356 -0.025915997 -0.05649752
000100 a1 5c 7b bd 9f 31 06 3e 9a 87 53 bd 62 0b b1 bd
       -0.061367635 0.13104866 -0.05164299 -0.08644749
000110 e7 81 d2 bd 1f 21 ad 3d ce 66 45 3d c4 de d7 3d
       -0.10278683 0.08453583 0.048193745 0.10540536
000120 52 a5 4c be ff 7f db bc f5 01 59 3e b8 54 2e bf
       -0.1998494 -0.026794432 0.21192153 -0.6809802
000130 ef f7 24 bf 08 0e e6 bd fb 4e e1 3e 2f f0 2b 3d
       -0.64440817 -0.11233145 0.4400557 0.041977104
000140 ea aa 24 bf 12 b9 f8 be bc 34 02 3d 8c d2 53 3f
       -0.64323294 -0.48578697 0.031788573 0.82743144
000150 d7 84 57 3e 89 53 10 bf e3 1f 8a be 83 21 0a be
       0.21046768 -0.56377465 -0.26977453 -0.13489346
000160 d0 6e 57 3f 99 35 ea bd fb 49 1b bf 39 5e 7d be
       0.8415346 -0.11436004 -0.6065976 -0.24742974
000170 2b 48 21 bd 0a 10 15 3f e5 3d a4 3c 84 65 a5 bc
       -0.039375465 0.582276 0.020049045 -0.020190008
000180 49 09 4b be 54 9c 20 be f1 ea 45 3f 88 b9 36 3f
       -0.19827761 -0.15684634 0.7731162 0.7137685
000190 2c ef 67 3c a9 6c 71 3e 89 9e 65 bd 46 e6 23 3e
       0.014156144 0.23576607 -0.056059394 0.16005811
0001a0 1c eb 36 3f 70 1d 25 bf 87 19 83 bf 89 b5 64 bf
       0.714525 -0.64498043 -1.0242165 -0.893395
0001b0 42 b5 57 bf 49 20 86 3e 52 ea b9 bd 76 c7 16 be
       -0.8426095 0.26196507 -0.09077896 -0.14724526
0001c0 32 80 56 be 5e fd 19 bf a6 83 71 bf cc 32 e0 3e
       -0.2094734 -0.6015223 -0.94341505 0.43788755
0001d0 2b b6 ca 3e c8 a9 57 be 70 a4 41 bf 42 89 1f be
       0.39592108 -0.2106086 -0.75641537 -0.15579703
0001e0 8c 38 ad bd 65 b3 6a 3c 1a fd 81 3f 97 48 35 3f
       -0.08458051 0.014324998 1.0155365 0.7081389
0001f0 6a d3 0f 3f 3d 99 cb bd 65 54 8c 3e 91 89 a4 3e
       0.5618197 -0.09941337 0.27408138 0.32136205
000200 d2 44 29 3f 54 ba 5b 3e f1 04 93 be f4 fc 7a bf
       0.66120636 0.21457797 -0.28714707 -0.98042226
000210 3b e5 0f bf de 5e 52 3e 48 1c bc 3e 9c 9e 79 be
       -0.5620915 0.20544001 0.36740327 -0.24376911
000220 7f e9 a0 be c1 d8 b6 be 38 49 df 3c 5a 88 81 3e
       -0.31428143 -0.35712245 0.027256593 0.2529934
000230 a9 39 12 bf 66 e9 eb be 81 c4 2b bf 2d a7 fb be
       -0.5711923 -0.46076506 -0.67096716 -0.49150982
000240 43 51 4e 3d b7 44 6e be ef c3 ff bd 0b 81 fd be
       0.050370466 -0.232684 -0.12488543 -0.49512514
000250 5a 32 fc be d0 da 3c bd 64 9e 50 3e 4e 4d 9a be
       -0.49257165 -0.046107113 0.20372921 -0.30137104
000260 29 98 00 bf f5 a6 ac 3e ab b1 3a 3f 05 ad 5b 3e
       -0.5023218 0.33721128 0.7292735 0.2145272
000270 a0 88 54 3f 39 23 3e 3f 5e 88 69 bd 06 fb 02 3d
       0.83020973 0.74272496 -0.057014816 0.031977676
000280 de 05 ea be 21 67 c1 3e 1a 93 d3 3d b1 cc 41 3f
       -0.457076 0.37773994 0.10330792 0.7570296
000290 72 6d 76 be 51 df 84 bf 16 c0 70 3e 7d 1b 0c 3f
       -0.24065188 -1.0380651 0.23510775 0.54729444
0002a0 0a 97 f0 be 3c 7e ae bf 89 97 a7 bf 1e cc b1 bf
       -0.46990234 -1.3632274 -1.309312 -1.3890417
0002b0 02 2a cc bf 9f ce a2 bf 48 2f 4f 3e 8a 50 ec 3e
       -1.595032 -1.2719306 0.2023288 0.46155196
0002c0 4a 4b 8e be f5 53 46 be f0 1f 70 be da 90 22 3d
       -0.27791816 -0.19367965 -0.23449683 0.039688922
0002d0 a7 57 c9 3e 7a a4 7f 3d 1e 7e 46 bf 1a 31 32 bf
       0.39324686 0.062412716 -0.7753619 -0.69606173
0002e0 a3 14 02 3d 6b ff 9b 3e 4f 3a a2 3f 24 ef 1f be
       0.031757962 0.30468306 1.2674044 -0.15618569
0002f0 f4 47 3f bf a3 0b 75 3f 7f 6c 82 be ea 89 70 3f
       -0.74719167 0.9572088 -0.254734 0.9396044
000300 6f 13 97 bd d2 d5 2f bf 97 1e c2 bc ac ce 36 be
       -0.073767535 -0.6868564 -0.023696227 -0.17852277
000310 d9 7c b4 3e 52 e4 93 3e bb 38 d7 bd a8 6c 84 bd
       0.352515 0.28885132 -0.10508867 -0.06466037
000320 6c fb 9e bd af 7b b4 be 26 dd 90 be f0 d6 12 bf
       -0.07762799 -0.35250613 -0.28293723 -0.5735922
000330 fe c9 23 bf 52 d9 bb 3e bd 59 bf be f0 c5 34 bf
       -0.6398009 0.3668924 -0.37373152 -0.7061453
000340 b3 5d c8 be 0b e8 b9 be 82 72 88 3e be 1f 73 bf
       -0.39133987 -0.36309847 0.26649863 -0.9497031
000350 7d 2a 1b bf bf bc 03 be 0c 99 20 3d d3 5a 91 be
       -0.60611707 -0.1286497 0.039208457 -0.28389606
000360 4e 04 35 bf 16 64 7a 3d d5 74 c9 3c 19 2d 51 3f
       -0.70709693 0.061130606 0.024591843 0.8170944
000370 ec 1e 6f bf 2d 76 58 be e9 27 0c 3d 0c 8c 8d bb
       -0.9340656 -0.2113883 0.03421775 -0.0043196734
000380 ce 5e 34 3f 33 7f 94 bd 0d e4 8e 3c d8 52 03 bd
       0.7045716 -0.07250824 0.017442727 -0.032061428
000390 10 f6 0a bd 2f 26 60 3d 7c 2f de bc d4 bc 42 be
       -0.03392607 0.054723915 -0.027122252 -0.19017345
0003a0 5b 57 1f be 6f 71 3c be b7 da 91 3d 00 d2 32 3e
       -0.15560667 -0.18402646 0.07121795 0.17462921
0003b0 4c dc 09 be 31 78 3f 3e 9e 26 36 bd 98 83 60 3d
       -0.13462943 0.18698193 -0.044470422 0.054812998
0003c0 2d 8d c1 bd d0 66 7e bc 07 5f 15 3d 6e 7d b6 bd
       -0.09450755 -0.015527442 0.03646758 -0.089106426
0003d0 03 13 91 3c 9f da e6 3d 33 0c 1f be 40 1c cb 3c
       0.01770926 0.112721674 -0.15531997 0.024793744
0003e0 77 18 e2 bc f8 5a 85 bd
       -0.027599556 -0.065114915

conv1.bias f4 [10]
000000 66 7c 5a bf 87 54 06 bf c0 73 86 be 3f e7 0c c0
       -0.85346067 -0.5247273 -0.26260185 -2.2016141
000010 e2 99 81 bf 3c 48 4c bf 87 88 b2 be 94 70 82 bf
       -1.0125086 -0.7979772 -0.34869787 -1.0190606
000020 09 3f b9 bd 96 31 4a be
       -0.09045226 -0.19745478

conv2.weight f4 [20, 10, 5, 5]
000000 42 78 8e 3c fe 50 0b 3e 79 51 c8 3e d0 82 44 3e
       0.017391328 0.13605115 0.3912466 0.19190526
000010 7b 42 49 be b6 03 16 3e de 84 6b be c3 4d 90 be
       -0.19654267 0.14649853 -0.22999904 -0.28184327
000020 55 f7 a0 bd d4 c4 b1 be df 87 07 be b4 f7 d3 be
       -0.07859675 -0.3472048 -0.13235424 -0.4139992
000030 17 ca 6c bc f9 9c 4e bc 04 90 a7 be c0 b0 9e be
       -0.014452479 -0.012610667 -0.32727063 -0.30994225
000040 57 ca 0c 3e 90 10 84 3e d9 af a1 3c a8 78 d5 bc
       0.13749062 0.25793886 0.019737171 -0.02605851
000050 57 77 b8 be b9 7d 0a be a6 25 3c 3e be 83 80 3e
       -0.3602855 -0.13524522 0.18373737 0.2510051
000060 8d 70 6a 3d 58 f5 86 3e 9a 23 41 be be c9 b3 3d
       0.057236243 0.26359057 -0.18861237 0.08778714
000070 73 ef 7c 3d 36 eb da bb b0 42 ed 3c d8 bd ed be
       0.061751794 -0.0066808714 0.028962463 -0.46433902
000080 de 32 c2 be fb 9b 96 be 68 68 1c be 18 c3 0a be
       -0.37929434 -0.2941588 -0.15274203 -0.13550985
000090 fd 66 c0 be 76 dc 70 be 32 8d 4d 3d e7 8a f6 bd
       -0.37578574 -0.23521599 0.050183482 -0.12038212
0000a0 60 42 bf bd 6c a8 cf 3e 45 de 0d 3e e8 66 90 3d
       -0.09338832 0.40558183 0.1385432 0.07050878
0000b0 ad 90 a9 3e 57 43 07 3d 9d cb b2 bd 35 dc 5c 3d
       0.3311819 0.033023205 -0.087302424 0.053920943
0000c0 21 4b 90 3e ec eb 46 3d 86 e3 25 3d f3 2d 6e bd
       0.2818232 0.048564836 0.040500186 -0.05814929
0000d0 d3 74 23 bd d0 eb 17 3c 0d f3 ae 3c b8 a8 9a bc
       -0.039906334 0.009272531 0.02135613 -0.01887928
0000e0 ff 23 2a bc d9 6c 28 bd c1 8f 4b bd 0d 58 a0 3c
       -0.010384559 -0.04111943 -0.04969764 0.019573236
0000f0 71 f1 b5 3d fd 57 c3 3d 54 9c ed 3c e6 b4 9a bc
       0.08883942 0.09538267 0.029005207 -0.018885087
000100 1a 64 1e bd 6a 49 0d bc a0 d0 19 3d f6 1e 12 bd
       -0.038669683 -0.00862346 0.037552476 -0.035674058
000110 75 67 f2 3c f9 f5 26 3d 1b 61 6a 3c c1 a9 41 bd
       0.029590348 0.04076192 0.014305378 -0.04728103
000120 00 61 28 bd 68 a4 2f bc 32 85 26 bd d6 95 86 3e
       -0.04110813 -0.01072035 -0.04065437 0.2628619
000130 b8 4a 28 3e e3 70 db 3e 83 83 db 3d ee 5f a8 3c
       0.16434753 0.42859563 0.10718443 0.020553555
000140 cb e2 be be bf e2 97 be 2b 4e 8f 3d e2 64 d9 bd
       -0.37282404 -0.2966518 0.06997331 -0.10614945
000150 64 27 50 be 18 0a d6 be 0d 61 65 be 2c 7b d7 bd
       -0.20327526 -0.41804576 -0.22400303 -0.1052154
000160 de 10 4d be 78 f2 84 bd fe a4 31 be ab df a3 be
       -0.20025966 -0.0649156 -0.17348096 -0.32006583
000170 38 31 77 be 8e 3d 28 bc 43 1f c6 bd 56 1c 00 be
       -0.24139869 -0.010268582 -0.096739314 -0.1251081
000180 bb de 89 bd fe a9 df bd dd 67 a9 be a2 25 ac be
       -0.067319356 -0.10921095 -0.33087054 -0.33622462
000190 7c 37 c5 be 93 cf fd be d0 13 d5 be 4c 64 a0 bd
       -0.38518894 -0.4957243 -0.41616678 -0.0783163
0001a0 9b 71 8a bd 18 fc d9 be db ed d0 be e6 b7 c1 3d
       -0.0675995 -0.42575145 -0.4080647 0.09458904
0001b0 2d b7 0a be 3b e8 de bd 6d c3 64 be 5d be f0 3e
       -0.13546439 -0.10884138 -0.22340174 0.47020236
0001c0 7e cf ab 3d 4a 0c 7a bd 06 0e aa 3c 48 56 a8 3e
       0.08389185 -0.061046876 0.02075864 0.32878327
0001d0 d6 7d dd 3e 14 7c c0 3e 9e 31 7c 3d 52 e6 7a 3e
       0.43260068 0.37594664 0.061570756 0.24501923
0001e0 bb 77 23 bf 6d 09 d4 be 1d 0e 95 be f0 52 0d be
       -0.6385457 -0.4141344 -0.2911233 -0.1380117
0001f0 c0 dc 23 be 72 5e c9 be 35 18 8c be e2 8b 84 3d
       -0.16002178 -0.3932987 -0.27362218 0.06471993
000200 83 7d 35 3c 72 cf d9 3c d8 6b 97 be 4c 45 51 be
       0.011077288 0.026588175 -0.29574466 -0.20436591
000210 d6 53 90 3e 03 48 6c 3e 7d c2 f3 3e 65 73 06 bf
       0.28188962 0.23074345 0.4760932 -0.5251983
000220 9d ba d8 bd ad cd 1f 3e c5 fe 33 3c fd 9b ed be
       -0.10582469 0.15605803 0.010986035 -0.46408072
000230 40 dc 72 be 76 34 f1 be 06 54 15 bf 11 2b b2 be
       -0.23716831 -0.47110337 -0.58331335 -0.34798482
000240 3b 5f b9 be 62 7a 20 3e 44 75 73 3e a5 4e c5 bd
       -0.36205468 0.15671685 0.23775202 -0.09634141
000250 75 f3 99 bd 8b 77 1a bc e1 38 02 bf 48 8b 57 be
       -0.07517139 -0.009427915 -0.5086804 -0.21049225
000260 40 32 67 bc 1d 84 07 3e d1 09 b0 3e 20 5c 42 be
       -0.014111102 0.13233991 0.3438249 -0.18980455
000270 2b 5f 84 bc 0e 13 bd bd fb 9d ac 3e ed d1 97 3d
       -0.01615866 -0.0923215 0.3371428 0.07413087
000280 1e 26 0d bf 69 8b 8c be fe 4b 1f 3e 44 7d 15 3e
       -0.5513629 -0.27450112 0.15556332 0.14598566
000290 b2 35 05 bf 90 ed 11 be f0 8c 1c be fa 15 80 be
       -0.5203506 -0.14250779 -0.15288138 -0.25016767
0002a0 cc 52 1e 3e 8e 33 3e be 0f 29 b0 3e fb 10 26 bd
       0.15461272 -0.18574354 0.34406325 -0.040543538
0002b0 d3 0c 15 3d 74 20 fd 3d 59 4d ce bb 6e b6 1d 3e
       0.036389183 0.123597056 -0.0062958417 0.15401623
0002c0 ad 87 06 3d 43 54 9c 3d 63 55 b0 3d 57 d3 45 be
       0.032844234 0.07633259 0.08610036 -0.19318901
0002d0 2c b5 24 3c b0 72 30 3e 05 97 6d 3e b6 1e c4 3c
       0.01005296 0.1723125 0.2320214 0.023940425
0002e0 61 39 40 bd eb c6 68 bd b8 ae dc 3e 76 30 43 be
       -0.04692972 -0.056830328 0.4310205 -0.19061455
0002f0 ec 0e 28 be 58 3c 6e bd 50 b6 6e 3e 47 47 c4 3d
       -0.16411942 -0.058163017 0.23311734 0.095839076
000300 bb 22 ff bd 3e 89 24 bd de 94 af 3e 45 82 8e bd
       -0.12457796 -0.040169947 0.34293264 -0.06958441
000310 82 14 04 be ea 23 62 3c 17 03 0e bc de e7 03 be
       -0.12898448 0.013802508 -0.008667729 -0.12881419
000320 cd f0 93 be af ae fc 3d 98 a8 f2 3e 1c c5 ab 3e
       -0.28894654 0.12338006 0.47394252 0.3354882
000330 e6 28 4b 3e 1c fa ab be 40 dd 8c be 1b ea b1 bd
       0.1983982 -0.33589256 -0.2751255 -0.0868723
000340 3b 00 87 bd 6d 7a eb be a5 48 9b be 53 aa 18 be
       -0.06591841 -0.4599184 -0.3032886 -0.14908724
000350 cc b0 f3 bd 30 4c c6 bd 53 06 a3 bd dc 61 0e be
       -0.11898956 -0.096825 -0.079601906 -0.13904518
000360 c1 f0 33 be 3d 2d 01 3f b3 db f3 3e 5a 88 45 3e
       -0.17572309 0.50459653 0.47628555 0.19290295
000370 10 b4 a1 bd ce 2f ff be 45 b6 b8 be 3b c3 c1 3d
       -0.07895672 -0.4984116 -0.3607656 0.094610654
000380 07 ff 9a 3d 49 e6 30 bd 67 f0 da 3b b7 4d 4c 3d
       0.07568174 -0.043188367 0.00668149 0.049878802
000390 53 01 15 bd ac a9 e6 bc 39 1a b2 bb 0f 6e 9b 3c
       -0.036378216 -0.028157078 -0.005435255 0.018973378
0003a0 b7 cd 6c bd 73 b2 78 3d 20 86 b6 3c 13 a9 15 3d
       -0.057813372 0.060717057 0.022280753 0.036538195
0003b0 e0 0c d5 3c 8d da 5b bd 88 bf 41 bd 97 96 3d 3d
       0.026007116 -0.053675223 -0.0473018 0.04628619
0003c0 4d bb 5e bd 84 f2 2a 3d 6e 33 b7 bc cb 93 57 3d
       -0.054377843 0.041735187 -0.02236339 0.05263118
0003d0 e0 63 03 3b 3b a9 6a bd 0c 63 d7 3b d5 61 7a 3d
       0.0020048544 -0.057290297 0.0065730866 0.061128456
0003e0 d6 e0 0d bd 53 0f fe bc fb b8 13 be 32 c3 83 be
       -0.03463825 -0.031013167 -0.14426033 -0.2573486
0003f0 29 15 6d be dc 1e b2 b9 21 6c 08 3e 24 f0 b8 be
       -0.23152603 -0.00033973798 0.13322498 -0.36120713

conv2.bias f4 [20]
000000 88 2c 23 bf bf ff 21 3e e1 86 01 bf 03 a9 60 be
       -0.63739824 0.15820216 -0.50596434 -0.21939473
000010 a3 81 5e 3e 00 b4 cb bd df 2b d7 be a0 92 59 bc
       0.2172914 -0.09946442 -0.42025658 -0.013279587
000020 74 61 b9 bd 53 65 6a be 5d 8e 4b 3d 42 a6 ca bd
       -0.09051791 -0.22890215 0.049696315 -0.098949924
000030 78 4a 74 be e5 c0 c6 be b3 b7 d4 3d c5 6d f8 bc
       -0.23856533 -0.38819042 0.103866 -0.03032578
000040 98 1e 96 be c0 5a 89 be d1 12 bd bc cc 7d ab bd
       -0.29320216 -0.2682705 -0.023080261 -0.08373603

fc1.weight f4 [50, 320]
000000 17 5f f1 3d eb 63 97 3d 99 d0 0d 3e 80 9f cc 3c
       0.11785715 0.07392105 0.13849105 0.0249784
000010 13 f6 20 3e 1f 29 36 be 58 8e 0f 3d e7 08 3d 3e
       0.1571887 -0.17789124 0.03504786 0.18460427
000020 59 0a 81 bd a7 05 b9 be cc 72 0d be 90 fe 11 3e
       -0.06300802 -0.36137125 -0.13813323 0.14257264
000030 07 dc dc be 0f 12 2f be 39 c8 65 3c 05 2e c3 3b
       -0.43136618 -0.17096733 0.014024788 0.0059564137
000040 90 96 44 be c1 cd 1e be d9 67 5f 3e 8f 2b 50 3d
       -0.1919806 -0.15508176 0.21816958 0.05082279
000050 59 68 08 be a3 a8 3b 3e 94 dc 2a 3d 7f f5 0f 3e
       -0.13321055 0.18326049 0.041714266 0.14058493
000060 34 5e 9b be 2b 4e fe b9 ff 33 60 be 28 50 5a bd
       -0.3034531 -0.00048504895 -0.21894835 -0.0532991
000070 87 d0 7d bd d1 b9 23 3d bb fe 08 bc 95 fc 89 be
       -0.061966445 0.03997213 -0.008361514 -0.26950517
000080 36 90 f9 bc 78 75 57 3e 94 ba b6 3c b2 33 c6 3d
       -0.030464273 0.21040905 0.022305764 0.09677829
000090 15 0e 4a bd d8 62 0f 3d 5c a7 4b 3d 1f ed 6e 3e
       -0.049329836 0.035006374 0.049720153 0.23332642
0000a0 33 05 41 be 01 22 cd bd 50 30 0d 3e 67 08 3b 3e
       -0.1884964 -0.10016251 0.13787961 0.18264924
0000b0 d6 c0 0b bd 56 07 47 be 6e d4 fa 3c de 1c 15 3d
       -0.03411945 -0.19436392 0.030618872 0.036404483
0000c0 81 23 5f 3d ff c3 1e be a2 57 03 be 22 26 52 bd
       0.05447722 -0.15504454 -0.12826398 -0.051305898
0000d0 92 23 4a be cc c0 26 be cb e0 13 3d 76 3c a3 bc
       -0.19740131 -0.16284484 0.03610305 -0.019926291
0000e0 63 63 ad 3e e5 5e 69 3e d4 20 bf bd 44 7c 56 bd
       0.3386489 0.22790106 -0.09332433 -0.052364603
0000f0 ee 6a ad 3d 42 9d 00 3e b3 69 5c be 27 d7 cf bc
       0.08467661 0.12559989 -0.21524696 -0.025371147
000100 20 d6 d9 bd c3 79 88 be 13 79 fb bd c3 fa 0c 3e
       -0.10636544 -0.26655397 -0.122789524 0.13767533
000110 13 35 25 bd b5 a0 81 3d 8f 95 8d bd c6 17 0b be
       -0.04033382 0.063294806 -0.06913292 -0.13583288
000120 e7 a7 47 3e e6 d2 56 bd 9c e0 93 be ad c8 9a be
       0.19497643 -0.052447222 -0.288823 -0.30231228
000130 fb 3b b3 bc 69 2c 45 bd d9 2f f9 bb bd fa 85 3c
       -0.021879187 -0.048138056 -0.007604581 0.016354913
000140 6b f8 b6 3b 1e ed 01 3e 20 a8 0a 3e 35 ce c3 bd
       0.005583813 0.1268811 0.13540697 -0.09560815
000150 08 ac ca 3d cd f2 0f bd 06 d3 df bc 14 3e 97 bc
       0.098960936 -0.035143662 -0.027322304 -0.018462218
000160 37 21 62 3e 9f 5b cd 3d 9c ed 90 be 7a 7c ed 3d
       0.22082983 0.10027241 -0.28306282 0.11596008
000170 06 c4 ab be a8 c9 31 be c9 44 3d bd 86 ff 44 3e
       -0.33547992 -0.17362082 -0.046208177 0.192381
000180 8c b9 03 3e dd 12 8b 3d b0 53 0c 3d 7f 56 d6 bc
       0.1286375 0.06790707 0.034259498 -0.026164291
000190 90 31 63 bd 55 26 0f be 81 54 27 be 15 ca 59 bc
       -0.05546719 -0.13979466 -0.1634083 -0.013292809
0001a0 17 03 3d 3d 29 54 43 ba c6 ff 09 be 2b a6 8a 3e
       0.046145525 -0.00074512005 -0.13476476 0.270799
0001b0 c3 5d 5f be 1e 34 d9 bd 35 cc a8 bd 28 17 bd 3d
       -0.21813111 -0.10605644 -0.082420744 0.09232932
0001c0 2a fb d9 3d 91 25 55 3d 38 34 00 be a0 0e 39 bd
       0.10643609 0.05203778 -0.1251992 -0.045179963
0001d0 56 33 80 3e 7d 72 23 3c 0f 04 e5 bc 87 a3 9d bd
       0.25039166 0.009976027 -0.027956037 -0.07697206
0001e0 42 d6 68 be a7 9a 8d be c5 9d 06 3d 10 75 af 3e
       -0.22737983 -0.27657053 0.032865304 0.34269
0001f0 b6 f4 da bd ae 45 bf bd de 3e 1c 3b d2 3d 8b 3e
       -0.10691206 -0.09339462 0.0023841183 0.27195603
000200 a0 be 96 3d f6 4f 5b 3e d9 a3 b9 bc d8 53 ba bc
       0.073605776 0.21417221 -0.022661136 -0.022745058
000210 db 8e a3 3d 4a 43 f1 3d 7a 91 6c bd 64 c9 87 be
       0.07986232 0.117804125 -0.057755925 -0.26520836
000220 19 06 0e 3d 72 92 bf 3c 13 98 99 bd 7b 2f 1c 3d
       0.034673784 0.02338526 -0.07499709 0.03813122
000230 9b 7f 0d be b2 98 26 be 40 8b 00 3d 01 8b 03 3e
       -0.13818209 -0.16269186 0.0313828 0.12845995
000240 52 41 bf 3d 80 f8 6c 3e b9 10 e6 3d 53 02 e4 bd
       0.09338631 0.2314167 0.11233658 -0.11133256
000250 9d ab a3 3e 89 79 05 be 8a da 22 3e 82 71 a0 be
       0.31966868 -0.13034643 0.15903679 -0.313366
000260 19 db 9d bd 73 48 8f 3d 21 8a 0c be 52 1f e8 3d
       -0.07707805 0.069962405 -0.13724567 0.11334099
000270 cd b2 54 bd e0 ad 58 be 62 d8 89 be 3a 22 04 3e
       -0.05192833 -0.21160078 -0.269229 0.12903681
000280 e9 7b 83 be 5d 9d 6a be 7c e5 06 be 88 a9 bb bd
       -0.25680473 -0.22911592 -0.13173479 -0.09163195
000290 3c 6a 9f 3e f2 3a 3d bd 35 26 21 be ef b2 9e bd
       0.31135738 -0.046198793 -0.15737231 -0.077489726
0002a0 e4 65 e2 3d 55 3c 42 bc e5 76 84 be 7d d8 db 3c
       0.1105459 -0.011855205 -0.2587196 0.026836628
0002b0 41 a4 f7 bd a3 ef 25 bc ac b6 80 be a1 94 81 bc
       -0.12091876 -0.010127935 -0.25139368 -0.015817942
0002c0 77 e4 5f bd c2 fa 10 3d 7d 59 25 bd 02 0d 0b be
       -0.05466124 0.03539539 -0.040368546 -0.13579181
0002d0 d2 9d c8 be 54 a6 26 be 61 e5 69 3d 2f 09 c7 bd
       -0.39182907 -0.16274387 0.05710352 -0.097185485
0002e0 0d d7 92 3d 88 6f 87 3d 77 11 02 3e 92 04 33 3d
       0.07169924 0.0661307 0.12701975 0.04370553
0002f0 68 6e 4e 3e 86 8a ca 3d 5c 39 7e bc cb 9a 98 bd
       0.20159304 0.098897025 -0.015516605 -0.074513994
000300 d1 4a 86 3e cd e5 74 3c 4e ce 5a bc 73 ad 30 be
       0.26228955 0.014947367 -0.013354851 -0.17253666
000310 5f fb 1c 3d 0e 8f 10 3e 0c cb 32 3d 44 fe 61 be
       0.038325664 0.14117071 0.04365067 -0.22069651
000320 29 af 11 3e c7 0a 01 3e ac 09 22 3c 84 bd af bb
       0.14226975 0.12601767 0.009890001 -0.005363168
000330 af af 91 be 6d 0a 9a be 27 9a 3e 3d c6 27 76 3d
       -0.28454348 -0.3008608 0.04653373 0.060096525
000340 64 24 c4 3d 78 7a 55 3e 35 ef 23 3e 49 31 bc bd
       0.095772535 0.208475 0.16009219 -0.09189088
000350 bd fa be bc d3 43 0c bc 64 a9 3c 3d 9d 9f 2f 3e
       -0.02331292 -0.008561092 0.04605998 0.17150731
000360 81 8e 54 be 01 ea 4d bd ac ab 8c 3e 79 89 c3 3e
       -0.20757486 -0.05027199 0.27474725 0.3819082
000370 94 91 2c 3d b6 ec 0f be 34 84 2c 3e 5b 48 4a 3e
       0.04213102 -0.14055142 0.16847306 0.19754164
000380 9d 18 e8 3d f0 eb 54 be 7c 2f 77 be 84 6c 9b bc
       0.113328196 -0.20793128 -0.24139208 -0.018972643
000390 3b 70 8d be ef 49 ff bd b8 11 11 3d 87 b8 e8 bc
       -0.27624688 -0.124652736 0.03541729 -0.028408302
0003a0 4d 1b 86 3e bf 67 4e 3e c2 39 5f be 63 28 cd bc
       0.26192704 0.20156763 -0.21799377 -0.025043672
0003b0 4c 02 e1 3d 1c a0 50 3e fe 4d 22 be e3 11 b7 3d
       0.10986766 0.20373577 -0.15850064 0.089389585
0003c0 07 53 1a 3d 47 66 11 3e f3 00 95 be 93 c5 8b be
       0.037676837 0.14199172 -0.29102287 -0.27299175
0003d0 26 65 db be aa 55 d0 bd a9 a0 08 3e a6 e1 07 3e
       -0.42850608 -0.10172589 0.13342537 0.13269672
0003e0 e4 c2 b2 3d 18 30 61 3e e3 20 c1 3d 71 20 f5 bd
       0.08728579 0.21991003 0.09430101 -0.11969078
0003f0 3c a1 9d 3d 63 9b 41 bd 43 31 5b be 73 24 8b bc
       0.07696769 -0.04726733 -0.2140551 -0.016985154

fc1.bias f4 [50]
000000 09 cb e2 bd 8d f3 0d be ad 1a c7 3d e6 f8 10 be
       -0.11073882 -0.13862438 0.09721885 -0.14157447
000010 8c 94 5f 3c 08 25 55 3c a7 29 15 3f 55 74 e7 3d
       0.013646256 0.013009317 0.5826668 0.113014854
000020 c9 a6 88 3d 2c 28 8e 3d b4 c9 f4 bb f1 05 fd 3d
       0.06672437 0.06941256 -0.007470334 0.12354649
000030 0b eb e9 3e fe 31 bc 3e c7 e4 70 be 4f be ff 3e
       0.45687136 0.3675689 -0.23524772 0.4994988
000040 0e b8 39 3e 67 56 15 3d 03 bf 84 be f1 25 53 3e
       0.18136618 0.036459353 -0.2592698 0.20619942
000050 d4 13 3f 3d d2 7b 39 bd 75 3f 13 3f a7 62 b4 bd
       0.04664977 -0.0452841 0.575187 -0.08807879
000060 0b 8e 7e 3c 64 e4 1d bd 71 cf 5a 3e de 98 28 3f
       0.015536795 -0.03854789 0.21368195 0.65858257
000070 37 a2 62 3e a8 8b c0 bd 3e 1c b2 3e 71 7b 19 3f
       0.22132193 -0.09401637 0.34787172 0.5995398
000080 92 e6 e7 bc 52 05 f6 bd db ad 16 3e 8b 9a 18 3f
       -0.028308187 -0.120127335 0.14714758 0.59610814
000090 91 d4 fc 3e b0 d2 97 be 42 ed 9f 3e 57 1b 4c 3d
       0.49380925 -0.2965293 0.312357 0.04983076
0000a0 d4 cb 3b 3f 1a 60 ba 3e a1 4e 47 3e 1b 81 e1 bd
       0.7335789 0.36401445 0.19463588 -0.11010953
0000b0 62 02 18 3d 1a 7f 67 be 44 b5 5e 3d 7d 35 45 3e
       0.037111647 -0.22607079 0.054372087 0.19258685
0000c0 2f 78 bc 3e 11 3c 97 be
       0.36810443 -0.29538015

fc2.weight f4 [10, 50]
000000 8a 86 24 be b4 ca c2 3d 75 db c8 3e 40 c4 84 be
       -0.16066948 0.09511319 0.39229932 -0.25930977
000010 d3 df bd 3e bb 66 64 be 7d d7 61 bd 3a f3 11 3e
       0.37084827 -0.22304814 -0.055137146 0.1425294
000020 e8 82 99 3e 7c d8 b3 3e 95 51 6b bd ef 51 fb 3e
       0.29982686 0.35126102 -0.05745085 0.49085948
000030 84 8e 01 be b3 e9 8b bd cd b9 47 be b3 b7 fb be
       -0.12652022 -0.06831684 -0.19504471 -0.4916359
000040 ba c1 4f 3e c2 70 cc 3e db 7c 3e be 87 ba ca 3e
       0.20288745 0.39929777 -0.18602316 0.39595434
000050 f5 e5 a4 3e f6 39 cf 3d 96 a5 b5 be 58 3f a4 be
       0.32206693 0.10118477 -0.35477895 -0.32079577
000060 02 f7 e9 be df c0 03 3f 77 87 c9 3e 92 db cf be
       -0.45696265 0.5146617 0.39361164 -0.40597206
000070 ad d5 d5 be 9f 40 7a be 10 d9 db be 60 d0 ba 3e
       -0.41764584 -0.24438713 -0.42939043 0.36487103
000080 d8 f3 59 3e 08 08 ca be c7 4e c9 be 75 a2 98 be
       0.21284425 -0.39459252 -0.39317915 -0.29811445
000090 a1 70 1e be 13 2c 34 be 68 e9 85 be 80 54 4f be
       -0.15472652 -0.17594938 -0.26154637 -0.20247078
0000a0 7b 89 0d be 10 49 46 be 8b ac da be af 55 c6 be
       -0.13821976 -0.19363809 -0.42709765 -0.38737246
0000b0 dd 51 a7 3c ba 52 2f be 27 aa 9e be c8 df 04 bf
       0.020424778 -0.17121401 -0.3098919 -0.51903963
0000c0 ae 59 eb be f5 d9 0c be 45 f8 44 be e7 65 3f be
       -0.45966858 -0.13755019 -0.19235332 -0.18691216
0000d0 ea 3d a2 be 83 eb 26 be d7 00 c7 be 62 10 20 3e
       -0.31687862 -0.16300778 -0.38867828 0.1563125
0000e0 af 0e 01 3f af 59 a0 be f5 3c b4 be 97 7b 94 be
       0.5041303 -0.31318423 -0.35202757 -0.29000542
0000f0 b8 33 04 bf 09 0b 07 bf d8 de d5 3e b0 7b e8 3e
       -0.51641417 -0.52751213 0.4177158 0.45406866
000100 b7 29 9c be e1 70 c3 3e 19 bf b5 be 9b 42 0f bf
       -0.30500576 0.38172057 -0.35497358 -0.55961007
000110 ed 96 98 be 15 9b b3 be 6b 9d 80 be 58 7b e0 be
       -0.29802647 -0.35079256 -0.251201 -0.43844104
000120 3b 42 cf 3e bf ac 76 be 6a 7a 95 be ac 45 16 bf
       0.40480217 -0.24089335 -0.29194957 -0.5870006
000130 09 00 91 be 82 e4 46 3e b3 93 32 be 9e 27 a4 be
       -0.2832034 0.19423106 -0.17439155 -0.32061476
000140 8c 50 a6 be 80 c5 b7 3e da 3f 1e bf 79 76 fe be
       -0.32483327 0.35892868 -0.6181618 -0.49699762
000150 d4 20 98 3e 42 fc e2 3e 21 3a 67 3e 86 21 b3 be
       0.29712546 0.44333082 0.22580768 -0.34986514
000160 5b 09 83 3e a1 98 94 be 3b 29 88 3e 45 1a e9 3e
       0.25593075 -0.29022697 0.26593956 0.45527855
000170 48 80 77 bd 42 89 d7 be 33 7a c7 be 87 c5 a6 be
       -0.060425073 -0.42096907 -0.38960418 -0.32572576
000180 cd 1f aa be 3f e1 9d 3e 49 5d c9 3e 53 6b c6 bd
       -0.33227387 0.30835912 0.39328983 -0.09688439
000190 98 7f a2 3e d2 ca 5c 3e 78 f2 99 3e c2 24 b5 3e
       0.3173797 0.21561745 0.300678 0.35379606
0001a0 1c c2 8a be fc e8 ed 3e 00 52 6d 3e f3 88 8a 3d
       -0.2710122 0.46466815 0.23175812 0.06764402
0001b0 37 98 a6 3d 01 32 b5 3e d5 c0 96 be c3 b3 a3 be
       0.081345014 0.35389712 -0.29443994 -0.31973085
0001c0 42 4b 8c 3e 1f 9c a5 bd 50 d2 1e bd 9f 9c 42 bd
       0.27401167 -0.08086418 -0.03877479 -0.047512647
0001d0 10 1f 15 bc c3 64 56 be 1d db 91 bd 23 e6 cb 3a
       -0.009101644 -0.20936875 -0.07121871 0.0015556257
0001e0 72 c1 af 3e a1 ad 1e 3e 05 a9 ed 3d 3d 93 84 be
       0.34327275 0.15495922 0.116045035 -0.25893584
0001f0 89 f6 33 3e 37 78 09 bf 0a 37 aa 3e 8b 22 25 3d
       0.17574514 -0.5369906 0.33245116 0.040316146
000200 e6 48 40 bd 18 0d 01 3e 6f bc 08 bc 8d 75 84 be
       -0.04694452 0.12602651 -0.008345707 -0.25870934
000210 75 38 25 bd 00 85 9f 3d d8 83 2d bc 94 e5 a7 bd
       -0.040337045 0.077890396 -0.010590516 -0.081980854
000220 2a 20 da 3e 14 69 8a 3e f6 b6 92 be 52 66 2d 3d
       0.42602664 0.27033293 -0.28655213 0.04233391
000230 34 25 2f be c4 f2 e1 3e e4 b1 00 3f b1 70 ac be
       -0.17104036 0.44130528 0.5027144 -0.33679727
000240 20 a4 e0 bd ad 64 e6 3e c8 be 99 3d f3 ab cb 3e
       -0.10968804 0.44998685 0.07507092 0.39779624
000250 d5 5e 82 be 72 d2 44 be 29 c2 55 3e 5d 29 83 3d
       -0.25462976 -0.19220904 0.20874847 0.06404374
000260 be 97 41 be 89 7c c1 3d ea df 88 be 43 20 e3 3c
       -0.18905541 0.09447581 -0.26733333 0.027725345
000270 b1 c2 ad be f7 54 93 be 3d 6e b5 3e 2b 7f 4a be
       -0.339376 -0.2877576 0.35435668 -0.19775073
000280 31 c8 8e be fc 70 d5 bd 38 64 af bd 79 8a a0 be
       -0.2788711 -0.10421941 -0.08564037 -0.31355646
000290 0f a9 54 3c 82 0b 0b 3f 02 12 49 be f0 ad fa bd
       0.01297976 0.54314435 -0.19635776 -0.12240207
0002a0 57 31 d1 3b 68 58 8e be 92 3b 84 3e 99 5a 9b 3c
       0.0063840556 -0.27801824 0.258267 0.018964099
0002b0 07 cc 96 3c 17 35 f9 3e 97 26 c0 3e b7 76 70 be
       0.018407835 0.48673317 0.37529442 -0.23482786
0002c0 ff 8b 76 bd 2f 15 63 bd 66 b8 a4 3e a1 56 0d 3f
       -0.060192104 -0.055440124 0.32171935 0.5521031
0002d0 7a 62 38 be eb c5 a7 be f0 59 6c 3e 7c 49 99 3d
       -0.18006316 -0.32768187 0.23081183 0.07484719
0002e0 42 cc 0b 3f 0b a7 e9 be 7b a1 12 be 91 76 c9 3e
       0.5460855 -0.45635256 -0.14319412 0.3934827
0002f0 63 aa cc be 05 d5 d1 bd 16 5e 88 be 8b f4 00 3c
       -0.39973745 -0.102457084 -0.26634282 0.007870804
000300 ac bf cf 3e 36 a7 34 be 2a 55 c8 3e 1f f0 86 3e
       0.40575922 -0.17641911 0.39127475 0.26355073
000310 ad 69 ab 3d 19 1b b1 3e 5c 1f ca be 21 e1 e5 bd
       0.083697654 0.34590986 -0.3947705 -0.112245806
000320 d6 bf d6 bd 5a 8f b2 bd 70 96 ca 3c 42 c1 9b be
       -0.104858086 -0.087187484 0.024729937 -0.30420882
000330 d7 16 c3 bd 89 71 ce 3d 34 8e 5f 3d 7a dc 87 3e
       -0.09525841 0.10080249 0.054578975 0.26535398
000340 ad 7c bd bd f0 bb 8e 3c 12 db e4 3e 7e 32 3a be
       -0.09252296 0.0174236 0.44698387 -0.18183324
000350 0d ab a9 bd 9f a5 ed 3c d0 05 06 3c 31 5c 30 be
       -0.082845785 0.029009638 0.008180097 -0.17222668
000360 72 e9 a6 3e 77 83 92 be a8 d2 70 3c 45 81 88 be
       0.3259998 -0.28615925 0.014698662 -0.26661125
000370 35 8b 01 bd ff eb a5 3e 0a 2c 45 3e aa ef 82 3e
       -0.0316269 0.32406613 0.19255081 0.25573474
000380 b7 f8 32 be a7 16 c0 bc dc 91 4a be eb b6 af 3e
       -0.1747769 -0.023448301 -0.19782203 0.34319243
000390 0f 74 9a 3e 07 82 54 be 0d 8d 0a 3f 42 77 5d be
       0.3016667 -0.20752726 0.54121476 -0.21627524
0003a0 ca 5c 10 3d f6 1a 02 3f a2 9b 4e be f5 18 bb 3e
       0.03524474 0.5082239 -0.20176557 0.36542478
0003b0 19 7d 9e 3e 27 9a 80 be 5b d8 f9 3c 90 ba f0 3e
       0.30954817 -0.2511761 0.030498674 0.47017336
0003c0 aa 23 25 bd a0 09 94 bd be a3 80 bd 22 5f c9 3e
       -0.040317215 -0.07228398 -0.06281231 0.39330393
0003d0 89 9d af be 93 e6 9d be 68 98 0b 3e 17 3e 80 be
       -0.34299877 -0.30839977 0.13632357 -0.2504737
0003e0 eb ca 08 3f a8 da db bd b1 4b 28 be 5f 14 64 be
       0.5343463 -0.10735065 -0.16435124 -0.22273396
0003f0 3a d3 fa bd 27 55 97 be 8a e3 1f 3d 7d ab 6c be
       -0.122473195 -0.29557154 0.039035358 -0.23112293

fc2.bias f4 [10]
000000 21 24 f4 3e d0 cd 5d 3f 3e 54 84 be ed 2c 52 3e
       0.47683814 0.8664217 -0.25845522 0.2052495
000010 a0 46 5f be b0 5b 46 be f7 01 87 bf f5 f4 ff be
       -0.21804285 -0.19370914 -1.0547475 -0.49991575
000020 26 7e e8 3e e1 dc 80 be
       0.45408744 -0.25168517

momentum_buffer f4 [10, 1, 5, 5]
000000 7a 4c 53 3c 94 c4 54 bd 51 a2 98 bd 2a c0 9c bc
       0.012896651 -0.051945284 -0.074528344 -0.0191346
000010 17 ee 67 3c 88 8d 80 3d 2a 95 95 bd df 1a 8c bd
       0.014155886 0.06276995 -0.073038414 -0.06841063
000020 19 97 cc bc 62 49 51 3b e0 34 fd ba 3e 8b a9 bd
       -0.024974393 0.0031934609 -0.0019318126 -0.082785115
000030 dc 02 13 bd 29 1f a5 3b ac 23 39 b9 28 e6 cd bd
       -0.0358914 0.005039115 -0.00017656264 -0.100536644
000040 c2 f1 9b bd dc 13 f1 3c 36 43 e3 3c 86 22 a8 ba
       -0.07614471 0.029428415 0.02774201 -0.0012827672
000050 c1 6a ec bd d5 b8 93 bd eb 1f 95 3c 7b ba 0e 3d
       -0.11543799 -0.07212988 0.018203696 0.03484581
000060 9b c4 df bb a7 34 e4 3c 1a c6 06 bc bb 63 b9 bc
       -0.006828857 0.027857138 -0.008225942 -0.022630563
000070 ff 96 aa 3c b4 56 19 3d 53 61 05 3d 20 70 8f bb
       0.020823954 0.037436202 0.03256352 -0.00437738
000080 08 55 f5 3b c2 d7 18 3d c1 1a 99 3c 02 66 42 3d
       0.007486943 0.037315138 0.018689515 0.047460563
000090 d2 ab c2 3c 48 f3 ea 3c dc 69 7c 3c f2 b3 17 bb
       0.023763571 0.028680459 0.015406098 -0.0023148027
0000a0 29 b6 a1 3d 42 ff 30 3d c8 a0 8b 3b 9d 86 43 bb
       0.078960724 0.043212183 0.00426111 -0.0029834874
0000b0 42 dd 7b 3a 36 e2 c1 3c c6 b8 bd 3c 9a f2 1e 3b
       0.000960786 0.023667436 0.023159396 0.0024253489
0000c0 36 c3 d0 ba 82 7e b6 3b ce 63 a1 bb 16 5b a6 ba
       -0.0015927318 0.00556928 -0.0049252277 -0.0012691941
0000d0 cf d7 97 b8 25 54 c6 3a 32 76 2a 3b 9c a8 36 bb
       -7.2404386e-05 0.0015131278 0.0026010391 -0.0027871495
0000e0 3e 07 20 ba 27 00 76 b8 39 c5 1c ba bc 00 14 3a
       -0.0006104595 -5.8651112e-05 -0.0005980316 0.00056458614
0000f0 e0 09 14 bb 36 70 38 b9 b6 f2 e1 b7 bc 7f 1d ba
       -0.0022588894 -0.00017589409 -2.6935111e-05 -0.00060081086
000100 44 bc 04 3a 47 24 38 bb b4 8f c0 b9 22 e7 2d b9
       0.0005063454 -0.0028097795 -0.0003672816 -0.0001658467
000110 db c2 d8 39 17 ce 04 bb 6f 6b 2d bb cf 55 0b bb
       0.0004134391 -0.002026444 -0.002646174 -0.0021260863
000120 0c 59 1a bb fc 52 36 ba 04 f3 7d bb f1 49 50 bc
       -0.0023551611 -0.00069551147 -0.0038749585 -0.0127129415
000130 79 f7 52 bc 3a 06 9b bd a4 1f b2 bd bb fa b4 bd
       -0.012876385 -0.07569547 -0.08697441 -0.088368855
000140 40 52 34 bb 53 0c 29 bc 42 5a 2d bd a8 1d d9 bc
       -0.0027514845 -0.01031788 -0.042322405 -0.026503399
000150 78 29 bc bd 0a 53 45 3a 4b e7 c1 3a d4 7b 3f bd
       -0.09187597 0.00075273274 0.0014793662 -0.04674895
000160 36 3f 93 bd c2 01 97 bd 93 d5 51 3b e8 82 3f 3c
       -0.07189791 -0.07373382 0.003201817 0.011688925
000170 9a 60 8a bd 90 a0 cd bd 49 64 e2 bc 6a 5d 91 3b
       -0.067567065 -0.100403905 -0.02763571 0.0044361847
000180 14 98 7d 3c f2 37 bc bd 59 70 17 be 28 d8 0c 3c
       0.015478153 -0.09190358 -0.14788951 0.008596458
000190 7c c7 8a 3d 2a 17 3a 3d e1 11 9b 3c a6 fb 39 3c
       0.0677633 0.045432247 0.018929424 0.011351502
0001a0 5b 9d c0 bb de b4 45 3d 3b e4 91 3c 94 27 2a b6
       -0.0058781332 0.04826819 0.017809024 -2.5355012e-06
0001b0 73 68 52 b9 4a 09 06 bc 8a 8f 27 3d 65 6e 9c 3c
       -0.00020066071 -0.008180926 0.040908374 0.019095609
0001c0 c0 2a dd 3b 40 e6 82 3b 30 9c 08 3a 5b da 6d 3d
       0.006749481 0.003994733 0.0005211262 0.058069568
0001d0 4e d0 69 3d e7 74 bc 3c c8 81 ad bc f9 f2 b6 bc
       0.05708342 0.023004962 -0.021180049 -0.022332655
0001e0 94 1f 88 ba 73 56 17 3c e5 8e 18 bd c3 ca b7 bd
       -0.0010385388 0.00923692 -0.03724565 -0.089742206
0001f0 c8 bf 6d bd ca 39 23 3d c2 13 05 3e fa fd 42 3e
       -0.058044225 0.039850034 0.12995818 0.19042197
000200 d7 fe 10 3e 7f 6d 25 3d 34 bc b0 ba 38 68 3d 3c
       0.14159714 0.040387627 -0.0013483823 0.011560492
000210 62 05 ac 3d c4 ab c4 3d 6a 2e dc 3d 56 7e 43 39
       0.08399464 0.09603074 0.1075104 0.00018643713
000220 0c 34 d4 37 9d c1 bf 3b 23 b1 94 bc 88 5b 2e bc
       2.5296606e-05 0.005851938 -0.018150872 -0.01064194
000230 9f 86 28 3a c1 cf ad 35 bc 8e d7 b8 bc 26 20 bc
       0.00064287515 1.2949969e-06 -0.00010278585 -0.00977486
000240 a4 1f 17 bd c2 33 a1 3b be f2 bf 38 b3 3b bb 39
       -0.03689541 0.0049195 9.152804e-05 0.000357119
000250 47 16 7f 3c 9b 34 82 3d da 10 0c 3e 81 74 b2 3d
       0.015569276 0.0635769 0.13678303 0.087136276
000260 a0 df 7a bb ec 48 92 3c de 6b b3 3c 90 e5 f4 3d
       -0.0038280264 0.017857037 0.021902021 0.11957848
000270 15 60 f1 3d 58 33 c7 3c 20 c1 7f 3b 64 8b 63 bc
       0.11785904 0.024316475 0.0039025024 -0.013888214
000280 92 e8 0a bd 81 04 2e 3d 57 bf d9 3d 7e 78 95 3d
       -0.033913203 0.042484764 0.10632198 0.07298373
000290 1f 37 eb bc 83 25 c6 bd c0 02 8f 3a 22 be b0 3d
       -0.028712807 -0.096751235 0.0010910854 0.08630015
0002a0 a6 d1 dc 3d eb 12 95 3d a5 1d 7c bc b7 8d 87 3b
       0.10782175 0.07278999 -0.015387927 0.004136767
0002b0 90 99 e5 3b ac 69 9f 3c f9 04 70 3d 51 32 6e bd
       0.0070068315 0.019459568 0.058598492 -0.058153454
0002c0 8e e4 11 3e 80 21 dc 3d fc fa 1b 3b 0a 33 c0 bc
       0.14247343 0.10748577 0.0023800721 -0.023461837
0002d0 7f b5 63 bd 1c b9 59 3d eb 87 2d 3d cb aa e3 bb
       -0.05559301 0.05315505 0.04236595 -0.0069478503
0002e0 b2 c8 9c bc 8a 10 92 3c b3 14 5b bd c7 56 55 bd
       -0.019138668 0.017830152 -0.053486537 -0.05208471
0002f0 b1 ed 8a bc f3 fc 1e bd 6e 6f d3 3d 6b 7a 02 bd
       -0.016959043 -0.03881545 0.10323988 -0.031855028
000300 53 25 87 bd 6b 28 26 bd 7a 25 3f bd c8 e0 07 3e
       -0.06598916 -0.04056589 -0.0466666 0.13269341
000310 22 b8 5b 3d 7e 65 27 3d 8c ec 08 bd 29 4d 25 bd
       0.0536424 0.040868275 -0.033428714 -0.04035679
000320 dc 6a bf 3c cc ae 0e 3c a3 4d 72 3b 12 30 97 bc
       0.023366384 0.008708667 0.0036972545 -0.018455539
000330 1a 0f 6e bd c8 b3 28 3d b4 99 37 3b ae 77 c0 38
       -0.05811987 0.041187078 0.0028015198 9.1775655e-05
000340 0d 8b 85 bc 14 3c 1e 3c ff c0 5c 3d 07 86 d5 3c
       -0.016301656 0.009657878 0.053894993 0.026064886
000350 00 64 8d 39 a0 48 d6 3b 3c bd c6 3d 65 47 26 3d
       0.00026968122 0.0065394193 0.09704062 0.04059543
000360 bf c0 31 3d b7 97 9c 3c 5a fb a7 3c e2 1c 0c 3e
       0.043396708 0.019115312 0.020505596 0.13682893
000370 e1 7e e5 bb c5 be 07 3c dc d1 4b bc 9c 85 d3 3d
       -0.0070036505 0.008285229 -0.012440171 0.10328218
000380 5f fd b5 3d d4 c6 ea a9 9e 1e 55 9a ce 20 af 9f
       0.08886217 -1.0426179e-13 -4.40721e-23 -7.4169654e-20
000390 b1 a9 9b 27 1c 98 69 37 d7 64 d6 a9 ff 14 a1 a3
       4.320512e-15 1.3923298e-05 -9.521002e-14 -1.7464547e-17
0003a0 ae f8 8b 1d 99 21 4e 33 27 26 6b 37 48 a3 cd 33
       3.7050122e-21 4.799367e-08 1.4015975e-05 9.575757e-08
0003b0 d8 1a 47 34 25 e5 69 37 15 e5 6b 37 f9 d4 6a 37
       1.8543085e-07 1.3941234e-05 1.4060429e-05 1.3997073e-05
0003c0 bc d8 06 b2 04 ac 0d b3 91 c5 65 37 91 c5 65 37
       -7.849106e-09 -3.2985568e-08 1.3695463e-05 1.3695463e-05
0003d0 80 c4 63 37 c1 92 78 b0 c2 d2 ba 9d be 5f 66 37
       1.3576006e-05 -9.0430424e-10 -4.945171e-21 1.373136e-05
0003e0 be 5f 66 37 bb 5f 66 37
       1.373136e-05 1.3731357e-05

momentum_buffer f4 [10]
000000 23 60 ff bd 82 fb a6 3d c6 89 27 bb ae a1 b2 bd
       -0.124695085 0.0815344 -0.0025564297 -0.08722244
000010 45 9c d6 bd 7b 33 e8 3d 48 36 a0 3d 2c 40 08 bc
       -0.10479025 0.11337944 0.07822853 -0.008316081
000020 24 92 ee 3d 0f 92 6a 37
       0.11648968 1.3981494e-05

momentum_buffer f4 [20, 10, 5, 5]
000000 80 e4 79 3c f1 81 b5 3b ed 5b a5 ba d1 5d ed bb
       0.015252233 0.005539172 -0.0012615897 -0.00724385
000010 3f ff 5b bb 60 81 0a 3b 64 f1 4a 3b fd f1 a8 3a
       -0.0033568887 0.0021134242 0.0030966634 0.0012889501
000020 26 02 c7 ba 01 9c 8e 39 cc 61 16 3c 00 a9 f7 3a
       -0.0015183135 0.00027200583 0.00917859 0.001889497
000030 e7 03 8a ba 7c 0d 86 bb 4a b1 c0 b8 db 3b d1 3c
       -0.0010529727 -0.004090963 -9.188296e-05 0.025541237
000040 7a cd ff 3b 5e 1d 78 39 0c 7d 29 bc f3 63 7a bb
       0.007806477 0.00023662063 -0.010344755 -0.0038206547
000050 80 a3 d1 3c 5e 4f 0d 3c c8 dd 81 3a e3 21 24 bc
       0.025590658 0.00862488 0.0009908015 -0.010017845
000060 84 2b c6 ba a7 f6 12 3c 5e 6e 0a 39 73 b0 8e 3b
       -0.001511917 0.008969939 0.0001320182 0.0043545305
000070 a6 d9 0b bb 93 52 b5 3a 33 39 94 39 ce 0b 48 39
       -0.0021339445 0.0013833813 0.00028271377 0.00019077884
000080 38 62 fa b8 28 97 97 b9 ec 7d 4d 3b 30 8f b6 38
       -0.000119392236 -0.00028913585 0.0031355573 8.705107e-05
000090 9f 00 2e 3b d8 50 e2 39 73 91 12 b8 45 04 23 ba
       0.0026550663 0.00043166312 -3.4944573e-05 -0.0006218593
0000a0 bf a2 20 bb 1c 08 1d 3b 36 eb f2 b9 fd 0b 36 bb
       -0.0024511067 0.0023961132 -0.00046333083 -0.0027778142
0000b0 d8 d1 71 bb f3 69 87 3c 61 7d f3 bb 84 ff 84 bb
       -0.0036898758 0.016530013 -0.007430718 -0.00405878
0000c0 4a b7 1b bc d1 bc a7 3b ab fc 12 b8 88 12 9b 38
       -0.009504149 0.005118944 -3.5044428e-05 7.394428e-05
0000d0 10 52 38 b6 0f 79 2d b8 bf 05 1e 36 ec 59 d6 b6
       -2.7465903e-06 -4.135916e-05 2.354718e-06 -6.3881653e-06
0000e0 fe a8 76 ba fe a1 0a 37 41 1c 80 b8 64 04 3a 35
       -0.0009409337 8.263158e-06 -6.108778e-05 6.929679e-07
0000f0 d6 71 88 b7 42 67 ad 39 d5 83 ad 39 0d 15 dc b7
       -1.6265472e-05 0.00033074064 0.00033095354 -2.6235846e-05
000100 a6 c1 b4 b9 b7 fb cb 38 49 9e 81 b9 3b f6 a0 b9
       -0.00034476555 9.72668e-05 -0.0002472273 -0.00030701034
000110 a2 b4 12 b5 44 81 98 37 27 31 a7 b8 75 10 e7 b4
       -5.4652094e-07 1.8180006e-05 -7.972336e-05 -4.3039077e-07
000120 bd 6b b4 b5 60 73 22 b2 73 09 f5 b6 26 7c 59 bb
       -1.3442401e-06 -9.455874e-09 -7.302669e-06 -0.003318557
000130 eb a9 c6 bb a8 32 47 bc de 72 98 3c bf 6e da 3a
       -0.0060627363 -0.0121580735 0.01860946 0.0016665085
000140 13 29 ab 3a e3 81 fb ba 7f b1 bc bc f5 10 0d 3a
       0.0013058506 -0.001918849 -0.023033855 0.000538125
000150 54 94 f5 39 6a ca df 3b a5 27 45 b9 b2 c9 1d bc
       0.00046840555 0.0068295496 -0.00018802153 -0.009630607
000160 f1 2b 23 3a 7e 50 8c b9 48 5d 14 bc b9 2c 85 b9
       0.00062245043 -0.00026762852 -0.009055443 -0.00025401058
000170 d7 7e b5 bb 3a 49 df 39 ba 7c 79 ba 45 8e 03 bc
       -0.005538802 0.00042588433 -0.0009517182 -0.008029525
000180 e3 45 6e 3b 2b 3b 22 3a 06 74 2a bb dc 5d 39 ba
       0.0036357574 0.0006188626 -0.0026009097 -0.0007071176
000190 3a 40 63 3b ae b9 5e 3b ae 07 9a 3b 92 4d 65 3b
       0.0034675733 0.0033985185 0.0047006225 0.0034988862
0001a0 7a 6e 3a 3b 77 d1 4e 39 c2 3e e1 38 37 c4 91 b9
       0.0028447197 0.00019723723 0.000107405256 -0.00027802747
0001b0 85 ca 02 ba d4 72 41 ba 89 92 d7 3a f6 1c 8a 3b
       -0.0004989284 -0.00073794764 0.0016446869 0.004214878
0001c0 13 c8 dc 3b be ca 10 bb 55 54 29 bc dd 38 ab bb
       0.006737718 -0.00220935 -0.010335048 -0.0052252845
0001d0 a4 c5 14 b9 19 04 0b 3b e0 88 b6 3b 50 5a ed b9
       -0.00014188007 0.002121216 0.005570516 -0.0004527145
0001e0 e5 53 69 39 65 de 23 39 e1 5d 32 ba c1 06 a2 3a
       0.00022251865 0.0001562774 -0.000680415 0.0012361632
0001f0 56 61 e8 3a 0f 9d 8d ba 04 be ff ba 73 0c 91 ba
       0.0017729204 -0.0010804253 -0.0019511585 -0.0011066332
000200 aa e2 44 3c 26 0d 4d 3a dd 27 0e b8 30 ff 45 bc
       0.012016932 0.00078220887 -3.3892564e-05 -0.012084767
000210 9e fa a6 3b e0 e6 90 3c 6b b4 04 3c d0 cb 02 39
       0.005095794 0.017688215 0.008099656 0.00012473692
000220 2e aa 0c bc a7 ff 1f bc b7 a2 94 3b f0 89 93 3b
       -0.008585496 -0.009765542 0.0045359987 0.0045025274
000230 0b a0 27 bb a4 07 be 38 9c 1b 58 bb 5a 79 58 38
       -0.002557757 9.061329e-05 -0.003297544 5.161143e-05
000240 dc 2e 21 3a 8a 8d 46 bb 3c c2 6c bb cd 82 03 ba
       0.0006148645 -0.0030296766 -0.0036126515 -0.0005016744
000250 d2 2d 48 ba 9c 71 06 b8 9b dc 98 bb 02 42 2c ba
       -0.0007636222 -3.2053897e-05 -0.00466497 -0.0006571115
000260 d8 13 ed bb 44 5b c5 3a f7 b3 0f 3d 5b bf 7c 3b
       -0.0072350316 0.0015057107 0.035083737 0.0038566205
000270 8c 34 1d 3c 84 b0 d8 3c 6c 7f 02 3d 5c bb 33 3d
       0.009595048 0.026451357 0.0318598 0.04387985
000280 98 5f ce 3b ce 39 0b ba da 9d 2a 3a 66 8a 51 3c
       0.0062980168 -0.0005311043 0.0006508507 0.012789344
000290 0b a4 aa 3b 91 c7 de 3b f4 77 d0 bb 00 c9 cb bb
       0.0052075437 0.0067986925 -0.006361956 -0.0062190294
0002a0 b9 be b9 bb e5 7e 8d bb 99 28 ee 3c e4 a7 e6 bb
       -0.005668488 -0.0043181055 0.029072093 -0.007039057
0002b0 d1 09 bf bc 91 34 8d bc dc ce d1 b8 f6 e0 bc bc
       -0.02332011 -0.01723698 -0.00010004427 -0.023056488
0002c0 e7 43 1d 3c 44 e1 28 bb 19 4f a4 bc 7b 05 0c 3c
       0.009598709 -0.0025769034 -0.020057248 0.0085462285
0002d0 40 d7 77 3a e6 9e 0b 3b 46 67 02 3b 66 c3 e5 bc
       0.0009454377 0.0021304428 0.0019897982 -0.028047275
0002e0 18 92 6d 3b 78 6b a0 3c 18 07 09 3d 1c 8b e4 3b
       0.0036250409 0.019582495 0.03345403 0.006974591
0002f0 68 29 e0 bc b1 4b 99 bc e3 c2 b9 3b 39 10 52 3c
       -0.027363494 -0.01871285 0.0056689843 0.012821251
000300 c1 c3 ca bb 8c 2f d1 bb 9d 44 46 bc 0f cc c7 3b
       -0.0061878865 -0.006383842 -0.01210132 0.0060973237
000310 72 62 46 bc b4 cc 96 bb 0e 80 90 bb 72 b5 78 3b
       -0.012108432 -0.0046020392 -0.0044097966 0.0037949947
000320 e6 cf 58 3b cd ef 45 bc 84 79 ab 3b 2e 25 83 bb
       0.0033082902 -0.012081099 0.0052329917 -0.004002235
000330 7e 7e 94 ba 50 ee 1f ba 08 a2 d5 38 a3 48 0c 3a
       -0.0011329202 -0.000610088 0.00010186812 0.00053514
000340 01 02 9f 3a 9a c5 e9 39 32 3b 52 bb 23 ea 78 bb
       0.0012131335 0.00044588448 -0.003207874 -0.0037981353
000350 9d 5a 06 3b 1b da 55 ba 5d 53 4f ba dc ee c9 bb
       0.0020500787 -0.00081578054 -0.00079088454 -0.0061625075
000360 59 e4 b9 bb 1c cd 3e ba 2c b2 2b 3b 18 d6 c2 ba
       -0.005672973 -0.00072784885 0.0026198728 -0.001486483
000370 5d 12 99 3a 60 73 2e bb fd e1 7c bb f2 6a 03 b9
       0.0011678446 -0.0026619062 -0.0038586848 -0.00012532974
000380 e6 b7 b3 3b 80 04 00 00 6b 0c 00 80 ab ad 01 80
       0.005484569 1.614e-42 -4.455e-42 -1.54136e-40
000390 01 00 00 80 01 00 00 80 01 00 00 00 01 00 00 00
       -1e-45 -1e-45 1e-45 1e-45
0003a0 01 00 00 80 01 00 00 80 01 00 00 80 01 00 00 80
       -1e-45 -1e-45 -1e-45 -1e-45
0003b0 1b 25 9f 9e 2d de 32 2a 01 00 00 80 01 00 00 00
       -1.6850126e-20 1.5886659e-13 -1e-45 1e-45
0003c0 d7 39 80 a1 9d 87 99 17 96 1e 20 29 be db 7e 21
       -8.688927e-19 9.921627e-25 3.5553666e-14 8.6349374e-19
0003d0 6b 91 98 93 51 96 32 00 3d b7 aa a5 c7 70 4a 34
       -3.8513588e-27 4.645698e-39 -2.9614466e-16 1.8853744e-07
0003e0 56 b1 3a 9d 39 6c 00 00 7e be eb 3b 01 43 89 bc
       -2.4708576e-21 3.8823e-41 0.0071943393 -0.016755583
0003f0 9d 5d 9a ba 65 55 02 3e fb 73 23 3d fc c3 26 bb
       -0.0011777167 0.12727888 0.03990553 -0.0025446406

momentum_buffer f4 [20]
000000 9c c8 ef 3c 4a aa a7 3d f2 d6 19 3c 9a 2c 29 3c
       0.029270463 0.08186777 0.009389626 0.010325575
000010 a8 c1 95 3b 72 b6 e8 3c b5 e1 dd 3c ac 95 49 3d
       0.0045702048 0.02840731 0.027085165 0.049215004
000020 83 a1 9d bc 65 ef 18 bd ac 7d 21 bd 80 14 1b 3e
       -0.019242054 -0.03733768 -0.03942649 0.15144539
000030 49 46 86 3c 68 c0 11 3e bf 1d e6 3c 3e fa d3 bc
       0.016390936 0.14233553 0.028090356 -0.02587616
000040 b8 33 1f 3b e9 e5 9b bc 76 00 d0 bb f1 1f bb 39
       0.0024292301 -0.019030528 -0.006347711 0.00035691218
